review_pytorch/my_iris_model_sm.pt (torch, 2655 bytes, 6 tensors)

fc1.weight f4 [8, 4]
0.121016555 -0.43876114 -0.462117 -0.043890268 -0.3870318 0.07934177 0.14807653 -0.4770878
0.3600432 -0.0029795414 0.646047 0.080982186 0.5679546 0.12559754 -0.5834944 -1.2693758
0.49066892 -0.43747765 0.90542936 0.9482327 0.41379005 0.73246396 -0.8336992 -1.0641621
0.16464484 -0.111353755 -0.42134798 -0.3553493 -0.31912696 0.14395738 -0.3496034 0.22803837
00000000: 87d7 f73d 4da5 e0be 999a ecbe 48c6 33bd
00000010: 0829 c6be f07d a23d 60a1 173e da44 f4be
00000020: 9557 b83e 6944 43bb 5663 253f fdd9 a53d
00000030: 7965 113f a49c 003e e45f 15bf e87a a2bf
00000040: f538 fb3e 12fd dfbe 38ca 673f 61bf 723f
00000050: 4adc d33e c282 3b3f 506d 55bf 7736 88bf
00000060: a898 283e 700d e4bd ecba d7be 58f0 b5be
00000070: 9c64 a3be 9069 133e 38ff b2be e482 693e

fc1.bias f4 [8]
0.18574582 -0.20286602 1.1412743 2.3178945 -1.1212296 2.0460074 -0.31223232 0.3780589
00000000: 2734 3e3e 1cbc 4fbe 4715 923f 6258 1440
00000010: 7484 8fbf c9f1 0240 eadc 9fbe f090 c13e

fc2.weight f4 [9, 8]
-0.2174119 0.08211541 0.10358709 -0.35338488 -0.418638 0.09998049 -0.3494075 -0.263886
0.17289954 -0.11852983 0.9617826 -0.19279286 0.65945685 -0.8783019 0.06991243 -0.32654905
-0.35454902 -0.2716259 0.013551442 -0.79520255 0.78125024 -0.97641927 0.30476496 -0.21013083
-0.073696874 -0.060686797 0.17708814 -0.041777115 -0.1324408 -0.11843714 -0.30017546 -0.11276427
0.12664893 -0.19118746 -0.02873208 -0.87455255 0.8729051 -0.4184683 -0.20340693 0.011390448
-0.019687474 0.06268561 -0.22976097 -0.22057456 -0.051930577 -0.2718181 0.03937459 -0.1807519
-0.25721508 -0.017445713 0.37749335 0.0416123 0.87156653 -0.6278485 -0.11047746 -0.062431544
-0.129724 -0.34292972 0.8590935 0.636838 -0.31785434 1.0338688 -0.35234165 0.31245807
-0.337548 -0.20817648 0.1225063 -0.16050799 -0.1771747 -0.31122217 0.10800251 0.2850211
00000000: 3aa1 5ebe 202c a83d 7825 d43d ddee b4be
00000010: b857 d6be 92c2 cc3d 8ae5 b2be 111c 87be
00000020: 940c 313e c4bf f2bd 6237 763f 7e6b 45be
00000030: 2ad2 283f 65d8 60bf 402e 8f3d 7031 a7be
00000040: 7387 b5be 8d12 8bbe de06 5e3c 6592 4bbf
00000050: 0400 483f 9df6 79bf 270a 9c3e 892c 57be
00000060: 63ee 96bd b892 78bd 9856 353e 7b1e 2bbd
00000070: 909e 07be 2c8f f2bd 99b0 99be f4f0 e6bd
00000080: 42b0 013e a5c6 43be 8a5f ebbc ade2 5fbf
00000090: b576 5f3f 7a41 d6be e849 50be 009f 3a3c
000000a0: a047 a1bc 5061 803d 7646 6bbe 4cde 61be
000000b0: 28b5 54bd be2b 8bbe 4047 213d 0717 39be
000000c0: b2b1 83be 50ea 8ebc cf46 c13e a971 2a3d
000000d0: fc1e 5f3f aeba 20bf 0242 e2bd 38b8 7fbd
000000e0: 5ed6 04be 7c94 afbe 8ded 5b3f d107 233f
000000f0: cebd a2be d055 843f 2066 b4be 81fa 9f3e
00000100: 17d3 acbe 372c 55be 95e4 fa3d 355c 24be
00000110: 496d 35be 8358 9fbe 6c30 dd3d 49ee 913e

fc2.bias f4 [9]
0.017856995 0.68417954 -1.5449587 -0.44347155 -1.0341287 -0.035856277 -0.078140624 0.7421406
-0.028914211
00000000: d548 923c 6426 2f3f 35c1 c5bf b40e e3be
00000010: 545e 84bf 08de 12bd 3108 a0bd edfc 3d3f
00000020: 7fdd ecbc

out.weight f4 [3, 9]
-0.13862273 -0.6144493 -0.16061348 -0.03740764 -0.7436156 0.22666267 -0.6316448 0.81634945
0.29019827 0.09904876 0.71064436 -1.2968944 -0.13457198 -0.88938123 0.27184823 0.45535266
0.11115158 0.20519532 -0.19359007 0.22003841 0.95855397 -0.03727198 0.8871213 -0.32192153
0.8115705 -1.1910254 -0.08756614
00000000: 1ef3 0dbe 8d4c 1dbf dc77 24be c138 19bd
00000010: 985d 3ebf 421a 683e 79b3 21bf 47fc 503f
00000020: de94 943e 14da ca3d caec 353f a300 a6bf
00000030: 3dcd 09be 7dae 63bf b12f 8b3e fc23 e93e
00000040: 71a3 e33d b91e 523e 7a3c 46be c051 613e
00000050: cb63 753f 81aa 18bd 621a 633f e6d2 a4be
00000060: 16c3 4f3f 8573 98bf e055 b3bd

out.bias f4 [3]
0.5802381 -0.11250957 -0.6950454
00000000: 7c8a 143f 6b6b e6bd 7fee 31bf
