review_pytorch/classification_projects/cifar_review/myCIFARmodel_sm.pt (torch, 329575 bytes, 10 tensors)

conv1.weight f4 [6, 3, 5, 5]
000000 34 48 8e bd 6c 58 43 bc 32 1f cb bd 87 db 8d 3d
       -0.069473654 -0.011922937 -0.099180594 0.06926637
000010 6f 28 82 bd 5a bb e9 bd 1f 0a a6 3d 78 8c 90 bd
       -0.06355368 -0.114126876 0.08107399 -0.07058042
000020 a8 e6 4d bd 27 ba 16 3d af 90 95 bc 2e 6c 06 be
       -0.0502688 0.036798622 -0.018257467 -0.13127205
000030 30 ff 9a bc fd 00 87 3c 17 d2 2d 3d 50 87 e1 bd
       -0.018920511 0.016479963 0.042436685 -0.11012137
000040 f8 8a ad 3c 1a 04 67 bd 62 29 d3 bb da 09 6d bd
       0.02118443 -0.056400396 -0.006444142 -0.057870723
000050 bc 04 39 3d ee 71 65 bd 79 cf eb bd 48 e6 82 bd
       0.04517053 -0.056016855 -0.11514182 -0.06391579
000060 15 cf 6f bc c0 51 83 bb 2f 21 cf bd 11 9c e3 bd
       -0.014636775 -0.004007548 -0.10113751 -0.11113752
000070 8d a9 ce bd 57 d1 36 3d 1d 86 80 bc 03 e6 58 3d
       -0.10090933 0.044633236 -0.01568895 0.05295373
000080 f9 8a 73 bd a4 68 95 bd 4a 88 84 bc 4e 68 4b bd
       -0.059458707 -0.07295349 -0.016178269 -0.04966002
000090 cc 4c a1 bb e7 bf c1 bc c7 ef f3 3b fd 6f 9d bd
       -0.004922485 -0.023651076 0.007444355 -0.07687376
0000a0 37 07 2e bd cf 69 39 3d 37 5d 84 bc 8a 2d 3e 3c
       -0.04248735 0.045266923 -0.01615773 0.011607537
0000b0 22 3d 49 bd 61 75 25 3d d4 05 9a bd dc f1 8c bb
       -0.049130566 0.040395144 -0.07520643 -0.004301293
0000c0 b9 ad 4b 3d 66 30 39 bd b5 1e e3 ba 87 66 8b bd
       0.04972622 -0.045212172 -0.0017327877 -0.06806665
0000d0 53 24 8e bd 05 b5 6a bd e0 ba c5 bd 12 28 eb bd
       -0.06940522 -0.05730154 -0.09654784 -0.11482252
0000e0 bb 4f db bd 5e 6f 8e 3d f3 50 ab 3c e6 06 97 bd
       -0.10708567 0.06954835 0.020912623 -0.07374363
0000f0 6a fa 36 3d a0 e4 af bc 81 a0 0b 3d 79 c6 f5 bd
       0.044672407 -0.021471322 0.034088615 -0.12000746
000100 3a 48 c8 bd 03 f8 e0 bc 5b 6c 2f bd ec 1d 1b be
       -0.09779401 -0.027462011 -0.042827945 -0.15148133
000110 88 6b 7b 3d 9b f8 46 bd 36 f4 7a 3d 14 23 79 bd
       0.061381847 -0.048576932 0.061268054 -0.06082447
000120 4e 83 37 bd ef cf 67 3d e0 67 ab bc 9c ac 1a 3e
       -0.044802956 0.056594785 -0.020923555 0.15104908
000130 4f b0 37 3e ad 8e 81 3e f3 67 4b bc 54 24 2e 3d
       0.1793835 0.25304165 -0.01241492 0.042515114
000140 f0 81 22 3e 0f fc d0 3d 5b f3 88 3e 47 f1 a5 3e
       0.1586988 0.10204326 0.26748165 0.32410643
000150 92 b9 0f 3e 3d a1 93 3d 81 49 70 3e b9 10 f6 3d
       0.14035633 0.07208488 0.2346554 0.12014908
000160 89 27 a3 3e cb cb 8a 3e 3f 4a 80 bd 40 80 b2 be
       0.318661 0.27108607 -0.06264161 -0.34863472
000170 5d 23 01 bf 95 5a 94 be 2a ff 50 be 89 f8 1c bd
       -0.50444585 -0.2897536 -0.20409837 -0.03832296
000180 b3 e2 c1 bc cd 06 ad bd 25 5e f3 bd f5 79 66 be
       -0.023667669 -0.08448563 -0.11883191 -0.2250746
000190 23 cc 95 bd e0 cb 98 3c e2 22 b2 3d 73 71 35 3d
       -0.073143266 0.018651903 0.086980596 0.044297647
0001a0 2b 5b 07 be 0c 0f 68 3d e0 a8 20 3d 01 36 30 3e
       -0.13218372 0.056654975 0.03922355 0.17208101
0001b0 90 31 19 3e ce c7 32 3e 8e e4 c5 3d 43 7e 62 3d
       0.14960313 0.17459032 0.09662734 0.055296194
0001c0 3b a1 7b bc 09 e3 78 3e a1 12 2c 3e 36 19 ec bd
       -0.015358265 0.24305357 0.16803981 -0.11528246
0001d0 e3 10 af be f1 cd 21 bf 91 da bd be ae d8 11 be
       -0.3419257 -0.63204867 -0.37080815 -0.14242813
0001e0 e7 c2 a2 bd 35 e5 00 be 31 87 f6 bd 5b ab 80 be
       -0.07947331 -0.12587436 -0.120375045 -0.25130734
0001f0 77 c6 3b be 7b df d7 bd ec ba 8f 3c b5 79 4f 3e
       -0.18337427 -0.105406724 0.017545186 0.20261271
000200 ae 52 d5 bd 10 45 99 bd 08 41 a3 bd 04 0c c9 3d
       -0.104161605 -0.07483876 -0.07971388 0.09816745
000210 86 0c f7 3d ae ae 80 3e 63 b8 af 3c 19 04 b5 3c
       0.120629355 0.2513327 0.021450227 0.02209668
000220 77 60 15 bc c8 9c 2e 3e f4 05 59 3e ce 44 b9 3e
       -0.009117237 0.17051995 0.21193677 0.36185306
000230 11 e3 63 3c fa dc 8b be c0 6e c1 be 02 3d b9 be
       0.013909117 -0.2731703 -0.37779808 -0.36179358
000240 ae 01 c4 3d 7a d9 d4 bd 4d aa 1a 3d 47 93 16 3d
       0.09570633 -0.10393043 0.037760068 0.03676155
000250 e7 0e 38 be 18 c6 71 3d 03 50 a9 3e af 29 2e 3e
       -0.17974435 0.059026808 0.33068857 0.17008089
000260 63 17 54 bc 64 9c 96 bc 09 f0 85 3e 1e 1c f7 3d
       -0.012945029 -0.01838512 0.26159695 0.1206591
000270 07 f2 80 be 3e 49 c5 be 17 8f a0 bd ea 90 9f 3e
       -0.25184652 -0.38532442 -0.07839792 0.31165248
000280 84 81 27 bd 68 5d 89 be c0 ac 12 3e cd d5 3f 3e
       -0.040895 -0.26829076 0.14323711 0.18733902
000290 0a 15 2f 3e 93 af 11 be f4 76 b8 bc e5 f2 26 3e
       0.1709787 -0.14227132 -0.022517659 0.16303594
0002a0 59 76 22 3e 53 10 46 bc de 3d 11 be 72 92 90 3d
       0.15865459 -0.012088853 -0.14183757 0.07059182
0002b0 e6 5c 17 3e 25 03 64 3c 80 78 c4 bc 22 db 21 3e
       0.14781532 0.013916765 -0.02398324 0.15806249
0002c0 18 76 36 bd 44 e6 c8 be ee 89 d1 be 64 da c4 bd
       -0.044546217 -0.3923818 -0.40925545 -0.09611967
0002d0 38 38 ad bd c0 8e 03 bf 07 0f 00 bf 11 e6 5a be
       -0.084579885 -0.51389694 -0.5002293 -0.21376826
0002e0 fa ab 3f b9 8d 67 a0 be 2a ef 47 be 57 11 83 bd
       -0.00018279246 -0.31329003 -0.19524828 -0.06399792
0002f0 55 86 2d 3d 54 86 34 bd 52 bc bc bd 05 ac 7a 3d
       0.042364437 -0.044073418 -0.09215607 0.061199207
000300 25 40 5d 3e d3 df b5 3d ce ef 06 be 74 1e 09 be
       0.216065 0.08880582 -0.13177416 -0.13390523
000310 ad 29 c0 3d c2 cf 1b bd a5 35 0c 3d 97 38 40 be
       0.09382949 -0.03803993 0.034230847 -0.18771587
000320 62 56 8b 3e 83 cd ee 3c c0 f6 0d be e3 01 87 be
       0.27214342 0.02915073 -0.13863659 -0.26368627
000330 03 05 82 3e c2 b9 dc bd 73 bd cc be 55 ab 9c be
       0.2539445 -0.10777618 -0.39988288 -0.30599466
000340 b8 8e 24 be 48 02 1c 3e 19 05 3c bd da 82 a7 bd
       -0.16070068 0.15235245 -0.0459033 -0.08179255
000350 01 2e d0 3d 89 90 69 3e 46 83 2f bd 32 d5 92 3d
       0.101650245 0.22809042 -0.0428498 0.0716957
000360 04 96 3b 3e a8 e0 9e 3e 31 58 88 3e f8 f7 26 3c
       0.18318945 0.31030774 0.26629785 0.010190956
000370 69 63 cc 3d 53 b7 32 3e ff cd 86 3e 69 8b 16 3e
       0.099798985 0.17452745 0.26329038 0.14701618
000380 e0 9b b3 3c 3e f7 b4 3b 18 e6 0a bc 50 5f 93 3c
       0.021924913 0.0055226376 -0.00847771 0.017989784
000390 f6 b7 26 bd e0 d5 ad 3d 2a 73 03 3c 33 09 20 3d
       -0.040702783 0.08488059 0.008023063 0.039071273
0003a0 34 51 9d bd ce 06 a7 bc c1 5b b9 bc 12 06 4a 3b
       -0.07681504 -0.020388987 -0.02262676 0.0030826372
0003b0 50 b7 93 ba 3a 11 54 bc 84 ea 84 be d5 61 67 be
       -0.0011269841 -0.01294356 -0.2596017 -0.22595914
0003c0 de ac cd bd 76 c0 a4 bc 88 e5 1d be 32 b5 7c be
       -0.100427374 -0.020111304 -0.1541959 -0.24678496
0003d0 00 ec 1f be 2b cb 9f 3b 72 17 01 be 86 8d 8a be
       -0.1561737 0.0048765144 -0.126066 -0.270611
0003e0 31 a3 18 be ce 54 82 be 42 95 12 be f4 c5 e9 3c
       -0.14906003 -0.25455326 -0.1431475 0.028536774
0003f0 bb 01 b4 bc be c4 9e 3d e1 54 31 be dd 3d 52 3b
       -0.021973481 0.07752369 -0.17317535 0.003208033

conv1.bias f4 [6]
000000 6d 17 0f be 7e 2b 42 3c 18 33 de 3e a4 9d 92 be
       -0.1397378 0.01185119 0.43398356 -0.28635895
000010 9e 51 4a be d7 f6 5e 3e
       -0.19757697 0.2177385

conv2.weight f4 [16, 6, 3, 3]
000000 0d 45 e9 bd 93 0d 8a bd 74 00 87 3d 6e b8 3e bd
       -0.113901235 -0.0674087 0.06591883 -0.046562605
000010 7f 08 c3 bc 0f bd 3e bd 73 2b 96 bd ed a0 e5 3d
       -0.023807762 -0.04656702 -0.07332506 0.11212335
000020 dd 69 12 3e 08 28 f0 3d 8c ae 76 3e 63 c3 89 bc
       0.14298196 0.11726385 0.24090022 -0.0168168
000030 fa 3a 8a be 3c 9c 87 bd c2 c9 d5 3e b0 09 d5 3e
       -0.2699812 -0.06621596 0.41755491 0.41608953
000040 1c 79 78 be d9 79 55 be b6 79 7a 3e d4 30 6d be
       -0.2426495 -0.20847262 0.24460492 -0.23163158
000050 48 b3 84 bc 6c 93 34 3e ac 65 2a 3d c4 14 c7 be
       -0.01619877 0.17634362 0.041600868 -0.3888303
000060 70 67 8a be 86 33 20 3e 80 99 f7 3c fd a9 54 be
       -0.27032042 0.15644655 0.030224562 -0.2076797
000070 84 bf 3e bd b2 2d 3d be a0 08 a7 be 9d fa 8d bd
       -0.046569362 -0.18474463 -0.32623768 -0.06932566
000080 7e 22 49 3d 40 0d 01 be a4 89 02 be 96 6e 3c be
       0.04910516 -0.1260271 -0.12747818 -0.1840156
000090 cd d2 81 3c b1 fe 65 be 67 ea c8 bd d3 5f 37 3a
       0.015847588 -0.22460438 -0.09810334 0.0006995175
0000a0 56 69 ad 3c d5 77 87 bd 21 1b 69 3d 93 7c fd bd
       0.021168392 -0.06614653 0.056910638 -0.12377276
0000b0 d9 cc 47 3e 8c 38 60 3e 79 03 eb be bd 0b 0b be
       0.19511737 0.21896571 -0.45901087 -0.13578697
0000c0 30 4e a8 3d d9 a2 9c 3e 19 09 66 bf 8d 73 44 be
       0.08218038 0.30592993 -0.8985763 -0.19184704
0000d0 7e b3 5c 3e 64 06 da 3e 34 b0 81 3d 0b 8d 04 bd
       0.21552846 0.42583 0.06332436 -0.03236107
0000e0 a7 cf 8d bd d4 3e 81 bd b5 35 b2 3d f4 f4 56 bd
       -0.06924372 -0.06310812 0.0870165 -0.0524797
0000f0 be de 01 bd 2e 67 e0 bc 79 02 a8 3d 69 3e 3e 3d
       -0.031706564 -0.02739295 0.082035966 0.046446238
000100 fa e6 a2 bd 5f 0f 7b 3d db ec df be 48 6d c9 be
       -0.079542115 0.061293956 -0.43735394 -0.39341187
000110 c0 4e 89 be f2 48 a5 3d 03 6b 41 3c f5 88 3a 3e
       -0.26817894 0.08070554 0.011805299 0.18216307
000120 f3 4b 20 bc 9c 0f f3 3d 0b be ba 3d 49 6c 0c be
       -0.009783733 0.118682116 0.09118279 -0.13713183
000130 82 aa 65 bd f8 b4 7a be 93 83 e6 bd e4 40 43 3e
       -0.056070812 -0.24483097 -0.112555645 0.19067723
000140 7a f4 36 be 1b 85 7e bc b9 f0 9f bd 35 ba 38 3e
       -0.17866698 -0.0155346645 -0.07809586 0.18039782
000150 1d f3 a5 3d b9 a6 24 3d f3 b6 9b 3b 35 69 45 be
       0.08103011 0.04019806 0.004752034 -0.19278415
000160 78 8d 5c be 2e 12 15 3d 0c 11 58 3c af f1 8f bc
       -0.21538341 0.03639429 0.013187658 -0.017571298
000170 70 4d a1 3d 44 f7 25 3e 1f 37 83 be ba e6 5a 3d
       0.07876098 0.16207606 -0.25627992 0.053442694
000180 b9 ed 6e bd 03 b2 19 be 58 40 c4 3d 4a 49 a5 3e
       -0.05833218 -0.15009312 0.09582585 0.32282478
000190 d4 ab 0a bf d5 b7 aa 3e aa 52 ce 3e 30 dc 1a bf
       -0.5416844 0.33343378 0.40297443 -0.6049223
0001a0 9a 26 6b 3e 50 f4 b7 3e 89 d8 2f bf c2 b4 9d 3d
       0.22963944 0.35928583 -0.6868978 0.077004924
0001b0 54 bb bb bd 60 65 9b 3d e4 33 8b bc ce c7 9f 3d
       -0.091665894 0.07587695 -0.016992517 0.078017816
0001c0 3c 09 c1 bc 40 e4 e1 3b 70 0d b9 bd 28 68 54 bd
       -0.023563974 0.0068936646 -0.09035766 -0.051857144
0001d0 5c a8 db bc cf 71 a9 3e b5 f8 01 be 6f b9 b6 be
       -0.026813678 0.33094642 -0.1269253 -0.3568835
0001e0 eb 07 2f be a7 41 50 be 2c 6d 53 be 81 41 d7 be
       -0.17092864 -0.20337544 -0.20647115 -0.42042163
0001f0 0f f5 01 3d 9d 5b 8b be 24 0d 43 3e be 66 92 3e
       0.031727847 -0.27218333 0.19047982 0.2859401
000200 e0 47 82 3e a9 67 c9 3e 4d c8 ae 3d 5e a8 88 bd
       0.2544546 0.393369 0.08534298 -0.066727385
000210 a5 0c 04 3e e0 bc 1d be d6 91 33 bd 6b 61 ea 3e
       0.12895449 -0.15404081 -0.043840252 0.4577745
000220 cc 03 2d bd 79 a9 1b be c1 08 b8 be 4b 4f 5e be
       -0.04223995 -0.15201367 -0.3594418 -0.21709935
000230 e4 e4 54 be ae a7 2e be b2 03 02 bf 44 a9 1b bf
       -0.2079044 -0.17056152 -0.5078689 -0.60805154
000240 fc 4e ac be a8 1a b3 be 94 a8 12 3e ac 80 00 be
       -0.3365401 -0.34981275 0.1432212 -0.12549084
000250 64 00 46 3e 7a f4 a8 3d 25 4b 14 bd e3 ab 14 3e
       0.19336087 0.08249755 -0.036204476 0.14518695
000260 c5 2c 3a bc dc bd a4 3e 99 66 9e 3e 2c e0 a8 be
       -0.011363213 0.321761 0.3093765 -0.3298353
000270 78 2a 80 be d6 74 b1 be 21 19 a8 be 38 0d 9a be
       -0.250324 -0.3465945 -0.32831672 -0.3008821
000280 8c ec a6 be e0 cd c3 be d6 8b 94 bd fe 5d 8c bd
       -0.32602346 -0.38243008 -0.07253234 -0.06853865
000290 6d de b3 3d 5d a4 dc ba 70 c4 1a 3c be db 28 bd
       0.08782659 -0.0016833652 0.009446248 -0.041225187
0002a0 42 1e ae bd 74 25 99 3d 2b ff b7 bd ec 50 90 be
       -0.08501865 0.07477847 -0.08984216 -0.28186738
0002b0 f7 af a6 3e b1 ad e6 3d d4 ba 02 bb 75 63 ca bd
       0.32556126 0.11263598 -0.0019947784 -0.09882251
0002c0 9a 57 75 3e f4 4c 65 be 3c 13 6c 3e cc e8 d0 bd
       0.23959199 -0.22392637 0.23054212 -0.102006525
0002d0 d6 55 9e be 8b 96 15 3e 26 bf 62 3e 0f 64 03 3d
       -0.30924863 0.14608209 0.2214323 0.032077845
0002e0 b6 8c e5 3e 24 53 4c 3e d0 60 7e 3e f8 54 96 bf
       0.44833916 0.1995359 0.24841619 -1.174468
0002f0 25 6b 5b be 87 c1 04 be 5a 89 b0 bd 9b 6c d6 bd
       -0.21427591 -0.1296445 -0.08619948 -0.104699336
000300 31 42 3f bd 99 7a f8 bd a4 54 b3 3d 9f fe 82 3e
       -0.046693984 -0.12132759 0.08756378 0.25584885
000310 f1 07 4d 3e 10 83 90 3d 84 ca 65 3e a8 7d 9b bd
       0.2002256 0.07056248 0.22440535 -0.075923264
000320 a3 f5 70 be 6b dc 09 be 0f 84 cf bc 17 23 89 bc
       -0.23531203 -0.13462989 -0.025331525 -0.016740365
000330 b9 82 6a 3e fe a2 38 3e d6 2b f6 bc 65 85 82 3e
       0.22901429 0.18030927 -0.0300502 0.25492397
000340 c7 21 6f 3e 1d 9b ac bd da b3 0a bd 9a 86 87 bd
       0.23352729 -0.08428023 -0.033862926 -0.0661747
000350 e2 4d ea 3d e3 ae cb be b4 f8 ad be 29 f5 3a bd
       0.11440636 -0.39781865 -0.33978808 -0.04564396
000360 82 66 3f 3d fc 96 b3 3d aa 74 bc bd a5 c4 5f bd
       0.04672862 0.08769032 -0.092019394 -0.054630894
000370 98 43 eb 3d bf 1b 04 bc e2 d6 00 bd f5 d4 9b 3d
       0.11487502 -0.008063256 -0.03145493 0.07608978
000380 d2 16 00 3e e5 c5 24 3e a4 bb 9a 3e ee 0f 9d 3d
       0.12508705 0.16091116 0.30221283 0.07669054
000390 95 f7 80 be 35 f3 d5 be b4 3e f1 bc d0 a3 bf 3e
       -0.2518889 -0.41787115 -0.029448844 0.37429667
0003a0 00 a0 ae 3e 9f 66 a3 3e 28 76 38 bd c4 8b 34 be
       0.34106445 0.3191423 -0.045034558 -0.17631441
0003b0 a4 81 6f be b3 9d e8 3c 28 67 09 3e c3 8d 20 3e
       -0.23389298 0.02839551 0.13418257 0.15679078
0003c0 98 bf 60 3d 4a 48 0e be fc 92 80 3d a4 5c bc 3c
       0.054870218 -0.13894764 0.06278035 0.022993393
0003d0 70 92 b8 3d f6 3c c7 bd 30 96 b7 bd f0 a9 ab 3d
       0.09012306 -0.09728424 -0.08964193 0.083820224
0003e0 f7 e1 ca bd 03 45 5f bc a1 f2 98 3d 22 fb 9a bd
       -0.099063806 -0.0136272935 0.07468153 -0.07567431
0003f0 f0 39 1e 3e f1 cd 7b 3e 29 f6 c2 3d 11 2d 1d be
       0.15451789 0.24590279 0.095196076 -0.15349223

conv2.bias f4 [16]
000000 fb 65 8f 3e db c3 e1 3d 20 49 60 3d 86 70 98 bd
       0.28007492 0.110236846 0.054757237 -0.07443337
000010 4f d4 8b 3d d1 e4 c8 3c 28 76 2f 3e ac bd c8 3e
       0.06827604 0.02452317 0.17134917 0.39207208
000020 be c1 2e 3e 41 35 03 3f 1e ec c0 be dd 87 90 be
       0.17066094 0.51253134 -0.37680143 -0.28228655
000030 3b 7a fc 3d 9a f7 26 be 07 b3 93 be 34 c0 a4 be
       0.12328001 -0.1630539 -0.28847525 -0.3217789

fc1.weight f4 [120, 576]
000000 d0 ee 3b bd ae 9b 0b bc b6 69 24 3e d4 55 49 be
       -0.045882046 -0.008521004 0.1605595 -0.19661647
000010 2b a5 93 be 43 eb 8c be 64 b2 eb 3d 56 96 3e 3e
       -0.2883695 -0.2752324 0.11508635 0.18612036
000020 4f e8 f5 3d 3d 11 d8 bd be 72 13 bd b9 73 2b 3d
       0.120072 -0.10550163 -0.0359981 0.04185841
000030 3d bd b7 bd 7e 7d 3f be 18 93 15 3d 16 cd 86 be
       -0.08971641 -0.18700215 0.036517233 -0.26328343
000040 2d 9b 01 be 78 21 75 bd d6 de 12 3e d9 83 63 bb
       -0.12656851 -0.05984637 0.14342818 -0.0034716038
000050 98 8f 54 3d 6e 4f a0 3d 4f c5 1a 3d 47 1b 0f 3e
       0.051894754 0.0782765 0.037785824 0.13975249
000060 4b ea df bd cd 74 91 3d e5 1e 2e 3e 98 de ba 3d
       -0.1093336 0.07102356 0.17003973 0.09124488
000070 03 a5 8b 3e 10 1b 31 3e 8f ab 86 bd 2b 3e e2 bd
       0.2727433 0.1729548 -0.06575691 -0.11047014
000080 ee 06 eb 3d 09 6b 01 3e 42 06 6e 3e 2a f6 e6 3d
       0.11475931 0.12638487 0.23244575 0.11277421
000090 1e 0f 12 bc 02 89 21 be 03 ec 69 3e 7d b8 69 bd
       -0.008914737 -0.1577492 0.22843938 -0.057060707
0000a0 fa 73 26 bc 86 91 2d be 66 05 d0 3d 8c b1 38 bd
       -0.010159487 -0.16950044 0.1015728 -0.045091197
0000b0 9d 90 25 3d b6 10 a2 3c cb d3 10 3e 8b 19 84 3d
       0.040421117 0.019783359 0.14143293 0.064501844
0000c0 02 79 26 be d9 02 ef bd e7 9d eb 3d a5 2a ff 3d
       -0.16257098 -0.11670465 0.11504727 0.12459306
0000d0 a2 8e 67 3e cf bb 2a 3e cb 6b 96 bd d1 c0 04 bd
       0.22613004 0.16673206 -0.073447786 -0.032410447
0000e0 76 4b 99 3e 5e db f3 3e c5 58 4d 3e cb 4b fb bc
       0.29940385 0.476283 0.20053394 -0.03067579
0000f0 62 c6 df 3e fe f9 7b 3e 50 47 02 3e 00 52 04 3f
       0.43706042 0.24607083 0.12722516 0.5168762
000100 e1 e4 be 3e 01 59 54 bd df 02 65 3e 9b 99 c2 3e
       0.37283996 -0.051842693 0.22364376 0.38007817
000110 c7 b1 d1 3d d5 eb f3 3e c7 c1 28 3e 12 ca 22 bd
       0.102389865 0.47640863 0.1648017 -0.03974349
000120 ff ba b8 3e 91 4d 33 3d 17 e1 9a 3d 70 31 91 bd
       0.36080167 0.043775145 0.07562464 -0.070895076
000130 86 33 ef bd 1a 19 fc be ae 11 76 3c 49 71 a8 be
       -0.11679749 -0.492379 0.015018864 -0.3289893
000140 d1 3b f0 3d cd 32 6c be f1 dc 32 3e 59 c4 7a be
       0.11730159 -0.23066254 0.17467095 -0.24488963
000150 82 05 1a be c8 3c e6 bd da 49 7b bc df 6b 48 be
       -0.15041164 -0.11242062 -0.015337432 -0.195724
000160 8a 33 b8 3d f4 69 fb 3d d0 d9 46 3c 09 bd cd bd
       0.08994205 0.12276068 0.0121368915 -0.10045821
000170 14 90 12 3e 96 ff 6e 3d 27 05 cb bc f4 5c 02 3c
       0.14312774 0.058349214 -0.02478273 0.007956732
000180 cc 15 0a bd cf 44 86 bc 51 d5 25 bd a1 46 79 be
       -0.033712193 -0.016390232 -0.040486638 -0.24343349
000190 4e 61 86 be 00 52 6d be b8 f8 5f 3e 0d de 94 3c
       -0.26246113 -0.23175812 0.21872222 0.018172288
0001a0 bb db b5 be 8f 25 21 be 7a 76 1e 3d c7 0b 99 bd
       -0.35519204 -0.15736984 0.038687207 -0.074729495
0001b0 3f f8 07 3f 82 39 84 bd ee 0c ee 3c 27 6e 00 bc
       0.5311317 -0.06456281 0.0290589 -0.007838762
0001c0 3b 5c f6 3c cc 87 98 bd 9c dd 58 3d 20 cc 28 be
       0.030073276 -0.07447776 0.05294572 -0.16484118
0001d0 32 0c 18 3e 17 81 d8 3d 9a d9 a4 3d 2c 5e 9a 3e
       0.14848402 0.10571497 0.08049317 0.30149972
0001e0 e1 c6 c4 3d a6 99 94 3e ec 9e 3e 3e 0b 96 70 3e
       0.09608246 0.29023474 0.18615311 0.23494737
0001f0 17 d0 81 3e 16 d9 e4 3d f0 d3 df be be 77 f0 3d
       0.25354072 0.11174218 -0.43716383 0.11741589
000200 95 cc 43 3d 27 99 fc be 71 ca 80 bd 51 e9 11 3e
       0.047802527 -0.49335596 -0.06288613 0.1424916
000210 c7 14 f2 be 15 d3 aa bd 0b 4d f0 bc 79 83 f7 bd
       -0.47281477 -0.08341042 -0.029333612 -0.12085623
000220 c0 a5 86 bd f1 30 c1 be fe 2a 77 3e 82 43 b7 3d
       -0.06574583 -0.37732652 0.24137494 0.08948423
000230 2d 9f 1c 3e c2 79 aa bd 21 c0 4d be e1 8b 56 be
       0.15295096 -0.08324005 -0.20092823 -0.20951797
000240 ee f4 57 bd ef 06 33 bd 21 19 25 3d ba 3f 00 be
       -0.052723818 -0.043707784 0.040307168 -0.1252431
000250 6b 3b e9 bd 67 23 e1 3d 55 b5 ca 3e 82 1f 30 3e
       -0.11388286 0.109930806 0.3959147 0.1719952
000260 ee 64 fe bd f9 5f 44 bd f1 dc 19 3e 88 ad 99 3e
       -0.124215946 -0.04794309 0.15025689 0.30015206
000270 33 1c fd 3c 62 f5 e2 bd 49 1d a4 bd a7 ab 3d bc
       0.030897235 -0.11081959 -0.08013398 -0.01157657
000280 24 6e 77 3c e3 30 2e 3e c2 6c a2 bd 35 d4 8d bd
       0.015101943 0.17010836 -0.079309 -0.06925241
000290 c5 d5 20 3d 20 c5 40 be 63 ba 34 be 85 ff 34 3d
       0.039266367 -0.18825197 -0.17649226 0.044188995
0002a0 d4 a7 7d be 43 86 8b 3b e6 51 15 3e a9 52 2e bd
       -0.24771053 0.0042579486 0.14582023 -0.0425593
0002b0 a4 78 09 be a4 09 09 3e e7 47 6e bd 3f bf 69 be
       -0.13424927 0.13382584 -0.05817404 -0.22826861
0002c0 64 d6 5a be 26 6b d6 bd 5e 6e 33 be 42 62 4a 3e
       -0.21370846 -0.10469656 -0.1752257 0.19764045
0002d0 71 fe 40 3e 16 42 fc 3d bd c8 ee 3d cc 5f 8f 3e
       0.18847062 0.123172924 0.116593815 0.28002775
0002e0 62 88 6e 3d bf 29 fd 3d 73 18 ce 3d 53 51 95 3e
       0.058235534 0.12361478 0.10063257 0.29163608
0002f0 53 e1 0f 3f e1 d0 c7 3e 72 dd 15 3e 2c ae 24 bd
       0.5620319 0.3902655 0.14635256 -0.040205166
000300 a5 67 fc bc b0 a4 19 3e d7 77 9f 3e 37 ec 38 3e
       -0.03081114 0.1500423 0.31146118 0.18058859
000310 44 ed 23 bd a0 f6 c5 3e d1 d4 62 be 27 c7 9a be
       -0.040021196 0.38664722 -0.22151496 -0.30230066
000320 a9 e6 63 3e 66 ce dd 3d da 97 53 be 11 c1 e3 3c
       0.22255959 0.10830383 -0.20663396 0.027802022
000330 96 5a c5 3d 99 8b 0b 3c bd 2d 80 bb 2b 4c 8d bd
       0.096364185 0.008517169 -0.0039117024 -0.068992935
000340 3c ba 5b 3c 29 2f 5e 3d 39 e2 c9 bd ed 05 3f bd
       0.013411101 0.054244194 -0.09857602 -0.04663651
000350 99 52 48 bd f5 8f 8f 3c d7 61 23 be c5 17 4c be
       -0.048906896 0.017524699 -0.15955292 -0.19930942
000360 b8 84 83 3e e6 a5 d1 bd d9 6f a5 3d e9 f3 84 3e
       0.25687194 -0.10236721 0.08077974 0.2596734
000370 6b 7a 1f 3e e2 5b 39 3e e8 64 d0 bc 14 1f 85 bc
       0.15574042 0.18101457 -0.02543874 -0.01625017
000380 76 93 15 3e 97 c6 48 3e cc db 58 3e 07 a4 f4 3d
       0.14607033 0.19607006 0.21177596 0.11945348
000390 e4 37 b7 bd b0 1e 8b 3c 10 e2 ad 3c 01 40 11 be
       -0.08946207 0.016982406 0.021225959 -0.14184572
0003a0 6b b2 09 be a7 ad bb 3d 97 62 26 3e bb 20 36 bd
       -0.13446967 0.09163981 0.16248547 -0.044464808
0003b0 68 a8 83 3e 8a c1 46 bd 57 fb 0e 3e 35 81 90 3e
       0.2571442 -0.048524417 0.13963066 0.28223577
0003c0 ee 36 97 3d 2e 6e 0e 3e ec bd c0 3e 17 c7 9b 3e
       0.07383524 0.13909218 0.376449 0.3042533
0003d0 4d 3b 68 3d 48 11 ec 3e 07 76 0b 3f 89 38 9b 3e
       0.05669718 0.46106935 0.5447697 0.3031657
0003e0 20 dc 80 3d cf 7e 8d bc 6a 76 22 3e a6 39 8e 3e
       0.062919855 -0.017272381 0.15865484 0.27778357
0003f0 e4 e8 7d be f3 fd 64 bd 2b 08 8a bc dc ad 8c be
       -0.24795872 -0.055906247 -0.016849598 -0.27476394

fc1.bias f4 [120]
000000 78 e3 5b 3e 93 37 ab be 98 ce dc be f2 b3 2c bc
       0.21473491 -0.33440837 -0.4312637 -0.010540949
000010 20 73 64 bc 94 f7 14 bd e7 d2 8c bc a4 e0 46 3e
       -0.013943464 -0.03636892 -0.01719041 0.19421631
000020 d9 01 cf ba fb d9 49 be eb 36 b8 bc 09 65 61 bd
       -0.0015793397 -0.19712059 -0.022487124 -0.055027995
000030 57 c5 ca 3c 91 a8 b8 3e 1f 85 83 bd ed d0 03 bd
       0.024752302 0.36066106 -0.06421875 -0.03218167
000040 c2 55 5f bd 88 1d 49 3c f2 b6 2b 3f 14 dc 1d 3f
       -0.054525144 0.012275107 0.6707603 0.6166394
000050 94 d7 06 bd 2a ab a8 3d 23 a1 65 bc fc f7 72 bd
       -0.032920435 0.08235772 -0.014015469 -0.059318528
000060 f6 44 8b be ec b6 0b bd 35 4e 9b bc 78 b6 0d 3f
       -0.2720105 -0.034109995 -0.01895819 0.5535655
000070 30 e4 7f bc 55 25 aa be 2a 58 9d bc 43 b2 1d bd
       -0.015618369 -0.33231607 -0.019207079 -0.03850008
000080 d7 ad fd 3e b3 57 70 bd a1 09 e7 3e d4 e2 84 bc
       0.49546692 -0.058677386 0.45124534 -0.016221441
000090 2d 1d 83 3e 31 1e 4e bd ee ed 8c bd b2 8d 08 bc
       0.25608197 -0.05032176 -0.06881319 -0.008334564
0000a0 12 80 51 bd 0d 87 a2 bc b3 ef e9 bc 12 96 48 bd
       -0.051147528 -0.019839788 -0.02855668 -0.048971243
0000b0 85 3c 37 3f 36 34 d0 3d ac d2 8a 3e 55 34 84 bd
       0.7157672 0.101662084 0.27113855 -0.06455294
0000c0 81 77 c2 bd 3c af 8d 3b 05 c4 28 bd ee c9 4b 3e
       -0.0949545 0.004323868 -0.041202564 0.19901249
0000d0 a3 94 bf 3b f0 0a 81 bc d8 19 5d bd 83 5e 52 bd
       0.0058465763 -0.015752286 -0.053979725 -0.051359665
0000e0 6e ed 02 ba 12 11 42 be 1d ad 1d 3a a4 6a 8e be
       -0.0004994486 -0.18951824 0.00060148706 -0.27815735
0000f0 d6 15 b1 3b 18 b0 6a bd 44 43 de bc 31 e8 01 bd
       0.0054042144 -0.057296842 -0.027131684 -0.031715576
000100 d5 7a 86 bb 6a 4e 0e bd eb af c0 3c c9 ef c2 3c
       -0.004103998 -0.03474275 0.023521384 0.02379598
000110 94 c4 c2 3c 77 33 83 bc 67 3c 33 3f 28 39 43 3c
       0.023775376 -0.016015751 0.7001404 0.011915483
000120 71 a8 80 bb 1c 75 05 3e 53 85 f9 bb eb ec a7 bd
       -0.00392633 0.13032955 -0.0076147704 -0.081994854
000130 07 e2 15 bd d0 d0 a8 b7 fc ba 81 bd 5b 0a e2 3e
       -0.03659251 -2.0124397e-05 -0.063344926 0.44148526
000140 ef 4d 6d bc 9c 1c 66 bc 1d 73 4b bd ba b0 12 3e
       -0.014483913 -0.014044907 -0.049670327 0.14325228
000150 75 08 ab 3e aa 36 86 bd 8a 72 a7 3e 4d 43 93 bd
       0.3340489 -0.06553395 0.32704574 -0.07190571
000160 26 72 5b bd 72 f8 67 3e 4d 69 14 bd f8 9c 62 3e
       -0.053575657 0.22653368 -0.036233235 0.22130191
000170 a3 86 11 bd 96 2f a4 bd 1d eb 25 bc 6d 3d e0 bc
       -0.03552879 -0.08016889 -0.010126856 -0.02737304
000180 c0 3d e1 3d 7d 7f 0d 3b 42 16 52 3d 6f d6 eb 3d
       0.10998106 0.0021590882 0.051290758 0.11515509
000190 4d ad b9 bc cd 5d 3e 3a b5 02 04 bc 21 d7 98 bc
       -0.022665644 0.0007261902 -0.008057286 -0.018657269
0001a0 3a 63 97 bd 7e 6e ed bc 64 27 f2 be 8e 1e 0d bd
       -0.07391973 -0.02898335 -0.47295678 -0.034452967
0001b0 a3 33 b6 3d df b4 cc bd c1 48 a4 bc 38 b9 1f bf
       0.08896568 -0.09995436 -0.020054223 -0.62391996
0001c0 e1 67 77 3e e7 b2 1e bd 41 9f 9c 3d ae fb de be
       0.2416072 -0.038744833 0.07647563 -0.4355139
0001d0 75 0c 95 bd ae f6 67 bd b2 43 b2 bd 98 eb 05 bd
       -0.072777666 -0.056631736 -0.08704318 -0.032695383

fc2.weight f4 [84, 120]
000000 14 23 35 3e 01 22 c1 3d d7 8a 30 3e 18 e9 5d 3d
       0.17689162 0.09430314 0.17240463 0.054177374
000010 09 60 c1 3b f7 ff f8 3c 22 d7 f1 bc cc c4 e2 38
       0.005901341 0.030395491 -0.029521529 0.00010813176
000020 8c 67 0e 3c 5c 9a 07 be c8 f8 66 bc ce eb 8a bd
       0.00869168 -0.13242477 -0.0140974 -0.067832574
000030 fc 6d b5 3d 75 7b ea bd ca dc 54 3d e0 51 96 bd
       0.088588685 -0.11449329 0.051968373 -0.07339835
000040 bc 43 06 3e 23 f3 4d 3e 19 71 53 be be b8 94 be
       0.13111776 0.2011228 -0.20648612 -0.29047197
000050 86 aa d5 3c 3f 36 17 be bc 33 65 bd 76 c8 cc 3b
       0.026082288 -0.14766787 -0.05595754 0.0062494827
000060 be f8 b4 3d 86 59 83 bd 67 9c b8 bd 43 35 45 bf
       0.08836506 -0.064135596 -0.090142064 -0.77034396
000070 d3 8a b4 3d 55 20 1f bd 2c 37 95 3d be 50 99 bd
       0.08815541 -0.038849194 0.07285914 -0.074861035
000080 00 72 9e 3b 31 f1 a0 bd a0 d7 9e bd 2e bc 15 3d
       0.004835367 -0.078585036 -0.07755971 0.036556415
000090 0b 49 1e be 14 ec 6d bd 76 cb 2b bd ce d4 1d 3d
       -0.15457551 -0.05808647 -0.041942082 0.038533024
0000a0 16 0f e2 3d c5 09 8b 3e 30 34 30 3c 46 37 39 3d
       0.11038034 0.2715589 0.01075463 0.04521873
0000b0 d0 e0 34 be 9e 83 57 3d 63 41 5b 3b ec 9b 96 3a
       -0.17663884 0.052615754 0.0033455722 0.001149056
0000c0 d4 f2 0a 3f 00 80 88 3d 11 8c c5 3c dc 3c 42 bf
       0.54276776 0.06665039 0.02411464 -0.75874114
0000d0 79 de 31 bc 5a 5c 93 3d f6 af 31 bd 95 1b 5f 3d
       -0.010856264 0.07195349 -0.0433807 0.054469664
0000e0 92 fb cb 3d 55 02 20 bd fe 27 99 3d 83 f7 76 3e
       0.099600926 -0.039064724 0.07478331 0.24117856
0000f0 03 22 f2 3c e9 7b 5e 3d 25 5e 9f 3d 89 75 85 3d
       0.029557234 0.05431739 0.077816285 0.06516559
000100 f1 8f a5 3d 89 54 42 3d 93 a6 a0 be 59 57 5b 3d
       0.08084095 0.0474439 -0.31377086 0.053550098
000110 39 dd 87 3d e7 c8 a4 3c d3 87 a5 be 3f 52 88 bd
       0.06633992 0.020115329 -0.32330188 -0.06656312
000120 db 8f 0e be a7 cd 80 bd 29 8e 27 bd 04 20 95 bd
       -0.13922064 -0.06289225 -0.04090706 -0.07281497
000130 63 25 02 bd c7 bb 36 3d 18 8d 2f 3c 31 8a 3c 3d
       -0.031773936 0.044612672 0.010714792 0.046030227
000140 9a ea 9d 3d 8b 83 b0 3e f1 3a 9e 3d 52 ce fa bd
       0.07710762 0.3447536 0.07726086 -0.12246384
000150 fa 43 81 bd aa 42 a3 3c 31 8c d1 be 2d f6 93 3c
       -0.063117936 0.019929249 -0.4092727 0.018061722
000160 5d 57 e4 bc 19 6e 04 3e 7c 40 bb bd bb 92 13 3e
       -0.02787369 0.12932624 -0.09143159 0.14411442
000170 34 91 6e bd 27 a5 21 3d 89 28 19 bd 92 9e c8 3a
       -0.058243945 0.039464142 -0.037392173 0.0015306047
000180 03 34 e5 3e d7 0d b7 3d 50 06 62 3e 96 3d 10 3d
       0.44766244 0.089381866 0.2207272 0.035214983
000190 49 53 18 bd ad 92 24 bd f5 e8 1c bd a0 2e 7d 3a
       -0.037188802 -0.040178943 -0.038308103 0.0009658132
0001a0 24 01 5c 3d 07 f2 d5 bd 3d c4 13 3e 97 47 6f 3d
       0.053712025 -0.10446554 0.14430328 0.058417883
0001b0 5f 0c f6 3c cd bb c3 3d dc 03 85 bd 9e 21 25 3e
       0.030035196 0.095573045 -0.06494877 0.16126105
0001c0 2a 4d 11 bd ba f4 21 bd c2 71 ac bc 48 d8 cd 3b
       -0.03547398 -0.03954003 -0.021050338 0.0062818862
0001d0 c6 86 b1 3d 4f ec 7c 3d 9b f6 10 bd 66 6d c6 3c
       0.08668284 0.0617488 -0.03539143 0.024222087
0001e0 c5 e3 e6 bd 07 c5 c3 bc 97 ca 1c bd a2 29 b8 3d
       -0.11273912 -0.02389766 -0.038279142 0.08992316
0001f0 98 b5 74 bd c8 ef c1 3c c0 c3 fa 3a cc 81 cd bd
       -0.059743494 0.023673907 0.0019131824 -0.100345224
000200 10 c3 3b 3d 24 be 05 bd 90 c7 a7 bb a8 bc 2f bc
       0.045840323 -0.032652035 -0.0051202253 -0.0107261315
000210 d0 fc ba 3c 90 6b 99 bd fe 77 a7 3d e0 b6 6e bc
       0.022825629 -0.07491219 0.081771836 -0.014569968
000220 30 4d a7 bc 5c c3 f0 bc ad 99 3b bd ba 88 70 bd
       -0.020422548 -0.02939003 -0.045800854 -0.058724143
000230 14 f5 cc 3c 56 d7 5e 3d 47 17 45 bd c2 06 5b bd
       0.025019206 0.05440458 -0.048117902 -0.05347324
000240 38 64 b2 bd 18 30 f2 3c e8 7f 42 3c 32 35 a0 bd
       -0.087105215 0.029563949 0.011871316 -0.07822646
000250 b6 01 8a bd 3e 3a f0 bd f8 22 a4 3c 14 37 2b 3d
       -0.067386076 -0.11729859 0.020036206 0.041800573
000260 5d 43 d8 bd 3c a5 e2 bc 45 37 6a bd e6 25 86 3d
       -0.105597235 -0.02766668 -0.057181615 0.06550197
000270 0d 70 eb bc 38 96 2b 3c e4 94 b8 3c 3a 97 9b bd
       -0.028739953 0.010472827 0.022531934 -0.075972036
000280 80 86 c4 ba 8d 45 be 3c 6e d6 a5 3d 00 f4 d2 3a
       -0.0014993697 0.023226524 0.0809754 0.0016094446
000290 4b 79 90 bd 99 eb 12 3c b1 1a de bd d4 ed 88 bc
       -0.07054385 0.008967304 -0.10844935 -0.016714968
0002a0 ae 4e 9c 3d 73 8a b4 bd e4 0b ab 3d 30 ff ec 3c
       0.076321945 -0.088154696 0.08351877 0.028930277
0002b0 c8 ae 44 3d 0e 9d 8c bd 40 2a 3e 3b 40 a1 e6 bc
       0.048018247 -0.06865893 0.0029016882 -0.028153062
0002c0 98 d7 85 bd 8f 78 87 bd bf 93 8b bd 56 a7 b9 bd
       -0.06535262 -0.066147916 -0.0681529 -0.0906512
0002d0 50 ff d4 bb 0e 59 3c bd 1c f3 dc bc bd bc 95 bd
       -0.006500162 -0.045983367 -0.026971392 -0.073113896
0002e0 64 8e 88 bc a0 ca 87 3c 96 29 a3 3d d5 ba 66 bd
       -0.01666946 0.016576111 0.07966916 -0.05633052
0002f0 d3 6b 5c bd 3e bc 8b 3d ac b8 2a bd c3 f7 5a bd
       -0.053813767 0.06823014 -0.041680023 -0.05345894
000300 74 ba df bc 37 e8 b9 bd 84 5a af 3c d0 ec 32 3c
       -0.027310587 -0.090774946 0.021405466 0.010920718
000310 44 f9 9e bc 80 31 a2 3c 3c 9d 35 bd 5f 6a 54 bd
       -0.019405968 0.019798994 -0.044339404 -0.051859256
000320 58 34 fd 3c ce a5 c5 bd fa 85 9e 3d 1a 27 8f bd
       0.030908749 -0.09650765 0.07740398 -0.0698988
000330 5f 0a a6 bd 6d 9f 6b bd fc 55 37 bd 64 1d 86 3c
       -0.08107447 -0.057525087 -0.044759735 0.016371436
000340 d0 b6 b7 bb 60 1f 89 bd 3a 47 5a bd d0 b3 88 bd
       -0.0056065097 -0.066954374 -0.053290583 -0.066749215
000350 98 30 2a 3d c7 16 64 bc 80 84 60 bc c0 88 50 bb
       0.04155025 -0.013921446 -0.013703465 -0.003181979
000360 53 57 93 bc 10 4b 92 3d 59 f6 44 3d e1 2c 4e bd
       -0.017985975 0.07143223 0.048086498 -0.05033577
000370 72 5c 92 3d 02 c5 8f 3d c0 5c 57 3c 98 91 13 3d
       0.07146539 0.07019998 0.013144672 0.03602752
000380 38 54 e9 3c 18 5f 74 3d ac 2e 13 be c5 2a 83 bd
       0.028482541 0.059661 -0.14373273 -0.06404642
000390 12 8c b3 bd 6a f8 85 bd 44 6a 58 3d 03 e2 2d bd
       -0.08766951 -0.06541522 0.052835718 -0.04245187
0003a0 ce 18 d1 bb a0 7f a9 bc 01 62 65 bd 7b 64 6c bd
       -0.006381131 -0.02069074 -0.056001667 -0.057713013
0003b0 aa bb a4 3d 74 48 92 bc aa 5d a7 bd 04 3f 1c 3d
       0.080436066 -0.017856814 -0.08172162 0.038146034
0003c0 ab 9e b1 bd b6 da f6 bd 93 b1 12 3d 55 19 24 3d
       -0.08672842 -0.120534346 0.03581388 0.04006322
0003d0 50 e1 b1 bd 00 43 7e 3d 39 1f 34 bd 8a 00 f1 3d
       -0.08685553 0.062075615 -0.04397509 0.11767681
0003e0 0a 5d 04 bd 8e f0 67 bc 9d 92 02 bd ca 0d de 3d
       -0.03231529 -0.014156474 -0.031878103 0.10842474
0003f0 c2 2e 9a bd 53 fa d2 be 90 a4 fe 3d 14 d1 0a bd
       -0.075284496 -0.41206607 0.124337316 -0.0338908

fc2.bias f4 [84]
000000 79 cd d6 bd 98 9d fd bd b2 f8 87 3e 9c 00 31 be
       -0.104884095 -0.12383574 0.26556927 -0.17285389
000010 5b a3 85 3e c2 05 c9 3e b3 2d 89 3d 37 a7 84 be
       0.26101193 0.39262205 0.066981696 -0.25908825
000020 81 84 76 3d b2 07 8c bd d3 a1 b1 bd 08 6b a2 bd
       0.06018496 -0.06837405 -0.08673444 -0.07930571
000030 7d 8e 54 3e bf 35 a9 be 17 23 6b be 38 21 f1 3e
       0.2075748 -0.33048818 -0.22962604 0.47095656
000040 4d ab 1e 3e 88 9e 56 3f 39 5e fc 3e 58 31 25 be
       0.15495034 0.8383565 0.49290636 -0.16132104
000050 83 19 03 be 64 82 10 be 21 c9 08 3f 23 be e0 3e
       -0.128027 -0.1411224 0.534319 0.43895063
000060 45 11 eb bd 16 1f 16 bd 0f dd 23 be 2f b2 73 be
       -0.11477903 -0.03665074 -0.16002296 -0.2379844
000070 d7 30 c9 3e 6a 6a 13 bb 82 b2 3b 3e df f9 78 bd
       0.39295074 -0.0022493848 0.18329814 -0.06078517
000080 e1 4c 51 be 27 c3 19 be e7 a1 0a 3e 6c 7e 07 3b
       -0.20439483 -0.15015851 0.13538323 0.0020674719
000090 97 0d a8 3d 82 7b ab 3e e0 c7 0b 3e 9d be 81 be
       0.08205717 0.33492666 0.13650465 -0.2534074
0000a0 df d1 9d bd fd 80 85 3e a9 0f c2 3e 21 9e 2d 3d
       -0.07706045 0.26074973 0.37902573 0.04238713
0000b0 fa ed 3f be 3e 26 50 be 97 ad b4 3d 97 d9 ae be
       -0.18743125 -0.20327088 0.08822172 -0.34150383
0000c0 f7 23 b3 3d 8c ad e1 3e 6f 42 96 bd 3d 19 01 be
       0.08747094 0.44077718 -0.0733689 -0.12607284
0000d0 5d e9 0e 3f 18 1d 47 be 40 67 93 3e 53 9e a2 3d
       0.55824834 -0.19444692 0.2878971 0.07940354
0000e0 07 f7 59 be 04 21 55 3e 6e 44 dd bc da 89 ce 3d
       -0.2128564 0.20813376 -0.027010169 0.10084887
0000f0 b0 42 49 3e f9 85 61 3e 9d a8 71 be 19 98 b2 be
       0.19654346 0.22023763 -0.23599477 -0.34881666
000100 2f bb f5 bd d4 a4 0b 3f f6 6e be 3e 83 6b 4f be
       -0.11998593 0.5454838 0.3719403 -0.20255856
000110 04 bb 25 be 65 5c 21 3e 53 78 88 3e 86 83 85 3e
       -0.16184622 0.15757902 0.266543 0.26076907
000120 13 74 1d 3d 00 df c2 3d c3 a4 b9 3e 97 a1 6b be
       0.038440775 0.0951519 0.36258516 -0.2301086
000130 31 b4 98 3e fe b5 72 3e 6e 93 04 3f 7b 61 0e bc
       0.29824975 0.23702237 0.5178746 -0.008690233
000140 51 8f 6d 3e fb b5 a3 3e 44 76 e8 3e 11 44 bc 3e
       0.23199202 0.31974778 0.4540273 0.3677068

fc3.weight f4 [10, 84]
000000 ff 9f b5 bd 44 da d2 bd 84 11 c2 be 05 bb 39 bf
       -0.088684075 -0.10295537 -0.37903988 -0.72550994
000010 a5 8d b7 bb 5c c6 c8 3d 69 9d 0a be 55 54 8d 3d
       -0.005601602 0.09803459 -0.1353661 0.06900851
000020 66 23 21 3c 79 e3 e0 be cd b9 23 bd 3a 69 bd 3c
       0.0098351 -0.43923548 -0.039972115 0.023121465
000030 13 cb 69 bd 45 41 b8 3c 2b e5 f5 3d e6 17 8f be
       -0.057078432 0.02249206 0.12006601 -0.2794792
000040 69 01 17 3e 11 4d cd be 75 cb 14 bd d8 8f 9b bd
       0.14746632 -0.4009786 -0.036326844 -0.075957954
000050 4a ab b6 3d a0 7c b6 bd 36 4a 18 3e 2f c2 b4 be
       0.089193895 -0.08910489 0.14872059 -0.353044
000060 18 44 89 bd 3f 3e 83 bc 0f 2e a4 bd c6 fa 2a bf
       -0.06702441 -0.016020892 -0.080165975 -0.667889
000070 22 24 1f 3e 04 1e 8c be 74 d4 97 bd 72 06 10 bd
       0.15541127 -0.2736665 -0.07413569 -0.035162397
000080 cf 02 18 be 36 8b b7 be db 34 8d bd a4 df cc 3d
       -0.14844821 -0.35848397 -0.06894847 0.100035936
000090 de 3f 2a 3e a5 10 3c 3b f5 f5 46 3d 19 85 95 3d
       0.16625926 0.0028696444 0.048574407 0.07300777
0000a0 be 29 f0 be 6b 41 ac bd c1 b9 3d 3e d2 34 54 be
       -0.46906847 -0.08410915 0.1852789 -0.20723274
0000b0 fc ed 39 be c5 c6 24 be af 00 15 be d2 92 b8 3d
       -0.1815719 -0.1609145 -0.14551042 0.09012379
0000c0 e7 9d 16 bd a8 3a 03 bf c6 a4 85 be d4 9c 7f bd
       -0.03677168 -0.5126138 -0.26102275 -0.062405422
0000d0 89 09 dd be 37 e8 75 3d 64 0b 29 bf 94 38 a6 bd
       -0.43171337 0.06003591 -0.66033006 -0.0811626
0000e0 41 29 c0 be 8d 18 64 bd 33 4d 59 be ea 47 73 3d
       -0.37531474 -0.055687476 -0.21220855 0.059394754
0000f0 c3 e0 33 3e 96 1d 89 be d4 a6 04 3e cc e9 40 3e
       0.17566209 -0.26780385 0.12954265 0.18839186
000100 37 88 41 be e7 13 6c be cc 5b 0a 3e 48 0f 9e 3e
       -0.18899618 -0.23054467 0.1351158 0.30871034
000110 c6 f6 9e bd 3a 76 0d 3e c3 c9 a4 be e7 28 1d be
       -0.07761912 0.13814631 -0.32185182 -0.15347634
000120 8d 37 99 be b9 6e 1f be 92 84 9c 3d 54 fd bf bd
       -0.29925194 -0.15569581 0.07642473 -0.093744904
000130 58 c8 50 3d 09 54 a3 3d 1a 65 57 be 18 74 0f bf
       0.050972313 0.07975013 -0.21034661 -0.5603652
000140 df 82 d5 3d 87 39 ef bd fe 93 79 3d c4 3d 75 be
       0.10425352 -0.11680894 0.060932152 -0.23949343
000150 42 39 4d 3e c9 87 4f 3d 76 b8 f1 3d 8e 54 d9 be
       0.20041373 0.050666604 0.11802761 -0.42447323
000160 aa 77 1d be 7a d1 07 be 99 54 aa 3d af f5 79 3d
       -0.1537768 -0.13263503 0.08316917 0.061025318
000170 0b 50 3a 3e 5e 9b 38 be 4c 73 7e 3c b0 88 90 be
       0.18194596 -0.18028018 0.015530419 -0.28229284
000180 a7 53 13 be 49 4b 2c be 66 04 0e bd ca 11 cd be
       -0.1438738 -0.16825594 -0.034672163 -0.40052634
000190 5f b4 ce 3d 39 67 ad be 8d 22 30 3c 15 00 e7 bd
       0.10092997 -0.33867815 0.010750425 -0.112793125
0001a0 e5 0e 4f be 6a af 52 bc 2c 18 eb 3d 52 a7 34 be
       -0.20220526 -0.012859205 0.1147922 -0.17641953
0001b0 e0 22 b9 bc b4 bf a2 be 96 10 4c 3e 7f c5 98 bf
       -0.022599638 -0.31786883 0.19928202 -1.1935271
0001c0 88 a8 44 be 2f 68 ed bd 27 2c 46 be ed 6d ce bd
       -0.19204915 -0.11592137 -0.1935278 -0.100795604
0001d0 60 d4 39 bf 01 6d fc be 1b d5 6a 3e 60 40 7b be
       -0.72589684 -0.49301913 0.22932856 -0.24536276
0001e0 44 5a 62 be c5 91 c3 bd ea 73 13 3e ad d3 b8 3c
       -0.22104746 -0.09549288 0.14399686 0.022561872
0001f0 cf 5a 89 bd 2c b9 10 bf 9e 75 4d 3e 38 b4 f3 3d
       -0.067067735 -0.5653255 0.20064399 0.118996084
000200 2d 21 08 38 bc 53 ca bd 0f 39 93 be f3 da 53 3e
       3.2455824e-05 -0.09879252 -0.2875447 0.20688991
000210 1b a0 17 bf 1b b3 95 be 8b 8f a3 be 0e e3 b9 be
       -0.59228677 -0.2923821 -0.31945452 -0.3630604
000220 75 9d 13 3c 65 96 23 3e 5d d4 29 3e aa a1 66 bd
       0.009009709 0.1597534 0.16584916 -0.05630652
000230 56 a3 96 3d bc 2f 79 be 7b 3b c7 be 8a 29 c8 be
       0.073553726 -0.24334615 -0.38912567 -0.39094192
000240 e0 db 26 3e 56 51 f3 3d 35 f4 48 3e f1 3a 04 be
       0.16294813 0.11880748 0.19624408 -0.1291311
000250 28 02 af bd 4f 51 6a 3d f2 09 90 bd 53 66 33 be
       -0.08545333 0.05720645 -0.07033147 -0.17519502
000260 c9 bf 0b be 91 fa df be 31 39 4a be 15 d1 c8 be
       -0.13647379 -0.43745854 -0.1974838 -0.39222017
000270 1d 9b 49 3e 98 80 93 be 11 fb b1 bc 4f 3f 68 bd
       0.19688077 -0.28809047 -0.021726163 -0.056701
000280 49 94 85 be cd e6 10 bf 3f 1d ff be 3c 20 49 3d
       -0.26089695 -0.56602174 -0.49827 0.049103007
000290 51 33 ca be b6 b8 8b bd a6 19 df bd f9 f7 8c be
       -0.39492276 -0.0682234 -0.10893564 -0.27532938
0002a0 8e 29 4d be 38 bd 16 be f7 f2 25 3c 42 7b aa be
       -0.20035383 -0.14720619 0.010128728 -0.33297163
0002b0 67 ea b1 3d 43 92 be bd 3b 9e 00 3d 8e f5 ac be
       0.08687287 -0.09305241 0.0314009 -0.33781093
0002c0 7c 12 27 3d ae a7 99 3e 20 19 27 be a6 11 e8 3d
       0.040789112 0.30010742 -0.16318178 0.11331491
0002d0 3f 35 6b be 11 e0 18 3d f9 fb 36 3d ee 70 a9 3d
       -0.2296953 0.03732306 0.044673894 0.08273493
0002e0 59 d7 eb bd a0 b5 a4 bd 85 94 82 be 33 37 8f bc
       -0.11515684 -0.08042455 -0.25503936 -0.017482376
0002f0 f4 0c 96 3e 1e 53 04 be d6 0a 94 be 6e b6 8c bd
       0.29306757 -0.12922332 -0.28914517 -0.06870733
000300 91 6c c6 bc ec 90 af bd 47 de ec bc f6 0a 10 3e
       -0.02422169 -0.085725635 -0.028914584 0.14066681
000310 2d 58 59 3d bd a3 3f be 42 7a 68 3e ee 8d 01 3d
       0.053062607 -0.18714805 0.22702888 0.031629495
000320 aa f8 33 bf 30 ce 8c be a0 c3 94 be 3f 8e af bd
       -0.70301306 -0.2750106 -0.290555 -0.08572053
000330 f2 5b 82 3c d8 e8 32 3e 78 16 e5 bb ad a6 e8 3d
       0.015912984 0.17471635 -0.006991204 0.11359916
000340 42 39 fd bd 33 00 03 bc 65 5d 0c 3d cc 5e 13 be
       -0.12364437 -0.007995653 0.034268755 -0.14391631
000350 c1 4e 60 be a1 af d0 bd c6 75 be 3d 7f 94 a0 bb
       -0.21905042 -0.101897486 0.09299807 -0.0049005146
000360 88 41 cd be 94 2c c7 3c 29 b2 df bd 0b 32 91 be
       -0.4008906 0.024313249 -0.10922653 -0.28358492
000370 94 79 2b bd 6e 24 06 3d 44 38 b7 3d 32 94 61 be
       -0.041863993 0.032749586 0.08946279 -0.22029188
000380 db ff 17 3e 0e 0a 74 bc 29 af b1 be 52 cf af bd
       0.14843695 -0.014894975 -0.3470395 -0.08584465
000390 95 28 50 bd 6c 3c ca 3d da 1a 4a be 84 28 28 be
       -0.050819952 0.09874806 -0.19736806 -0.16421705
0003a0 65 32 c8 3c a4 6c 9f be f1 06 f5 3c 89 3b 3e 3d
       0.024438092 -0.31137574 0.029910536 0.046443496
0003b0 74 77 cb bd 8a 7e 59 3e e1 ad 9b be 0f e3 73 3e
       -0.09934893 0.21239677 -0.30406097 0.23817085
0003c0 e7 94 1f be 44 56 39 be aa a6 07 3e 8a 1d 22 3e
       -0.15584145 -0.18099314 0.13247171 0.15831581
0003d0 20 ce ba be b2 1a 27 3e 89 5c d8 3d 64 46 e2 be
       -0.36485386 0.16318777 0.10564525 -0.4419433
0003e0 52 48 75 3d 78 31 46 be ba 33 dd bd b6 6f 1f be
       0.059883423 -0.19354808 -0.10800882 -0.15569958
0003f0 e2 cd e0 bd f0 48 14 be 73 75 53 be 1b 2d a3 bd
       -0.10976769 -0.14480948 -0.20650272 -0.079675876

fc3.bias f4 [10]
000000 c3 6b 4f be d4 34 b4 be ea b3 f3 bd 1a c2 f6 3e
       -0.20255952 -0.35196555 -0.1189955 0.48194963
000010 39 a7 ea 3e 4f 5d f4 bc cd b7 16 bd b2 62 32 be
       0.45830706 -0.02982965 -0.03679638 -0.17420462
000020 f0 f5 77 3e 3b 18 0d 3c
       0.24214911 0.008611734
