review_pytorch/regression_projects/taxi_fees/Taximodel_version2.pt (torch, 113275 bytes, 20 tensors)

embeds.0.weight f4 [24, 12]
0.43050304 -0.031738166 -0.46942616 0.66121936 0.6989637 -0.50027186 1.3612016 0.15367046
-1.1888636 1.2253644 0.45938638 -0.28404263 0.14043091 -1.3452408 0.28460112 0.62842405
-0.5364305 -1.3415089 1.0980281 -0.5975806 0.18904656 1.1406541 -0.57468843 0.39331356
0.3517488 -1.1217949 -0.47515523 0.38104758 -0.22984353 -0.70144725 -1.3555323 -1.0833707
-0.9870102 0.36061162 -0.8905836 0.78713596 -1.189638 -0.23753189 -1.0845855 1.401445
-0.27367458 0.30870908 0.46763715 0.8064089 0.5344464 0.10550793 0.24309583 -0.17163527
-1.0721084 -1.0207852 1.4283844 -1.2881676 -0.30684066 -1.5989394 -0.3602268 1.2125748
0.110013805 -0.6003113 0.8238638 0.47607148 0.27825895 -0.25252298 0.75172436 -2.6290755
-0.13516301 -2.2967036 -1.7670311 0.01610891 -1.0729513 0.68083394 0.25526053 0.79595643
0.18927284 1.1161956 0.5858267 -0.5523971 -0.58801013 -0.49686897 0.6116218 -0.22051017
1.5450457 -1.2900835 -0.17808662 1.1882793 1.7340959 -0.12348021 0.11327107 -1.1033475
-0.76274735 0.051429328 0.6647776 -1.2531183 -0.6150569 -0.95372 -0.38435048 -1.1179159
-0.5941816 -0.9128018 2.623549 1.3388784 0.05336029 -0.6720812 -0.45601755 0.14503214
0.47156852 1.2644331 0.48050636 -0.6145923 1.0404248 -0.022528784 1.111788 -0.13120054
-1.2472494 0.5539007 -0.22055778 -1.0252622 0.8725844 1.4889657 -1.2459058 0.24076708
-0.29819408 1.5462995 -0.35638738 -0.22328553 0.5597966 -0.7886418 -0.9099253 0.7018527
0.44976503 -0.5311258 -1.7616851 -0.6045278 0.38679257 0.8859127 -0.77412885 1.8225629
0.8005527 0.945511 0.8979801 -1.0018462 -1.28814 -1.9844909 -0.07924498 -0.5830174
-1.3798615 -0.20882416 0.83682704 0.8522547 -0.015333132 1.1287575 -0.9838851 2.2367904
-0.23019232 0.37046355 1.281719 -1.4361703 1.7778999 0.30315274 -0.705558 -0.9499648
-0.8819972 -0.09723361 0.25285092 0.4621521 -0.10211839 0.007824048 -1.693222 -1.61423
0.280964 -1.3730865 1.089029 0.99928683 -1.7059326 0.011336001 1.3415442 -0.31018743
-1.0716791 0.42161262 1.112792 -0.8423379 -0.039983958 -0.20729671 -0.060201794 0.13528545
0.8143852 1.0166453 -0.18779242 -1.8800421 0.25127319 -0.7846915 -1.5719594 -0.79531777
-1.4139814 -1.362035 -0.5324327 -1.3973359 -0.9538304 0.03843773 1.1468065 1.7086017
0.028091969 0.25889602 -0.3739317 -0.38688326 -0.43079782 -2.0724747 -0.97924834 -1.2528361
0.17385854 0.4963522 -1.5591565 -0.22568676 -0.6870816 -0.4266475 -0.38473135 1.264813
-1.7052084 -0.803973 -0.5018607 -1.0164024 0.8279819 -0.3866265 0.4402051 -0.038125843
-0.97044116 0.11450149 -1.0963254 -0.9216935 -1.4718076 0.32592115 -0.8863419 -0.3124589
0.3968556 0.1385979 1.9656771 -0.22504434 1.3513682 -0.43436125 -0.05744808 1.2202102
-1.8352643 -0.597739 -0.051772155 -0.58339846 -0.33310056 0.034759574 -0.54701805 -2.5805588
0.49262512 0.5489428 -0.9216224 1.027975 -1.1640172 -0.20385589 -1.125368 -0.35956824
00000000: e56a dc3e e1ff 01bd a058 f0be ac45 293f
00000010: 49ef 323f d111 00bf db3b ae3f ca5b 1d3e
00000020: af2c 98bf bed8 9c3f b134 eb3e 096e 91be
00000030: 1fcd 0f3e da30 acbf 3db7 913e 66e0 203f
00000040: 8253 09bf 90b6 abbf 2f8c 8c3f 0bfb 18bf
00000050: 6c95 413e f400 923f c81e 13bf 6560 c93e
00000060: 6b18 b43e fa96 8fbf 8c47 f3be ab18 c33e
00000070: 1a5c 6bbe 0c92 33bf 1582 adbf e4ab 8abf
00000080: b3ac 7cbf 16a2 b83e 49fd 63bf be81 493f
00000090: 0f46 98bf 8f3b 73be b3d3 8abf 8d62 b33f
000000a0: 131f 8cbe 1e0f 9e3e 236e ef3e d070 4e3f
000000b0: 7bd1 083f 8b14 d83d 1dee 783e 28c1 2fbe
000000c0: d93a 89bf 17a9 82bf 4dd5 b63f ade2 a4bf
000000d0: 381a 9dbe 0caa ccbf a66f b8be a735 9b3f
000000e0: eb4e e13d 00ae 19bf bde8 523f a4bf f33e
000000f0: f577 8e3e b14a 81be 0271 403f c642 28c0
00000100: 2c68 0abe 31fd 12c0 132e e2bf d5f6 833c
00000110: 7856 89bf 224b 2e3f 82b1 823e cdc3 4b3f
00000120: bdd0 413e 7fdf 8e3f bdf8 153f e569 0dbf
00000130: d587 16bf 9c65 febe 3f93 1c3f 6bcd 61be
00000140: 0fc4 c53f 7521 a5bf 575c 36be 8919 983f
00000150: dbf6 dd3f 31e3 fcbd aafa e73d 7e3a 8dbf
00000160: 6943 43bf 8fa7 523d dd2e 2a3f 2e66 a0bf
00000170: 5e74 1dbf fe26 74bf 96c9 c4be de17 8fbf
00000180: 491c 18bf 61ad 69bf 3ae8 2740 5e60 ab3f
00000190: 5290 5a3d 830d 2cbf 227b e9be 4e83 143e
000001a0: 6e71 f13e f2d8 a13f ee04 f63e ec55 1dbf
000001b0: a42c 853f 498e b8bc 124f 8e3f 6f59 06be
000001c0: dea5 9fbf 70cc 0d3f e6d9 61be cb3b 83bf
000001d0: b161 5f3f 6e96 be3f d779 9fbf a58b 763e
000001e0: e5ac 98be 24ed c53f 6878 b6be f6a4 64be
000001f0: d44e 0f3f 6ee4 49bf ddf0 68bf 9eac 333f
00000200: 9a47 e63e dcf7 07bf e67e e1bf 55c2 1abf
00000210: ad09 c63e 2dcb 623f 4f2d 46bf be49 e93f
00000220: 06f1 4c3f 020d 723f 06e2 653f 7f3c 80bf
00000230: c6e1 a4bf cc03 febf 314b a2bd a140 15bf
00000240: 4d9f b0bf 00d6 55be 4c3a 563f 5d2d 5a3f
00000250: d137 7bbc 207b 903f e5df 7bbf 9327 0f40
00000260: 89b7 6bbe 66ad bd3e 5e0f a43f 6ed4 b7bf
00000270: 3992 e33f d636 9b3e 739f 34bf e530 73bf
00000280: 92ca 61bf 6a22 c7bd ad75 813e 339f ec3e
00000290: 7223 d1bd 7030 003c 80bb d8bf 179f cebf
000002a0: 83da 8f3e 4cc1 afbf 4d65 8b3f 43d1 7f3f
000002b0: 005c dabf a2ba 393c b8b7 ab3f e3d0 9ebe
000002c0: c82c 89bf 9cdd d73e f86f 8e3f 75a3 57bf
000002d0: 38c6 23bd 9745 54be 2896 76bd 4588 0a3e
000002e0: 8c7b 503f 6f21 823f a84c 40be 38a5 f0bf
000002f0: e1a6 803e 8be1 48bf f735 c9bf f299 4bbf
00000300: 58fd b4bf 2a57 aebf 824d 08bf e7db b2bf
00000310: 3b2e 74bf e270 1d3d 8eca 923f 76b3 da3f
00000320: 2121 e63c 058e 843e fa73 bfbe 9015 c6be
00000330: 8891 dcbe 6da3 04c0 05b0 7abf ef5c a0bf
00000340: f907 323e e021 fe3e 7192 c7bf 6e1a 67be
00000350: 94e4 2fbf 8b71 dabe 82fb c4be 64e5 a13f
00000360: 4544 dabf 2dd1 4dbf f179 00bf 7919 82bf
00000370: 9ff6 533f e9f3 c5be 9062 e13e d829 1cbd
00000380: d56e 78bf c27f ea3d 6454 8cbf 1bf4 6bbf
00000390: 3164 bcbf 23df a63e 4ee7 62bf 9dfa 9fbe
000003a0: a830 cb3e 9cec 0d3e 4f9b fb3f 0672 66be
000003b0: a2f9 ac3f 9964 debe ae4e 6bbd d92f 9c3f
000003c0: f1e9 eabf 6c05 19bf 0a0f 54bd 9a59 15bf
000003d0: 288c aabe 0e60 0e3d 6009 0cbf e027 25c0
000003e0: 5c39 fc3e 8487 0c3f 72ef 6bbf af94 833f
000003f0: 84fe 94bf 99bf 50be 0f0c 90bf 5419 b8be

embeds.1.weight f4 [2, 1]
-0.074511245 0.23391178
00000000: 5a99 98bd 9286 6f3e

embeds.2.weight f4 [7, 4]
0.28918204 0.29075885 0.81459326 -1.7532037 0.5332102 -0.78633934 1.1594088 0.3437048
1.5126886 -1.3300167 -1.4436225 0.46467134 0.6652355 -0.24547373 -2.0052714 -1.6341244
-0.5683637 -0.3522009 1.5627756 0.56575584 1.5458152 -0.5201142 -1.2106915 -0.35253945
0.7566637 -0.7847896 -0.5480213 0.17523675
00000000: ab0f 943e 58de 943e 2f89 503f fb68 e0bf
00000010: 7780 083f 894d 49bf 8267 943f 13fa af3e
00000020: c89f c13f fd3d aabf 9fc8 b8bf 67e9 ed3e
00000030: e04c 2a3f 775d 7bbe 5e56 00c0 fd2a d1bf
00000040: 4980 11bf ad53 b4be 0809 c83f 60d5 103f
00000050: 46dd c53f 3426 05bf f0f7 9abf 0d80 b4be
00000060: b6b4 413f f9e7 48bf 204b 0cbf 4371 333e

bn_num.weight f4 [6]
0.97652555 1.1286168 1.0119548 1.1717896 0.8277146 1.0957724
00000000: 94fd 793f 8476 903f bc87 813f 34fd 953f
00000010: 1be5 533f 4542 8c3f

bn_num.bias f4 [6]
-0.042850323 -0.0024841842 0.008396474 0.020459177 -0.08276902 -0.14671014
00000000: d283 2fbd b2cd 22bb 5d91 093c 019a a73c
00000010: ce82 a9bd 2f3b 16be

bn_num.running_mean f4 [6]
-73.97797 40.75145 -73.97592 40.751816 1.3441279 2.6123664
00000000: b8f4 93c2 7c01 2342 acf3 93c2 dc01 2342
00000010: 620c ac3f 0331 2740

bn_num.running_var f4 [6]
0.0009944654 0.0006581649 0.0010585395 0.0009151849 0.56676924 11.423779
00000000: b958 823a b388 2c3a b1be 8a3a 05e9 6f3a
00000010: ca17 113f ccc7 3641

layers.0.weight f4 [200, 23]
-0.060405895 -0.005928317 0.09515185 -0.064628296 -0.039092854 -0.009557718 0.0071047773 -0.11256574
0.057281375 -0.09576611 -0.12823713 0.077884026 0.18902744 -0.03075718 -0.09850962 0.049003053
-0.13722284 0.082591735 -0.010467565 -0.027956398 -0.011838545 0.032145325 -0.2705317 -0.112167664
0.123345666 -0.0802935 0.20558177 0.057442784 0.04374658 0.036723096 0.103225864 0.17520204
-0.0697932 -0.113690525 -0.09711111 -0.22101288 0.12623009 -0.11734628 0.023994584 0.024440974
-0.06995772 0.031196304 -0.010549355 -0.028311476 0.0025109178 0.23716171 -0.08422016 -0.0058448804
0.010043486 -0.012431524 -0.029037708 0.0035297512 -0.040332615 0.015468125 -0.006390377 -0.049406264
-0.025560766 -0.09588488 -0.14252275 0.026326055 -0.06752799 0.03598851 0.02035188 -0.023793593
-0.06086783 0.034642868 0.15454245 0.03047913 0.19982424 -0.1898792 0.026751734 0.08371025
0.122687645 -0.061599143 -0.25629303 -0.17602645 0.052351918 -0.035750385 -0.11343689 0.057676367
0.07192388 -0.052660137 -0.065532945 0.1414928 -0.13459529 0.16849184 0.13629565 -0.09616311
-0.14459485 -0.050075088 0.14511175 -0.17664468 0.00065283396 0.007199491 0.047481023 0.0029925301
-0.0722088 -0.071994856 -0.078779176 0.07551148 0.044362295 0.12213693 -0.067691796 0.015995974
0.025945056 0.06274727 -0.11833209 0.051926617 -0.031006245 0.16679399 0.030414646 -0.075497024
-0.07047679 0.06162271 0.21894398 -0.0033952137 -0.09655377 0.12714449 -0.07535192 0.11994411
-0.12409357 0.114245564 0.0009217141 0.06521934 -0.1295159 -0.08664633 -0.10649315 -0.054467343
-0.006979244 -0.0010232548 -0.03000676 0.066166304 -0.097649775 -0.3309499 -0.046581946 0.16138616
-0.09924675 -0.07764431 -0.04866884 0.10441115 -0.008230103 0.027829397 0.10217071 0.029205471
-0.094858624 0.051874347 -0.06956644 -0.046967003 0.10534275 -0.09987035 -0.25196943 -0.03183706
-0.21701685 -0.016843652 0.1474683 0.072705016 -0.05497662 -0.12570156 0.15144421 -0.16079041
-0.27184466 0.12094347 -0.05530569 0.17316413 -0.09457444 -0.03102977 0.038206268 0.06164979
-0.114473395 0.04213839 -0.13446356 0.10472145 0.07875516 -0.23101376 -0.033989727 0.121101804
-0.02806435 -0.14949404 0.2302785 -0.28073376 -0.08257938 -0.033554684 -0.04276731 -0.0038741184
-0.10203921 0.08026825 -0.04093032 -0.10611532 0.18311866 -0.1130584 0.09151022 0.116482735
0.11777135 -0.23404561 -0.04131477 -0.05630872 0.011975423 -0.16069551 -0.11640969 0.2445791
0.040554307 -0.07697618 -0.017284434 0.03214241 -0.028649295 0.25156856 0.020333407 0.09725471
-0.01073027 0.1176842 -0.022961989 -0.042547338 0.052421037 0.031144854 0.008678557 -0.062079843
-0.03082864 0.025360184 0.074180804 0.041541655 -0.09242677 -0.07074333 0.045184474 -0.036638327
0.14676283 -0.18416747 0.027860748 0.13068484 0.056770995 0.21704762 0.08219316 -0.014894188
0.13722923 -0.15196879 0.1581061 -0.13631012 0.037814528 -0.015002148 0.11942954 -0.15461674
-0.06995065 -0.07017901 0.09481188 0.12176334 0.048500404 0.015302523 0.105082385 -0.04503885
0.33424005 0.16115846 -0.13372564 0.032273013 0.18634516 -0.01434099 0.023355657 0.095878616
00000000: 2c6c 77bd 5442 c2bb f9de c23d d75b 84bd
00000010: d41f 20bd fa97 1cbc 31cf e83b de88 e6bd
00000020: e09f 6a3d 0621 c4bd 9850 03be a981 9f3d
00000030: 6990 413e 7bf6 fbbc 69bf c9bd 6db7 483d
00000040: 2584 0cbe db25 a93d 2680 2bbc d104 e5bc
00000050: 75f6 41bc d1aa 033d 2283 8abe 29b8 e5bd
00000060: a79c fc3d eb70 a4bd 0784 523e 2049 6b3d
00000070: 9d2f 333d f56a 163d 1568 d33d 2a68 333e
00000080: bdef 8ebd 94d6 e8bd 31e2 c6bd 3351 62be
00000090: 7642 013e 3f53 f0bd 4a90 c43c 7038 c83c
000000a0: fe45 8fbd 648f ff3c 34d7 2cbc 78ed e7bc
000000b0: 368e 243b 85da 723e 9f7b acbd 6986 bfbb
000000c0: 6f8d 243c 97ad 4bbc 7de0 edbc 6653 673b
000000d0: d033 25bd 056e 7d3c 5e66 d1bb 395e 4abd
000000e0: d064 d1bc 4b5f c4bd 7cf1 11be bda9 d73c
000000f0: 1d4c 8abd b068 133d fcb8 a63c c8ea c2bc
00000100: 8c50 79bd aee5 0d3d 6040 1e3e 5eaf f93c
00000110: ba9e 4c3e b16f 42be 7426 db3c 4870 ab3d
00000120: a943 fb3d 624f 7cbd d738 83be 4740 34be
00000130: f76e 563d ff6e 12bd 9a51 e8bd 0e3e 6c3d
00000140: d44c 933d 28b2 57bd 2336 86bd 7de3 103e
00000150: 59d3 09be 2089 2c3e 1691 0b3e 2af1 c4bd
00000160: ac10 14be 891b 4dbd 2d98 143e 58e2 34be
00000170: f222 2b3a b5e9 eb3b 767b 423d 531e 443b
00000180: 35e2 93bd 0a72 93bd fa56 a1bd c3a5 9a3d
00000190: 3db5 353d ed22 fa3d ffa1 8abd fd09 833c
000001a0: ba8a d43c a481 803d 1858 f2bd 01b1 543d
000001b0: cf00 febc 0bcc 2a3e 2328 f93c 2f9e 9abd
000001c0: 2356 90bd 1868 7c3d da32 603e 3c82 5ebb
000001d0: fcbd c5bd 2a32 023e 1c52 9abd 42a5 f53d
000001e0: c524 febd 94f9 e93d 309f 713a b891 853d
000001f0: d19f 04be a273 b1bd 1519 dabd 2619 5fbd
00000200: 24b2 e4bb bc1e 86ba bdd0 f5bc 3382 873d
00000210: 9bfc c7bd 4472 a9be b6cc 3ebd 6a42 253e
00000220: e141 cbbd fb03 9fbd fa58 47bd 83d5 d53d
00000230: 8ed7 06bc 7afa e33c e13e d13d 5040 ef3c
00000240: 3d45 c2bd 327a 543d da78 8ebd 7960 40bd
00000250: f1bd d73d d388 ccbd 2302 81be 9467 02bd
00000260: aa39 5ebe b3fb 89bc ee01 173e 5ee6 943d
00000270: 2a2f 61bd e9b7 00be 3114 1b3e 3ea6 24be
00000280: 392f 8bbe 36b1 f73d 3888 62bd f051 313e
00000290: 3eb0 c1bd 2532 febc 2d7e 1c3d 7d84 7c3d
000002a0: 0771 eabd 4e99 2c3d d1b0 09be 3378 d63d
000002b0: 634a a13d df8e 6cbe d038 0bbd 3904 f83d
000002c0: 35e7 e5bc f714 19be 21ce 6b3e 56bc 8fbe
000002d0: 611f a9bd a370 09bd c62c 2fbd ece4 7dbb
000002e0: eff9 d0bd ae63 a43d 8da6 27bd fd52 d9bd
000002f0: 7583 3b3e 2a8b e7bd b669 bb3d 808e ee3d
00000300: 1b32 f13d a7a9 6fbe ad39 29bd f9a3 66bd
00000310: 9134 443c 5d8d 24be 3468 eebd f272 7a3e
00000320: 461c 263d b0a5 9dbd 1698 8dbc c2a7 033d
00000330: edb1 eabc 98cd 803e 3f92 a63c 7a2d c73d
00000340: 04ce 2fbc 6a04 f13d c81a bcbc 1e46 2ebd
00000350: 71b7 563d 7e23 ff3c 8230 0e3c 6f47 7ebd
00000360: 588c fcbc 29c0 cf3c 1bec 973d 9527 2a3d
00000370: 3f4a bdbd e1e1 90bd 5b13 393d 1212 16bd
00000380: ff48 163e 6696 3cbe 393c e43c 3fd2 053e
00000390: b488 683d bb41 5e3e e354 a83d c106 74bc
000003a0: d285 0c3e b59d 1bbe 91e6 213e e194 0bbe
000003b0: 68e3 1a3d 92cb 75bc 7a97 f43d da53 1ebe
000003c0: 4942 8fbd 03ba 8fbd bb2c c23d 0f5f f93d
000003d0: 5ca8 463d 6fb7 7a3c 6f35 d73d a87a 38bd
000003e0: 8321 ab3e b906 253e 60ef 08be b530 043d
000003f0: 44d1 3e3e 79f6 6abc 5d54 bf3c 025c c43d

layers.0.bias f4 [200]
0.20362167 -0.17956364 -0.13426587 -0.03834949 0.09122212 -0.13959128 -0.017339185 0.030609434
-0.04025347 -0.051813424 0.04644438 -0.15714943 -0.016014654 -0.14863206 -0.058733366 0.1337176
-0.07911881 0.23241164 0.17617445 0.038826622 0.13388054 0.031871255 -0.06800395 -0.11333943
-0.21903917 -0.0038606625 0.23222956 -0.16237226 -0.051572874 0.14159979 -0.080144994 0.17809275
0.12048791 -0.06564923 0.032827634 0.16124405 0.056989606 -0.08340288 0.10860338 -0.27575627
-0.107633814 0.16572958 -0.2991672 0.23895721 0.18608482 -0.035856362 -0.13056462 -0.10259633
-0.018332548 0.2938246 -0.18796055 -0.02220776 -0.14995623 0.14317845 0.11061637 -0.24221562
-0.047039274 -0.1288207 -0.03151885 0.052633367 0.13586375 0.030101031 -0.13703865 0.11151868
0.20164433 -0.1778016 -0.107107274 -0.27249762 0.020399999 -0.16595769 0.11898347 -0.15580994
0.07733753 -0.1024895 -0.16021633 0.20950124 -0.014366167 -0.06426967 0.103349365 0.11185949
0.037885495 -0.017619826 0.03686922 -0.22987118 0.14799263 -0.24980778 -0.001384572 0.08883024
-0.11973494 0.30271998 -0.22982728 -0.21935497 0.16923115 -0.095071994 0.10955977 -0.051781252
0.1976444 0.029008163 0.1323458 -0.13140726 0.0008888519 -0.040254388 0.13926747 0.113185555
0.07411783 0.0033703041 0.22122721 0.0763756 -0.10068672 0.004100841 0.17583847 0.13301942
0.015932148 0.041303307 0.16179386 0.016331218 0.035978142 -0.010480737 0.028606834 -0.24721377
0.021242866 -0.0486803 -0.2968946 -0.16355592 -0.018186878 -0.1278674 -0.068097994 0.035209894
-0.0642858 0.14692892 0.035440493 0.18041587 0.05687842 -0.013940684 -0.11682022 0.30709848
-0.012094511 -0.03895333 0.35464424 -0.08398654 0.26353115 -0.11271305 -0.16139396 0.2124353
-0.09514121 0.07037 0.20172997 -0.0774939 -0.15096144 0.029976025 0.22599834 -0.05727015
-0.047791775 -0.06651502 -0.023164054 0.0066409004 -0.005109413 0.06838629 0.010492115 0.010310128
0.06474995 0.11624378 -0.30255356 0.13541085 -0.12577927 -0.20100942 0.1272238 -0.0122746155
0.09775315 -0.3268714 -0.1195854 0.08719792 0.065404885 -0.2759085 0.16399916 -0.020181397
-0.21335961 0.27459908 -0.11033678 -0.32988715 0.03736016 -0.25271326 0.17074195 0.036843468
-0.10287535 -0.07912341 0.06544365 0.023806915 0.10553587 0.11434546 -0.30587 0.14036037
-0.1870423 0.046908513 0.07299695 0.17074683 -0.16962866 -0.051642142 0.14840992 0.14250174
00000000: 3382 503e 88df 37be fe7c 09be 5b14 1dbd
00000010: aad2 ba3d 04f1 0ebe e80a 8ebc a3c0 fa3c
00000020: d3e0 24bd 503a 54bd 763c 3e3d c8eb 20be
00000030: 2a31 83bc 0133 18be 6692 70bd 44ed 083e
00000040: 0b09 a2bd 51fd 6d3e 1367 343e aa08 1f3d
00000050: fb17 093e 6f8b 023d a845 8bbd 811e e8bd
00000060: ce4b 60be 2b03 7dbb 96cd 6d3e ea44 26be
00000070: 143e 53bd 89ff 103e 0f23 a4bd f25d 363e
00000080: 5ec2 f63d 1a73 86bd 4576 063d 291d 253e
00000090: ef6d 693d 21cf aabd 736b de3d ed2f 8dbe
000000a0: 1e6f dcbd 04b5 293e 712c 99be 33b1 743e
000000b0: 058d 3e3e 1fde 12bd bbb2 05be 061e d2bd
000000c0: 242e 96bc 2e70 963e bb78 40be 0ced b5bc
000000d0: 208e 19be 5f9d 123e d68a e23d 5f07 78be
000000e0: 41ac 40bd 93e9 03be e919 01bd 1696 573d
000000f0: de1f 0b3e 7096 f63c dc53 0cbe e863 e43d
00000100: da7b 4e3e 9f11 36be 0f5b dbbd cf84 8bbe
00000110: e61d a73c d0f0 29be 9bad f33d a48c 1fbe
00000120: 2463 9e3d 04e6 d1bd c00f 24be 7e87 563e
00000130: 1260 6bbc d19f 83bd d5a8 d33d 9716 e53d
00000140: d22d 1b3d 7457 90bc 2e04 173d 5a63 6bbe
00000150: 618b 173e 9ccd 7fbe 877a b5ba a1ec b53d
00000160: 9837 f5bd 1dfe 9a3e d857 6bbe 979e 60be
00000170: ee4a 2d3e 1bb5 c2bd df60 e03d 9418 54bd
00000180: 4b63 4a3e 87a2 ed3c a885 073e a08f 06be
00000190: d701 693a c9e1 24bd 229c 0e3e d4cd e73d
000001a0: 17cb 973d 52e0 5c3b 6389 623e d06a 9c3d
000001b0: d734 cebd 5960 863b 000f 343e 3e36 083e
000001c0: 2384 823c a82d 293d 4aad 253e 0cc9 853c
000001d0: d15d 133d 66b7 2bbc e158 ea3c 9b25 7dbe
000001e0: 8505 ae3c ff64 47bd 9202 98be 347b 27be
000001f0: a6fc 94bc acef 02be f676 8bbd 4038 103d
00000200: 46a8 83bd 8974 163e 0d2a 113d f0be 383e
00000210: 59f9 683d 7767 64bc 713f efbd 033c 9d3e
00000220: 0e28 46bc 878d 1fbd ee93 b53e 2301 acbd
00000230: 8eed 863e 19d6 e6bd 7544 25be a488 593e
00000240: 65d9 c2bd 261e 903d 4d92 4e3e 1fb5 9ebd
00000250: a395 1abe 4890 f53c 1c6c 673e 1b94 6abd
00000260: 4fc1 43bd 0739 88bd 8bc2 bdbc e99b d93b
00000270: dd6c a7bb 1c0e 8c3d 1fe7 2b3c d0eb 283c
00000280: 9f9b 843d 3811 ee3d 4de8 9abe 24a9 0a3e
00000290: 48cc 00be 6ad5 4dbe f546 023e 781b 49bc
000002a0: ce32 c83d b05b a7be 31e9 f4bd d394 b23d
000002b0: fff2 853d e143 8dbe 65ef 273e 7553 a5bc
000002c0: f17a 5abe 4098 8c3e 40f8 e1bd f8e6 a8be
000002d0: f806 193d a263 81be fad6 2e3e 2de9 163d
000002e0: 50b0 d2bd 740b a2bd 5207 863d b806 c33c
000002f0: 3123 d83d f42d ea3d fe9a 9cbe a1ba 0f3e
00000300: 0488 3fbe 2423 403d 6d7f 953d 42d8 2e3e
00000310: 23b3 2dbe b686 53bd c5f8 173e faeb 113e

layers.2.weight f4 [200]
0.99677724 0.9783406 0.9544163 0.9800552 0.9944436 1.005411 0.9744992 0.96760255
0.9891916 1.0109171 0.97515374 0.9410229 1.0480102 1.063809 0.99658525 1.0037013
1.0190434 1.005893 1.0464944 0.9755135 0.9626337 0.9905023 0.9802964 1.0027102
0.97374594 1.018381 1.0327926 0.9952078 0.9629091 1.024949 0.9819001 0.9612766
1.0392367 0.98748916 1.0602483 1.0585855 1.0298284 0.9971348 0.95533615 1.0656112
0.9737861 1.0367428 1.021792 0.98003906 1.0046233 0.93850243 1.0202793 0.94969916
1.0413946 0.9446263 0.9837181 0.93494755 0.98371273 0.9787277 1.0206652 0.9833178
0.9929789 1.0256158 0.97551733 1.0021776 1.0232328 0.937704 0.935573 1.0145043
0.96706027 1.0027364 1.062201 0.97381985 0.9443213 1.0240356 0.9753879 0.988153
0.96864647 0.9738601 0.9427599 1.0325398 0.99154055 1.0164425 0.9787293 1.0240879
0.9990608 1.0228658 1.0484433 1.0206743 0.948607 1.0317934 1.0045135 0.96971065
0.98922884 1.0005357 1.0479686 1.0062102 0.9836948 1.003202 1.0046833 1.0349824
1.0095849 1.0150043 1.026487 0.9862247 1.0314792 1.0008535 1.0246763 0.9632358
1.0304896 1.0003194 1.0228851 0.9789335 0.95900744 0.9952546 0.97315013 1.0930189
0.98241335 0.9983237 0.9802238 0.97739816 0.9983094 0.96441925 0.9635317 1.0182093
0.9841118 0.9776471 1.0218863 1.0006402 1.0043365 0.99013215 1.0513324 1.0030609
0.99488133 1.0527107 0.99059796 0.9793084 0.9934855 0.9643184 0.9787198 0.9827429
1.0307331 0.9776562 0.97005236 0.95899475 0.98733044 0.94360316 0.9710467 1.0153147
0.9956943 0.9768739 1.0128541 0.92359173 0.9950464 0.9960988 1.0451059 0.9735717
0.98628134 0.9970697 0.9877578 0.99831545 1.0115625 0.9829538 0.96764 0.9938261
1.0330603 0.9812973 1.0337563 0.95803535 0.9951821 0.9444147 0.9780331 0.983662
0.958431 0.9839927 1.023642 1.010328 1.0293185 0.9430227 1.016324 0.9774696
0.92579925 0.9527368 1.0025374 1.0072796 0.9833878 1.089 0.9862178 0.9714112
0.984652 1.0055199 1.0121096 1.0112748 0.97575474 0.9487206 0.96339667 1.0293587
0.985109 0.9912274 1.0116851 0.99168396 0.97778594 0.9780399 1.034268 0.973604
00000000: cb2c 7f3f 8874 7a3f a054 743f e6e4 7a3f
00000010: db93 7e3f 4fb1 803f c878 793f cdb4 773f
00000020: a93b 7d3f bb65 813f ada3 793f e0e6 703f
00000030: 3325 863f e52a 883f 3620 7f3f 4979 803f
00000040: 0470 823f 1ac1 803f 87f3 853f 41bb 793f
00000050: 2a6f 763f 8f91 7d3f b4f4 7a3f cf58 803f
00000060: 6a47 793f 4f5a 823f 8c32 843f f0c5 7e3f
00000070: 3681 763f 8731 833f ce5d 7b3f 3916 763f
00000080: b505 853f 17cc 7c3f 37b6 873f bb7f 873f
00000090: 6bd1 833f 3a44 7f3f e990 743f f365 883f
000000a0: 0c4a 793f fdb3 843f 15ca 823f d7e3 7a3f
000000b0: 7f97 803f b241 703f 8398 823f 7c1f 733f
000000c0: 6b4c 853f 07d3 713f f3d4 7b3f b958 6f3f
000000d0: 99d4 7b3f e68d 7a3f 28a5 823f b7ba 7b3f
000000e0: dd33 7e3f 6147 833f 81bb 793f 5b47 803f
000000f0: 4bf9 823f 5f0d 703f b681 6f3f 47db 813f
00000100: 4391 773f ab59 803f 34f6 873f 424c 793f
00000110: 0abf 713f 9913 833f 05b3 793f 98f7 7c3f
00000120: 37f9 773f e54e 793f b658 713f 442a 843f
00000130: 9ad5 7d3f ca1a 823f 018e 7a3f 5015 833f
00000140: 73c2 7f3f 44ed 823f 6433 863f 75a5 823f
00000150: e9d7 723f ce11 843f e693 803f f53e 783f
00000160: 1a3e 7d3f 8e11 803f d623 863f 7fcb 803f
00000170: 6cd3 7b3f ec68 803f 7699 803f 4e7a 843f
00000180: 143a 813f a9eb 813f ed63 833f 3979 7c3f
00000190: 8307 843f f81b 803f 9828 833f 9f96 763f
000001a0: 15e7 833f 770a 803f e6ed 823f 639b 7a3f
000001b0: 8381 753f 01c9 7e3f 5e20 793f 0be8 8b3f
000001c0: 717f 7b3f 2492 7f3f f2ef 7a3f c436 7a3f
000001d0: 3491 7f3f 2ee4 763f 03aa 763f af54 823f
000001e0: c0ee 7b3f 1547 7a3f 2ccd 823f fa14 803f
000001f0: 198e 803f 4d79 7d3f 0f92 863f 4d64 803f
00000200: 8bb0 7e3f 39bf 863f d497 7d3f f5b3 7a3f
00000210: 1155 7e3f 92dd 763f 618d 7a3f 0a95 7b3f
00000220: 10ef 833f ad47 7a3f 5a55 783f ae80 753f
00000230: b0c1 7c3f fa8f 713f 8496 783f d5f5 813f
00000240: d2e5 7e3f 6814 7a3f 34a5 813f 8270 6c3f
00000250: 5cbb 7e3f 5500 7f3f 08c6 853f ff3b 793f
00000260: ef7c 7c3f f63f 7f3f b2dd 7c3f 9a91 7f3f
00000270: e17a 813f dca2 7b3f 41b7 773f 636b 7e3f
00000280: 523b 843f 4d36 7b3f 2052 843f ce41 753f
00000290: 41c4 7e3f 29c5 713f 6160 7a3f 46d1 7b3f
000002a0: bc5b 753f f2e6 7b3f b306 833f 6e52 813f
000002b0: b5c0 833f f069 713f e816 823f 733b 7a3f
000002c0: 2e01 6d3f 8fe6 733f 2553 803f 8aee 803f
000002d0: 4ebf 7b3f 5a64 8b3f c578 7c3f 68ae 783f
000002e0: 2712 7c3f e0b4 803f cf8c 813f 7471 813f
000002f0: 10cb 793f 5adf 723f 2aa1 763f 07c2 833f
00000300: 1a30 7c3f 14c1 7d3f e67e 813f 00df 7d3f
00000310: 2e50 7a3f d360 7a3f e562 843f 1d3e 793f

layers.2.bias f4 [200]
0.015177676 0.05323271 -0.05518039 0.03127449 -0.06818801 -0.06805819 -0.009024892 -0.044314127
0.03198286 -0.054496504 -0.02320494 -0.0628565 -0.14144146 0.091181755 0.047887307 -0.07901221
-0.0034141818 0.049285375 0.10296744 -0.013766077 0.015167618 0.035877075 -0.05809138 -0.014630293
-0.04621994 0.08620533 0.041871835 0.064246856 0.08189672 0.0657487 -0.04595234 0.019491661
0.013250076 -0.0745575 0.058566142 0.11046596 0.060339548 -0.042473007 -0.046571128 -0.054946203
0.08353991 0.03019989 0.002369875 -0.016203549 0.07903276 -0.07319895 0.10013448 0.069023296
-0.033246003 -0.0056982907 -0.026726572 0.052784894 -0.049063034 0.068044506 0.122757524 -0.02405622
-0.04825795 -0.054649338 -0.07436916 0.04057008 0.030551855 -0.012000915 0.064781204 0.041392744
0.035039656 -0.050738536 0.040383395 -0.09379292 -0.0048490004 -0.021702792 -0.047296893 0.0067955623
-0.037921436 0.05287853 -0.025429616 0.03773279 -0.043629143 -0.06797888 -0.02723425 0.15251048
-0.0417727 -0.07153369 0.030571913 0.010297078 0.058485296 -0.02663783 -0.0027349996 0.021785153
-0.022337379 0.045479428 0.09992759 -0.05250679 0.061854407 0.05571803 0.028613111 0.008831954
0.073541634 0.05277979 0.048758216 -0.040420398 -0.016922837 -0.028361237 -0.07113742 -0.044828247
0.058712654 0.035713263 0.022005064 -0.044739436 -0.058902275 -0.057448965 0.015113921 0.05442808
0.05610097 0.0046003065 0.003516685 0.124372266 -0.03147275 0.04756757 -0.039327376 0.05184547
-0.046565957 -0.0015180368 -0.0251907 -0.073101826 -0.044035144 -0.056781698 0.047952604 0.040804375
-0.059976533 0.01530196 -0.05425282 -0.043567456 0.007619582 0.008183324 0.022540199 0.03983015
0.07131411 -0.08766473 0.054476548 -0.012633316 0.036977492 0.0016352619 -0.07169395 0.026574353
-0.04749217 0.044632137 0.0789539 -0.03691712 -0.02182627 0.021237817 0.043161295 -0.041780494
0.035829376 0.060305174 0.08296261 -0.050850794 -0.07027906 0.04878598 0.035720494 -0.051162712
-0.036643796 -0.0055138995 0.0049248193 0.0500433 0.028152741 -0.038492013 -0.024303954 -0.035582542
0.03988854 -0.00071919535 0.0015018608 -0.059329282 -0.015802678 -0.11271326 0.068510324 0.06391616
-0.025805296 0.048586965 0.03954326 0.045483086 -0.05874987 0.034877334 -0.072443694 0.027865762
-0.053620268 0.037146103 0.03324282 -0.008106898 0.08332532 -0.045363944 -0.0630252 0.07072528
-0.04503218 -0.0033465207 0.027513612 0.054372955 0.054805048 0.035507854 0.038198493 0.053402126
00000000: caab 783c 8b0a 5a3d d504 62bd ae19 003d
00000010: 28a6 8bbd 1862 8bbd 24dd 13bc bb82 35bd
00000020: 7600 033d ba37 5fbd 4918 bebc e9ba 80bd
00000030: 08d6 10be 80bd ba3d 7b25 443d 27d1 a1bd
00000040: 77c0 5fbb 76df 493d 98e0 d23d 1d8b 61bc
00000050: 9a81 783c d7f3 123d 3af1 6dbd e5b3 6fbc
00000060: 1f51 3dbd 6c8c b03d cd81 2b3d db93 833d
00000070: 78b9 a73d 41a7 863d 8538 3cbd faac 9f3c
00000080: d916 593c 9ab1 98bd 0de3 6f3d fa3b e23d
00000090: 9a26 773d 2df8 2dbd 5ec1 3ebd 450f 61bd
000000a0: f916 ab3d c265 f73c e84f 1b3b 4ebd 84bc
000000b0: eddb a13d 55e9 95bd 4e13 cd3d 165c 8d3d
000000c0: f62c 08bd bab8 babb aff1 dabc f934 583d
000000d0: 52f6 48bd eb5a 8b3d 4c68 fb3d 8d11 c5bc
000000e0: 21aa 45bd fcd7 5fbd dc4e 98bd d02c 263d
000000f0: e247 fa3c 7c9f 44bc 02ac 843d 708b 293d
00000100: be85 0f3d 36d3 4fbd 0f69 253d 8116 c0bd
00000110: 5de4 9ebb 0eca b1bc 63ba 41bd 4fad de3b
00000120: 8253 1bbd 2897 583d c551 d0bc b38d 1a3d
00000130: 79b4 32bd 8338 8bbd 5d1a dfbc b52b 1c3e
00000140: da19 2bbd 4180 92bd f371 fa3c 13b5 283c
00000150: 478e 6f3d 9437 dabc ae3d 33bb c776 b23c
00000160: e1fc b6bc a348 3a3d d6a6 cc3d 5c11 57bd
00000170: 0c5b 7d3d 9738 643d 0b66 ea3c e6b3 103c
00000180: ff9c 963d 9f2f 583d b2b6 473d dc8f 25bd
00000190: c3a1 8abc d355 e8bc 7fb0 91bd d39d 37bd
000001a0: ae7c 703d 1248 123d f743 b43c b340 37bd
000001b0: 8343 71bd 9b4f 6bbd 61a0 773c faef 5e3d
000001c0: 21ca 653d 2bbe 963b 2f78 663b e3b6 fe3d
000001d0: 92e9 00bd 36d6 423d be15 21bd ea5b 543d
000001e0: f2bb 3ebd ddf8 c6ba ba5c cebc 69b6 95bd
000001f0: 325e 34bd ed93 68bd f369 443d 7d22 273d
00000200: f4a9 75bd 12b5 7a3c 3438 5ebd ca73 32bd
00000210: b0ad f93b 5913 063c 39a6 b83c f024 233d
00000220: 220d 923d 9189 b3bd cd22 5f3d f8fb 4ebc
00000230: b675 173d 4956 d63a 47d4 92bd 75b2 d93c
00000240: 2687 42bd 30d0 363d 95b2 a13d 6836 17bd
00000250: 01cd b2bc eefa ad3c e6c9 303d 0622 2bbd
00000260: d3c1 123d 8f02 773d 4de8 a93d ec48 50bd
00000270: 78ee 8fbd cfd3 473d a74f 123d fe8f 51bd
00000280: ce17 16bd f1ad b4bb 6160 a13b 34fa 4c3d
00000290: 94a0 e63c cda9 1dbd 1619 c7bc 00bf 11bd
000002a0: 2a62 233d 6288 3cba 16da c43a 4303 73bd
000002b0: 9e74 81bc 36d6 e6bd 244f 8c3d 7ae6 823d
000002c0: a165 d3bc 2003 473d 1df8 213d 794c 3a3d
000002d0: b4a3 70bd 89db 0e3d 5c5d 94bd bd46 e43c
000002e0: eda0 5bbd 8326 183d a029 083d cbd2 04bc
000002f0: 77a6 aa3d 8bcf 39bd 5b13 81bd 6ad8 903d
00000300: aa73 38bd 4d51 5bbb 3a64 e13c 2db6 5e3d
00000310: 427b 603d af70 113d 0676 1c3d 30bc 5a3d

layers.2.running_mean f4 [200]
0.4564906 0.17603122 0.09500006 0.20406075 0.26810297 0.20378761 0.212524 0.21332408
0.25289464 0.121761695 0.31152397 0.16739194 0.14793706 0.039364155 0.19153354 0.31748682
0.13787512 0.39400038 0.18995932 0.19860812 0.30480608 0.3074008 0.10692861 0.08074926
0.197078 0.24136193 0.27109098 0.08800342 0.34642628 0.5105718 0.15215021 0.30311388
0.26213756 0.30835992 0.3803196 0.16558015 0.34003815 0.11633455 0.19144179 0.054375075
0.15647279 0.23322138 0.10993003 0.36559945 0.17261425 0.22612183 0.09020953 0.2674724
0.13551372 0.4375594 0.106674254 0.16403246 0.09365707 0.35955632 0.12908857 0.12608354
0.26984665 0.18070805 0.15749477 0.21174009 0.463659 0.37775046 0.26835904 0.28493136
0.46604005 0.13776252 0.05662759 0.10386617 0.19486246 0.07191609 0.21014613 0.18811597
0.29968667 0.13748997 0.0875881 0.36227578 0.14765494 0.10181971 0.4595659 0.15860122
0.12483913 0.25020036 0.35188723 0.048947453 0.39375067 0.025034325 0.19654283 0.37090403
0.11583702 0.40753567 0.023085175 0.061546303 0.511169 0.16065869 0.32724774 0.10441655
0.48727903 0.15005496 0.3229351 0.117890835 0.12462311 0.17194192 0.15231606 0.25441083
0.24380647 0.3207638 0.40181616 0.31477025 0.2051756 0.23609614 0.22366169 0.17144014
0.29598516 0.32672063 0.33725882 0.4009491 0.19321355 0.38305858 0.24521518 0.14872131
0.11145502 0.28487754 0.04335977 0.057562456 0.15550472 0.11870567 0.068171225 0.2569326
0.21229383 0.3770971 0.3535341 0.33003753 0.27018815 0.20126326 0.2262361 0.31619903
0.12954803 0.33632976 0.4826886 0.11954215 0.41742012 0.18542892 0.07358447 0.45649117
0.103614755 0.13531673 0.2224133 0.10460623 0.10512442 0.14489856 0.3109605 0.21863993
0.16313979 0.3757975 0.2315321 0.16703457 0.2120652 0.3936973 0.30520314 0.1925214
0.23385224 0.25427502 0.03148541 0.3006151 0.21578193 0.09424976 0.13568473 0.2073599
0.19019866 0.03897795 0.09563044 0.27891615 0.12871566 0.11110128 0.17345032 0.4267034
0.11514224 0.2707289 0.2156049 0.042555634 0.135022 0.020449402 0.27131605 0.31952715
0.19696525 0.16424187 0.24872164 0.32499194 0.30494556 0.33809173 0.10261319 0.13708273
0.0956927 0.2961851 0.13459003 0.3106106 0.21280362 0.22220404 0.32915482 0.28079855
00000000: 23b9 e93e 8741 343e 648f c23d 4df5 503e
00000010: cb44 893e b3ad 503e e49f 593e a171 5a3e
00000020: 687b 813e 325e f93d 1280 9f3e cb68 2b3e
00000030: d07c 173e 4f3c 213d 5e21 443e a28d a23e
00000040: 232f 0d3e 6bba c93e b284 423e ed5f 4b3e
00000050: 8b0f 9c3e a363 9d3e 63fd da3d de5f a53d
00000060: d1ce 493e 9527 773e 70cc 8a3e 233b b43d
00000070: c95e b13e d5b4 023f 44cd 1b3e be31 9b3e
00000080: e536 863e 5ae1 9d3e 40b9 c23e d88d 293e
00000090: 7b19 ae3e cf40 ee3d 5109 443e 66b8 5e3d
000000a0: 673a 203e 96d1 6e3e ff22 e13d da2f bb3e
000000b0: cac1 303e 7b8c 673e c6bf b83d 24f2 883e
000000c0: 1cc4 0a3e c907 e03e 0878 da3d 20f8 273e
000000d0: 47cf bf3d c417 b83e cb2f 043e 0b1c 013e
000000e0: 5729 8a3e 880b 393e 4f46 213e 65d2 583e
000000f0: b664 ed3e 8268 c13e 5b66 893e 86e2 913e
00000100: cd9c ee3e 9e11 0d3e 55f2 673d c9b7 d43d
00000110: 068a 473e be48 933d 8c30 573e 79a1 403e
00000120: 8870 993e 2cca 0c3e 6461 b33d 367c b93e
00000130: db32 173e da86 d03d 394c eb3e 5c68 223e
00000140: a8ab ff3d 431a 803e 902a b43e 207d 483d
00000150: b099 c93e c914 cd3c 8642 493e 22e7 bd3e
00000160: f63b ed3d 84a8 d03e 1f1d bd3c fa17 7c3d
00000170: f9db 023f b683 243e 048d a73e 58d8 d53d
00000180: a37c f93e 02a8 193e c057 a53e c070 f13d
00000190: 673a ff3d 8b11 303e bef8 1b3e 2342 823e
000001a0: 67a8 793e 273b a43e d9ba cd3e 9129 a13e
000001b0: 8d19 523e 30c3 713e 9207 653e 018e 2f3e
000001c0: 5e8b 973e ed47 a73e 30ad ac3e 3349 cd3e
000001d0: c6d9 453e 4120 c43e b019 7b3e 664a 183e
000001e0: 8842 e43d 78db 913e 049a 313d 9cc6 6b3d
000001f0: a13c 1f3e f51b f33d 5b9d 8b3d ab8c 833e
00000200: 8e63 593e df12 c13e 6c02 b53e aefa a83e
00000210: 1a56 8a3e f517 4e3e 70aa 673e d7e4 a13e
00000220: 3da8 043e 6a33 ac3e f622 f73e 84d2 f43d
00000230: 17b8 d53e 14e1 3d3e 74b3 963d 36b9 e93e
00000240: f933 d43d 7890 0a3e 50c0 633e cb3b d63d
00000250: 794b d73d 4a60 143e 3736 9f3e 25e3 5f3e
00000260: 1e0e 273e 8868 c03e c016 6d3e 1c0b 2b3e
00000270: 9f27 593e b192 c93e 9643 9c3e 5424 453e
00000280: f676 6f3e 5630 823e d8f6 003d 39ea 993e
00000290: f0f5 5c3e 0506 c13d f0f0 0a3e 2756 543e
000002a0: 70c3 423e 58a7 1f3d e4d9 c33d 19ce 8e3e
000002b0: 0ace 033e 1189 e33d f69c 313e de78 da3e
000002c0: b2cf eb3d fa9c 8a3e 88c7 5c3e d14e 2e3d
000002d0: 3543 0a3e 8185 a73c f0e9 8a3e 1099 a33e
000002e0: 42b1 493e 052f 283e e3b0 7e3e 5865 a63e
000002f0: d321 9c3e 5c1a ad3e dd26 d23d 6a5f 0c3e
00000300: 89fa c33d 93a5 973e f8d1 093e 5a08 9f3e
00000310: 31e9 593e 7589 633e fb86 a83e d4c4 8f3e

layers.2.running_var f4 [200]
0.12447743 0.09647314 0.0475578 0.11747212 0.13737158 0.08657852 0.0843805 0.15023717
0.15821004 0.11676577 0.18930507 0.13327348 0.07461499 0.024498112 0.10247763 0.1106448
0.054851394 0.1704658 0.16859499 0.073765025 0.103428796 0.15791708 0.060743816 0.048604414
0.15787587 0.114789456 0.08202658 0.05496297 0.2591753 0.31579778 0.099144034 0.026478143
0.13750704 0.22423044 0.20014377 0.115876704 0.12862764 0.082109004 0.095220186 0.029228374
0.06870347 0.054521747 0.055585496 0.21764994 0.11526053 0.16884102 0.06651611 0.15043218
0.062864594 0.195987 0.083275765 0.07473292 0.048515216 0.07718521 0.068653814 0.077478416
0.12013072 0.10547518 0.09308178 0.0764077 0.18912858 0.18474357 0.17194284 0.03574531
0.22663093 0.0809013 0.026863793 0.07247322 0.10312662 0.03730209 0.14106275 0.10325758
0.19083153 0.045767546 0.04706835 0.08930531 0.09085485 0.06321303 0.29413685 0.115359746
0.09690562 0.1770525 0.20610379 0.032700215 0.17643471 0.009560951 0.08246443 0.1242873
0.04522452 0.12047098 0.009377513 0.0360199 0.3711959 0.04642438 0.1390647 0.05041639
0.18029813 0.10652826 0.10127019 0.13227293 0.066064954 0.086985126 0.04977828 0.13601129
0.12340038 0.12298688 0.21343713 0.21355201 0.12560831 0.23281094 0.10955763 0.09700562
0.13631697 0.20101123 0.15119343 0.21617882 0.17377649 0.20101039 0.15827172 0.08573799
0.07253042 0.19685075 0.037548404 0.033512592 0.12497055 0.06956927 0.03660149 0.09860943
0.10802401 0.17824525 0.25872105 0.11640651 0.14380696 0.13648404 0.13402438 0.12386437
0.07753028 0.15413567 0.13613658 0.101588346 0.10908082 0.096674904 0.04812245 0.21542767
0.048316147 0.07900064 0.19028963 0.07520912 0.06503393 0.081595756 0.08519562 0.12300489
0.06613265 0.22357658 0.12837824 0.09216635 0.10038452 0.13354474 0.15287764 0.10237693
0.16468193 0.12136606 0.025421686 0.1283282 0.08049378 0.055912655 0.082591094 0.10549512
0.079344966 0.018769275 0.044360958 0.18781117 0.07389244 0.07811421 0.124338165 0.16031662
0.099152714 0.100794666 0.1362359 0.038930494 0.069900915 0.0053564585 0.16379413 0.11620037
0.1948365 0.06611832 0.093344636 0.12899324 0.17550938 0.1861545 0.082588665 0.06609254
0.08943685 0.13999805 0.06525949 0.10318204 0.099588305 0.095390975 0.08418865 0.15648526
00000000: 06ee fe3d b693 c53d f8cb 423d 3995 f03d
00000010: 23ab 0c3e 1450 b13d afcf ac3d c6d7 193e
00000020: d001 223e e422 ef3d 30d9 413e d878 083e
00000030: becf 983d 44b0 c83c cbdf d13d be99 e23d
00000040: dbab 603d 968e 2e3e 2aa4 2c3e 1e12 973d
00000050: 7ad2 d33d 04b5 213e 82ce 783d 6c15 473d
00000060: 36aa 213e bc16 eb3d 8dfd a73d da20 613d
00000070: a0b2 843e 3fb0 a13e 070c cb3d b1e8 d83c
00000080: a5ce 0c3e aa9c 653e 7df2 4c3e c450 ed3d
00000090: f7b6 033e c428 a83d cd02 c33d 5870 ef3c
000000a0: 68b4 8c3d 3252 5f3d 9ead 633d a0df 5e3e
000000b0: b60d ec3d a9e4 2c3e 9939 883d e50a 1a3e
000000c0: 27bf 803d d1b0 483e 7c8c aa3d 930d 993d
000000d0: e4b7 463d 4813 9e3d 5f9a 8c3d 01ad 9e3d
000000e0: 1807 f63d 5f03 d83d a9a1 be3d a47b 9c3d
000000f0: ecaa 413e 6b2d 3d3e c911 303e ad69 123d
00000100: f011 683e 95af a53d 7511 dc3c d76c 943d
00000110: 0d34 d33d 14ca 183d c172 103e b678 d33d
00000120: 5769 433e c076 3b3d beca 403d b4e5 b63d
00000130: 1c12 ba3d d575 813d 1b99 963e bb41 ec3d
00000140: 7476 c63d 404d 353e df0c 533e a9f0 053d
00000150: 4dab 343e 89a5 1c3c 1ce3 a83d 578a fe3d
00000160: 593d 393d 7db9 f63d 24a4 193c 9a89 133d
00000170: 640d be3e 7e27 3e3d fa66 0e3e 6b81 4e3d
00000180: 13a0 383e 7d2b da3d bf66 cf3d 8e72 073e
00000190: 104d 873d 4225 b23d 4fe4 4b3d 8b46 0b3e
000001a0: 57b9 fc3d 8ce0 fb3d 438f 5a3e 61ad 5a3e
000001b0: 779f 003e fe65 6e3e c05f e03d e2aa c63d
000001c0: ad96 0b3e e3d5 4d3e 73d2 1a3e fb5d 5d3e
000001d0: 77f2 313e abd5 4d3e fb11 223e 6697 af3d
000001e0: d48a 943d 3e93 493e 5bcc 193d 8044 093d
000001f0: 8ff0 ff3d 557a 8e3d 72eb 153d bef3 c93d
00000200: b13b dd3d ec85 363e 1677 843e 8966 ee3d
00000210: 2242 133e 79c2 0b3e b03d 093e 9aac fd3d
00000220: 32c8 9e3d bed5 1d3e 6367 0b3e 8d0d d03d
00000230: c465 df3d 7efd c53d 0c1c 453d 1299 5c3e
00000240: 27e7 453d 16cb a13d 49db 423e 3d07 9a3d
00000250: 8230 853d ad1b a73d 0b7b ae3d fde9 fb3d
00000260: 8e70 873d 42f1 643e 9675 033e b6c1 bc3d
00000270: 6696 cd3d f4bf 083e f58b 1c3e ffaa d13d
00000280: 61a2 283e c58e f83d 2441 d03c 7868 033e
00000290: ecd9 a43d ab04 653d 8525 a93d d30d d83d
000002a0: 9d7f a23d 06c2 993c d6b3 353d 9251 403e
000002b0: eb54 973d 58fa 9f3d 02a5 fe3d 0a2a 243e
000002c0: 9410 cb3d 6f6d ce3d 6c81 0b3e 9575 1f3d
000002d0: 3628 8f3d 3b85 af3b a6b9 273e 76fa ed3d
000002e0: 3883 473e 0b69 873d 792b bf3d ce16 043e
000002f0: bbb8 333e 499f 3e3e 3f24 a93d 875b 873d
00000300: ab2a b73d a65b 0f3e c4a6 853d 1b51 d33d
00000310: f4f4 cb3d 585c c33d 196b ac3d ac3d 203e

layers.4.weight f4 [100, 200]
0.005003147 0.07614517 -0.07662872 0.030388698 0.07925637 -0.06341927 -0.0886983 -0.011548644
0.04234604 -0.056285962 0.04129957 0.018942881 -0.12627985 0.007860414 -0.047578935 -0.088961795
-0.08115739 -0.05106509 -0.05860811 -0.049397033 -0.010356022 0.07693468 -0.064900875 0.011156335
0.038049992 0.029740293 0.03859695 -0.028894262 0.037873562 0.08866557 -0.0928027 -0.04575795
0.11016925 0.0113167055 0.055699963 0.018051822 -0.07377413 0.038294524 -0.06642264 0.06929408
0.102037035 0.027288381 0.05417871 -0.008685874 -0.021029506 0.03931743 -0.079646856 0.03578858
0.14701788 0.024016596 -0.04216917 0.017248694 -0.007764958 0.07056041 0.017006427 -0.00048810442
-0.11428234 -0.044418573 -0.1271925 -0.0041444926 -0.03401267 0.032242432 0.05245385 0.028177459
0.07782661 -0.035670787 0.09488888 0.043024696 -0.05904485 0.002639737 -0.022278013 0.015617285
-0.05571584 0.014603757 0.06603551 -0.028137894 -0.0050887344 0.039908726 -0.031148594 -0.054982197
-0.07608316 -0.009349023 -0.074210584 0.02628484 0.003447814 -0.02107765 -0.040714096 -0.0456303
0.0274667 -0.048787463 -0.12549703 -0.018941546 -0.06762718 -0.0014349666 -0.02040006 -0.10225766
0.09368014 0.03714035 -0.02850653 -0.067790456 0.084110536 -0.053308897 -0.00066017924 0.04585784
0.035425235 -0.05829726 -0.010460779 -0.06266971 0.0002980289 -0.049045675 0.0061449436 0.10762433
-0.034428593 0.025079824 -0.025289819 0.084600165 0.04854015 -0.061851393 0.018373555 0.034812775
-0.027449591 0.027333423 0.0075747073 0.021165462 -0.015367492 0.032399524 0.09859268 -0.03780444
-0.07136893 -0.009665251 0.03664502 0.039938338 -0.010639369 0.03184989 -0.047793612 -0.03800779
-0.16060974 -0.0031582436 -0.053395122 0.037726685 -0.010589343 -0.0056063957 -0.023529401 0.02109373
0.03002199 -0.062159322 0.0786255 -0.03579276 0.028485898 0.027462121 -0.007920239 0.07605173
0.0039282623 0.032396846 0.04654632 0.08138852 0.0015836622 0.010631603 0.03921591 0.003910853
-0.058930486 -0.13277152 0.036414273 -0.034853797 -0.05192279 -0.06420501 -0.024514902 0.01289588
-0.053725377 0.045712527 0.04055016 0.029008217 -0.05518105 -0.06622394 0.02122271 0.018321691
0.026923388 -0.029091593 -0.01818303 -0.0006520554 -0.0377968 0.060159072 -0.06606878 -0.07136591
-0.08396988 0.034216695 0.01999188 -0.0048087826 -0.058983836 0.011703926 0.0022344885 0.030040441
-0.043584544 0.027646072 -0.014952354 -0.027691038 0.015580218 -0.03880563 -0.03035538 0.043284737
-0.0043642703 0.05682031 0.06874428 0.03060052 0.00015123408 0.049998116 0.037675142 0.095992066
0.023729917 0.024202922 0.05894277 -0.0031727338 0.098409645 0.038982894 0.03535062 0.016508574
-0.051478576 0.02761138 0.018784735 -0.05441801 -0.021763694 0.01426785 0.07818528 -0.021130208
-0.0095607545 0.01342369 -0.09396291 0.07036615 -0.021648051 -0.013206759 -0.036568556 0.008861804
-0.02623405 -0.015967153 -0.024781412 0.015116139 -0.039851047 0.045489054 -0.004872173 -0.041937403
0.017489178 0.054295722 0.025309388 -0.07711317 -0.00998396 0.09309041 0.07789318 0.0069969655
0.0070075463 0.011919711 0.014398006 0.016722716 -0.0076242886 -0.049937867 0.063079745 -0.018417144
00000000: 70f1 a33b 00f2 9b3d 85ef 9cbd b8f1 f83c
00000010: 2a51 a23d f6e1 81bd 74a7 b5bd 8636 3dbc
00000020: 0b73 2d3d 1c8c 66bd bd29 293d 1a2e 9b3c
00000030: 814f 01be f7c8 003c 21e2 42bd 9a31 b6bd
00000040: d835 a6bd a129 51bd 0f0f 70bd 8b54 4abd
00000050: 4eac 29bc ee8f 9d3d c0ea 84bd 0fc9 363c
00000060: 4fda 1b3d eaa1 f33c d617 1e3d a9b3 ecbc
00000070: 4f21 1b3d 4b96 b53d 580f bebd b06c 3bbd
00000080: 6aa0 e13d b469 393c a525 643d 6ae1 933c
00000090: e416 97bd b8da 1c3d 9808 88bd 0eea 8d3d
000000a0: cbf8 d03d e28b df3c 7fea 5d3d 324f 0ebc
000000b0: 1246 acbc 500b 213d e41d a3bd 0c97 123d
000000c0: db8b 163e 74be c43c 94b9 2cbd 224d 8d3c
000000d0: 3071 febb fa81 903d 1051 8b3c 44e8 ffb9
000000e0: dc0c eabd 40f0 35bd c03e 02be 86ce 87bb
000000f0: df50 0bbd a410 043d d9d9 563d 6ad4 e63c
00000100: 8f63 9f3d 881b 12bd 1a55 c23d aa3a 303d
00000110: 03d9 71bd 70ff 2c3b 6180 b6bc a4df 7f3c
00000120: 4b36 64bd 9944 6f3c a03d 873d 7181 e6bc
00000130: 66bf a6bb 5577 233d 562b ffbc 0335 61bd
00000140: 7dd1 9bbd a52c 19bc b8fb 97bd 4e53 d73c
00000150: b8f4 613b 09ab acbc d3c3 26bd d6e6 3abd
00000160: d801 e13c 5dd5 47bd 4b82 00be 4d2b 9bbc
00000170: 1e80 8abd 7d15 bcba 071e a7bc 776c d1bd
00000180: 60db bf3d 7b20 183d 8786 e9bc b9d5 8abd
00000190: 2542 ac3d 6e5a 5abd e10f 2dba 6ed5 3b3d
000001a0: 0d1a 113d 1cc9 6ebd b063 2bbc fa58 80bd
000001b0: c340 9c39 1ee4 48bd 865b c93b 256a dc3d
000001c0: ff04 0dbd 3474 cd3c 982c cfbc da42 ad3d
000001d0: 09d2 463d e357 7dbd 2384 963c d797 0e3d
000001e0: f7dd e0bc 58ea df3c 4035 f83b 3163 ad3c
000001f0: efc7 7bbc 5db5 043d f6ea c93d d4d8 1abd
00000200: e029 92bd 005b 1ebc 1719 163d 6296 233d
00000210: bf50 2ebc 0875 023d 3cc3 43bd 0eae 1bbd
00000220: e176 24be 89fa 4ebb d8b4 5abd 4c87 1a3d
00000230: ec7e 2dbc dbb5 b7bb bbc0 c0bc c2cc ac3c
00000240: adf0 f53c c69a 7ebd 6806 a13d 6e9b 12bd
00000250: 425b e93c 3ef8 e03c e4c3 01bc 02c1 9b3d
00000260: a7b8 803b 8eb2 043d 5ba7 3e3d 06af a63d
00000270: e392 cf3a 2d30 2e3c dda0 203d 9d26 803b
00000280: 1861 71bd 42f5 07be 2227 153d dbc2 0ebd
00000290: feac 54bd eb7d 83bd 7ad3 c8bc 3e49 533c
000002a0: 240f 5cbd 0f3d 3b3d ed17 263d a4a2 ed3c
000002b0: 8605 62bd 6ba0 87bd 40db ad3c 5f17 963c
000002c0: 708e dc3c 7e51 eebc 94f4 94bc b2ee 2aba
000002d0: d1d0 1abd 5c69 763d 124f 87bd 4a28 92bd
000002e0: 67f8 abbd ce26 0c3d 03c6 a33c fe92 9dbb
000002f0: 0999 71bd d3c1 3f3c 7f70 123b 5f17 f63c
00000300: b585 32bd 047a e23c b8fa 74bc 51d8 e2bc
00000310: 2c44 7f3c a7f2 1ebd d9ab f8bc 564b 313d
00000320: 2702 8fbb 6abc 683d cdc9 8c3d f1ad fa3c
00000330: 9794 1e39 d3ca 4c3d 4051 1a3d 7d97 c43d
00000340: 3e65 c23c 3545 c63c f96d 713d a4ed 4fbb
00000350: ff8a c93d 87ac 1f3d d0cb 103d fd3c 873c
00000360: 33db 52bd 4331 e23c 72e2 993c 6be5 5ebd
00000370: c649 b2bc b3c3 693c 9b1f a03d 4219 adbc
00000380: b6a4 1cbc 09ef 5b3c a06f c0bd 211c 903d
00000390: 4157 b1bc 2961 58bc e9c8 15bd 1a31 113c
000003a0: cae8 d6bc 8ccd 82bc 6302 cbbc afa9 773c
000003b0: da3a 23bd bb52 3a3d c0a6 9fbb 8ec6 2bbd
000003c0: 7745 8f3c 3165 5e3d a255 cf3c 82ed 9dbd
000003d0: c393 23bc 2fa6 be3d 7686 9f3d cd46 e53b
000003e0: 8f9f e53b e44a 433c 9de5 6b3c 14fe 883c
000003f0: 2bd5 f9bb a68b 4cbd f42f 813d 8ddf 96bc

layers.4.bias f4 [100]
0.062003594 0.031551298 -0.033862013 0.076869935 -0.016206672 0.11151712 -0.027557088 0.14015156
0.0975026 0.029693685 -0.0044450853 -0.032997407 0.10042287 0.14065914 0.08421677 -0.18645817
0.034772042 0.15390097 0.010329952 0.11052052 -0.04940483 -0.02197145 0.052455455 0.18796538
0.13294993 -0.13453005 0.19602782 -0.022675235 0.16893223 0.16725521 0.13589506 -0.09579489
0.16028646 0.13044909 -0.044942476 0.009572798 1.3070559e-05 -0.11380157 0.13077773 0.07217572
0.08091402 -0.024202663 0.15689397 0.15344466 0.1485683 0.10033623 -0.047422957 0.071427055
0.15922631 -0.029509455 -0.015113655 -0.10473525 -0.04685845 0.06250177 -0.014611811 -0.015077604
0.104583345 0.05213279 -0.019450963 -0.046373326 -0.021760931 0.111589715 0.13872035 0.07730097
-0.06052625 0.0056408923 0.0032141823 -0.052896835 0.17791583 0.14055839 0.10785364 0.13384825
0.17609017 0.19343595 0.20427172 0.13153163 -0.079708084 0.1395344 0.21142565 -0.07225644
0.16552636 0.05135125 0.10283786 -0.014295898 0.1697763 0.1928084 0.04167998 0.18343928
0.00018059947 0.07573828 0.19940709 -0.044239562 0.16686675 0.102954365 0.14990151 0.12752016
-0.10971414 0.11121346 0.14136048 0.11932981
00000000: 7bf7 7d3d ef3b 013d e5b2 0abd fc6d 9d3d
00000010: dbc3 84bc 1663 e43d 67bf e1bc e483 0f3e
00000020: 71af c73d 2c40 f33c 14a8 91bb 4a28 07bd
00000030: 81aa cd3d f308 103e d879 ac3d e4ee 3ebe
00000040: 216d 0e3d 3798 1d3e f63e 293c 9558 e23d
00000050: b85c 4abd 78fd b3bc 88db 563d ff79 403e
00000060: 0724 083e 3fc2 09be 84bb 483e 6ac1 b9bc
00000070: 92fc 2c3e f344 2b3e 1328 0b3e 1c30 c4bd
00000080: 2222 243e 7294 053e 9a15 38bd 3ad7 1c3c
00000090: a049 5b37 cc10 e9bd 99ea 053e ddd0 933d
000000a0: 40b6 a53d aa44 c6bc d0a8 203e 9920 1d3e
000000b0: 4a22 183e 157d cd3d 933e 42bd 5948 923d
000000c0: 390c 233e d0bd f1bc 439f 77bc 6f7f d6bd
000000d0: a5ee 3fbd ee00 803d 6166 6fbc 0e08 77bc
000000e0: cb2f d63d 3189 553d a057 9fbc f5f1 3dbd
000000f0: fb43 b2bc 2689 e43d b50c 0e3e f94f 9e3d
00000100: 60ea 77bd 3cd7 b83b 08a5 523b 5aaa 58bd
00000110: 912f 363e 8aee 0f3e 5fe2 dc3d 840f 093e
00000120: fb50 343e 1314 463e 9b2c 513e 3ab0 063e
00000130: fe3d a3bd 1be2 0e3e f77f 583e 2ffb 93bd
00000140: be7f 293e b055 523d a89c d23d 5839 6abc
00000150: d7d9 2d3e 916f 453e a0b8 2a3d 82d7 3b3e
00000160: 4d5f 3d39 ac1c 9b3d 5f31 4c3e 8b34 35bd
00000170: 1edf 2a3e bdd9 d23d c87f 193e a594 023e
00000180: cfb1 e0bd e2c3 e33d cdc0 103e 3063 f43d

layers.6.weight f4 [100]
0.85840327 0.8056627 0.9121617 0.6613047 0.8824785 0.6393292 0.8286422 0.6948339
0.7601848 0.66548055 0.65018594 0.8823235 0.67195344 0.6250758 0.646727 0.8566139
0.627576 0.666459 0.7919088 0.868867 0.8447748 0.8495836 0.847851 0.64429426
0.67563677 0.86239254 0.6360771 0.892958 0.6384122 0.66111654 0.6183228 0.8893595
0.68010867 0.6242036 0.8279995 0.89963734 0.82342815 0.8998487 0.88686234 0.8673154
0.83513004 0.82888377 0.67155594 0.65342927 0.6741162 0.6708439 0.83358437 0.8627167
0.62993455 0.65382296 0.8259806 0.8279965 0.8529899 0.87034243 0.65760636 0.8323121
0.6643705 0.6792641 0.833311 0.8667179 0.66260636 0.6623301 0.6270524 0.6313649
0.86964345 0.87391436 0.82161266 0.85742867 0.67095745 0.62193906 0.63909006 0.684804
0.6669317 0.67580473 0.6834045 0.6483745 0.8874865 0.6433475 0.661421 0.8764039
0.63457423 0.6300687 0.6609182 0.8386389 0.65623915 0.6625649 0.81215346 0.62169844
0.8271926 0.6649047 0.6255783 0.63112444 0.6712934 0.64824563 0.6816325 0.6674909
0.89746374 0.63725066 0.63276505 0.65434146
00000000: 51c0 5b3f e93f 4e3f 6e83 693f 444b 293f
00000010: 1cea 613f 14ab 233f e521 543f a2e0 313f
00000020: 799b 423f ef5c 2a3f 9672 263f f4df 613f
00000030: 2405 2c3f f804 203f e78f 253f 0c4b 5b3f
00000040: d2a8 203f 0f9d 2a3f 89ba 4a3f 116e 5e3f
00000050: 2943 583f 507e 593f c30c 593f 78f0 243f
00000060: 88f6 2c3f c2c5 5c3f f3d5 223f e598 643f
00000070: fb6e 233f ef3e 293f 674a 1e3f 10ad 633f
00000080: 9a1b 2e3f cfcb 1f3f c6f7 533f a24e 663f
00000090: 30cc 523f 7c5c 663f 6909 633f 6208 5e3f
000000a0: 15cb 553f ba31 543f 17eb 2b3f 2447 273f
000000b0: e192 2c3f 6dbc 2b3f c965 553f 00db 5c3f
000000c0: 6443 213f f160 273f 7773 533f 94f7 533f
000000d0: 8c5d 5a3f c3ce 5e3f e458 283f 6812 553f
000000e0: 2f14 2a3f 41e4 2d3f df53 553f 39e1 5d3f
000000f0: 92a0 293f 778e 293f 8286 203f 21a1 213f
00000100: f4a0 5e3f dab8 5f3f 3555 523f 7280 5b3f
00000110: dec3 2b3f 6637 1f3f 689b 233f 514f 2f3f
00000120: 09bc 2a3f 8a01 2d3f 99f3 2e3f dffb 253f
00000130: 5132 633f 6cb2 243f e352 293f 025c 603f
00000140: 7573 223f 2f4c 213f ef31 293f 0ab1 563f
00000150: 4aff 273f da9d 293f 4ae9 4f3f a127 1f3f
00000160: e5c2 533f 3237 2a3f e625 203f 5f91 213f
00000170: e2d9 2b3f 6df3 253f 787f 2e3f afe0 2a3f
00000180: 2fc0 653f dc22 233f e4fc 213f ec82 273f
