review_pytorch/regression_projects/taxi_fees/Taximodel_version3.pt (torch, 114107 bytes, 20 tensors)

embeds.0.weight f4 [24, 12]
00000000: 6ccb d53e ff29 a4bd 255d 09bf 53ad 193f
00000010: c408 233f 2e6c 07bf 5f8d ae3f 91d6 043e
00000020: c0c4 9bbf 6df0 9e3f 5d11 f43e c792 90be
00000030: 2002 7c3e 338d a6bf 8afb b53e acb7 173f
00000040: aa00 e6be 6b18 b1bf 20ff 933f 2773 2bbf
00000050: de8e 213e 4b86 973f 0e07 12bf 0de2 b93e
00000060: f5ab b93e 2cd2 9ebf 5cd8 cfbe 47b2 7c3e
00000070: fd04 27be c5d3 2cbf 7a90 b7bf 0906 89bf
00000080: a06f 79bf 695b dd3e a21b 82bf 542a 3d3f
00000090: f04e 9dbf d96c 81be 430f 90bf 0283 ab3f
000000a0: e47e 9fbe 3ab8 4e3e d0a1 063f 6b6b 4a3f
000000b0: 106c e53e 46a0 243e 5cdd 2b3e 2087 60be
000000c0: 2c79 84bf 2586 7cbf d00f b83f f5b4 adbf
000000d0: 89a7 8bbe 1c15 cebf f2b4 8ebe 2cdc 953f
000000e0: f5d8 9f3d 8580 29bf 7b24 413f 3bd5 f43e
000000f0: d714 6a3e 5ddf 8dbe 0d6b 303f f385 28c0
00000100: ff58 45be 3ccb 13c0 52c3 dfbf dc0b 1fbd
00000110: 4508 90bf 65af 3a3f c447 6c3e bd5a 3b3f
00000120: e78c 643e 45cc 8e3f 18ca 103f 5cde 0fbf
00000130: aa30 2abf 8aba 04bf b99b 113f 2a01 21be
00000140: 679b c33f 6a17 a5bf 59d5 30be 6668 913f
00000150: 82d7 dd3f 6ca5 4bbe db03 1d3d 0838 8bbf
00000160: 67b0 3abf fbe3 a93b fe94 2b3f 54e5 9abf
00000170: 922e 1dbf 71b5 76bf 52af cebe f00f 8abf
00000180: 22b1 31bf 9d90 68bf 40e9 2940 3c6e a83f
00000190: fdcc 0a3e 22b5 33bf f870 06bf 3184 413e
000001a0: 8856 013f 9be0 a03f 99b0 0a3f 8f11 cfbe
000001b0: af67 843f 26ae dcbb fc5b 903f 2f99 e5bd
000001c0: 8e1d a5bf 9b0c 173f 3d11 5abe 7fb7 87bf
000001d0: 7cc1 673f 6754 bd3f 8366 a5bf f973 823e
000001e0: bb38 b5be df25 c93f c64b d6be 2899 81be
000001f0: 99e2 173f e563 56bf 5eb8 61bf 85d7 253f
00000200: dec5 c93e 2bd7 ffbe 3329 dcbf 111a 10bf
00000210: bb1b ae3e 4668 5e3f 85ec 40bf d3d5 e83f
00000220: 35ed 553f 554a 6c3f f98e 6e3f 0e00 76bf
00000230: cd65 a5bf 16fe fabf 483a b0bd eb2b 2abf
00000240: f703 afbf f4e2 3abe a9df 6b3f 02dc 5c3f
00000250: b308 773c b51b 923f df65 81bf 4c46 1040
00000260: 5039 89be eb6b c33e d872 a73f f70c b4bf
00000270: 41a8 e63f 6fa2 853e ff80 33bf e25b 6cbf
00000280: 4339 5fbf b98e e5bd bf6c 853e 8d64 ce3e
00000290: 627d 02be 8467 a73d 9059 d5bf ea47 c7bf
000002a0: 203d 933e 281a b1bf c618 8b3f a67f 733f
000002b0: 89a9 dcbf bb48 c7bc 0ef0 ad3f bf0a 90be
000002c0: fe11 8dbf f2f8 e33e f5b9 873f 1ba8 4dbf
000002d0: 86c1 a4bd 8bd0 7bbe 21a8 f7bc 157b 333e
000002e0: 1753 5e3f f627 823f a524 5ebe 7503 f2bf
000002f0: 42e8 783e f8bc 3ebf b0f4 c8bf 2c4d 4abf
00000300: 5f87 b1bf 7229 aebf 2c36 1cbf eb6d b5bf
00000310: 2ad1 78bf 935b 36bd 3e54 943f 8a9c e03f
00000320: f6fd b7bd 5677 683e 66eb c1be 02bd 91be
00000330: daa8 b4be ebfc 04c0 e3e2 76bf 058f 97bf
00000340: 10b8 193e e8c0 d33e 46eb c3bf 4a65 6cbe
00000350: 43be 3bbf d11f f3be 4189 dfbe 28be a33f
00000360: b118 d5bf c573 3bbf 6df4 0cbf 29a5 7fbf
00000370: faf4 4c3f 1733 b6be c7ae f23e fd1e c5bd
00000380: d15e 80bf 63d2 cb3d 3f55 86bf 7d19 6cbf
00000390: a63f bdbf 8c91 b03e a2e1 64bf 54f4 98be
000003a0: 4c31 b13e 5046 3a3e 0483 fb3f 211c 90be
000003b0: caf5 a93f 27ea c5be 9b21 1ebc 1535 9a3f
000003c0: 2f10 e8bf 17a4 0fbf a4d9 4b3d 1788 25bf
000003d0: 6e27 87be affe e839 97ed 1ebf 74a7 25c0
000003e0: 4acd 123f 5d34 113f 9ae4 65bf 5d1a 813f
000003f0: 0100 93bf 96e4 22be 0ca1 92bf 5617 dfbe
0.4175676 -0.080158226 -0.5365775 0.60030097 0.6368525 -0.52899444 1.3636893 0.12972476
-1.2169418 1.2417122 0.47669497 -0.28236982 0.24610186 -1.301184 0.35543472 0.59264636
-0.44922382 -1.3835577 1.1562233 -0.66972584 0.15777156 1.1837858 -0.57042015 0.36305276
0.36264005 -1.2407889 -0.40594757 0.24677382 -0.16310497 -0.67510635 -1.4340966 -1.0704967
-0.9743595 0.43233803 -1.0164683 0.7389271 -1.2289715 -0.25278357 -1.1254658 1.3399355
-0.31151497 0.20187464 0.52590656 0.79070157 0.44809008 0.16076764 0.1678366 -0.21926546
-1.0349479 -0.9864219 1.4379826 -1.3570849 -0.27276257 -1.6100192 -0.27872425 1.1707816
0.07805053 -0.6621173 0.7544629 0.47818932 0.22859512 -0.27709475 0.68913347 -2.6331756
-0.1927223 -2.3092794 -1.7481482 -0.03882967 -1.1252524 0.7292388 0.23074251 0.7318533
0.22319375 1.1156088 0.5655837 -0.5619867 -0.66480505 -0.51847136 0.5687824 -0.157231
1.52818 -1.289777 -0.17268886 1.1359985 1.7331393 -0.19887322 0.038333755 -1.0876474
-0.7292542 0.005184648 0.6702422 -1.2101235 -0.61399186 -0.9637061 -0.40368134 -1.0786114
-0.6941091 -0.9084566 2.6548615 1.3158641 0.1355476 -0.7019826 -0.52516127 0.18898083
0.5052266 1.2568544 0.54175717 -0.40443084 1.0344142 -0.0067346273 1.1278071 -0.11210858
-1.2899644 0.5900361 -0.21295638 -1.0602874 0.9052961 1.4791383 -1.2921909 0.25479105
-0.35394844 1.5714682 -0.41854686 -0.2531216 0.59330136 -0.83746177 -0.88171947 0.6478198
0.39408773 -0.49968848 -1.7200073 -0.56289774 0.34005532 0.8687786 -0.753609 1.8190254
0.83565074 0.9230092 0.9318691 -0.96093833 -1.2921692 -1.9608791 -0.08604866 -0.66473264
-1.3673085 -0.18250638 0.92138153 0.86273205 0.015077758 1.1414706 -1.0109214 2.2542906
-0.26801538 0.38168272 1.3081923 -1.4066457 1.8020097 0.2610049 -0.7011871 -0.923277
-0.8719675 -0.11208863 0.2605953 0.4031109 -0.12743142 0.08174041 -1.6667957 -1.5568821
0.28757572 -1.3836107 1.0866935 0.9511665 -1.7239238 -0.024326673 1.3588884 -0.281332
-1.1021116 0.44525868 1.0603625 -0.80334634 -0.08044724 -0.24591272 -0.030231537 0.17527421
0.86845535 1.0168445 -0.21693666 -1.8907305 0.2430735 -0.74507093 -1.5699673 -0.79024005
-1.3869437 -1.3606398 -0.6102016 -1.4174169 -0.9719416 -0.044520926 1.1588209 1.7547772
-0.08983986 0.22701773 -0.37874907 -0.28464514 -0.35285074 -2.077937 -0.9643995 -1.1840521
0.1501162 0.41358113 -1.5306175 -0.23085514 -0.7333719 -0.47485211 -0.43659404 1.2792406
-1.664816 -0.73223525 -0.55060464 -0.9986139 0.80061305 -0.35585853 0.4739897 -0.09625051
-1.0028936 0.099522375 -1.0494765 -0.9222639 -1.4785049 0.34486043 -0.8940679 -0.29873908
0.34607923 0.18190885 1.9649358 -0.2814646 1.3278134 -0.38655207 -0.009651567 1.2047449
-1.8129939 -0.56109756 0.049768105 -0.6466078 -0.2639727 0.00044440242 -0.62081283 -2.5883455
0.57344496 0.56720525 -0.89801943 1.008617 -1.1484376 -0.15907511 -1.1455398 -0.4357249

embeds.1.weight f4 [3, 2]
00000000: c3e6 00bd 0249 c93e 9fc8 90bd 5b6c 743f
00000010: 451d 743e c201 103f
-0.03147007 0.39313513 -0.070695154 0.9547784 0.2383929 0.5625268

embeds.2.weight f4 [7, 4]
00000000: 3599 ffbe 3828 c3bf 46c8 0c3e 310e e63e
00000010: 7782 843e 82e4 81bf 9191 92be 877e b2bf
00000020: 5b73 48be b97e be3e 3249 dd3f 16d8 513f
00000030: c6db 5fbe 7c07 7ebf eb5d 34bf 8b25 bdbe
00000040: c99e 3cbf eb26 63bf 0ed6 ccbf 400a a13e
00000050: e88c a73e d75a 74bf d230 5fbf 3d2b 7f3f
00000060: 71ed 8abe 891e 6ebf 7e6a b8bf 6a08 e83d
-0.49921575 -1.5246649 0.13748273 0.44932702 0.25880787 -1.014786 -0.28626683 -1.3944863
-0.19575255 0.37206057 1.7287962 0.81970346 -0.2186118 -0.9923017 -0.7045581 -0.36942706
-0.73679787 -0.8873126 -1.6002824 0.31453133 0.3272469 -0.9545111 -0.8718387 0.9967535
-0.27134278 -0.9301534 -1.4407499 0.1132973

bn_num.weight f4 [6]
00000000: c9a3 7b3f 11fa 913f 8215 833f adf3 973f
00000010: b5da 593f 4cfc 8b3f
0.9829679 1.1404439 1.0240939 1.1871239 0.85099345 1.093637

bn_num.bias f4 [6]
00000000: 26b3 d0bd 90ce 8a3b ef68 8fbd 7a77 9e3d
00000010: 3b7d eabd ca17 debd
-0.1019042 0.00423605 -0.07002436 0.07737632 -0.11449667 -0.10844381

bn_num.running_mean f4 [6]
00000000: b8f4 93c2 7c01 2342 acf3 93c2 dc01 2342
00000010: 620c ac3f 0331 2740
-73.97797 40.75145 -73.97592 40.751816 1.3441279 2.6123664

bn_num.running_var f4 [6]
00000000: b958 823a b388 2c3a b1be 8a3a 05e9 6f3a
00000010: ca17 113f ccc7 3641
0.0009944654 0.0006581649 0.0010585395 0.0009151849 0.56676924 11.423779

layers.0.weight f4 [200, 24]
00000000: f244 0f3c d1ee e7bd ba1f c4bd 3ebc 2b3d
00000010: 5de5 053e 7783 c6bd a2b1 8abb 1f91 fd3d
00000020: 4027 38bd 79f3 333d 4324 2fbd cc68 8abc
00000030: c481 13be 0866 573d 117f 10be a7fe 06bd
00000040: 30a1 223e 580c 023d ebd7 203e 8189 0b3d
00000050: 9f33 593d 553c 27bb 11c7 193e a917 593e
00000060: 4419 4f3b 60b0 5cbd 6928 74bd a4de 93bd
00000070: f1fe 513d ef3a 63bd c279 863d ea82 b63d
00000080: eec5 63bd 6ac5 9e3d 637c a63d 55e2 46bd
00000090: c643 083c 4781 3a3e 7cc4 33be 4677 26b9
000000a0: 7d9e f7bb dc6d 09bd 4519 82bd 2aa4 2d3e
000000b0: 4303 c2bd 0b36 ba3d 9255 643d 3ee0 41be
000000c0: 2adc bc3c abb3 8bbd 4b52 16bd 5d3c 193d
000000d0: 1496 8dbd e510 b9bc 8b41 3f3d c06b a03c
000000e0: 672c c23c b73f e13b c6ae 5c3c 67ff ec3c
000000f0: 6f17 ce3d fd10 1ebe 65ee 013d 3897 51bb
00000100: b24a 713d fa13 3ebd 4d3f 47be aefe 78be
00000110: 2e3c 003e ebe7 a9bd d905 11bd c4ae 263e
00000120: 4991 9c3d b89b b73c ffcd 43bd cab4 e63d
00000130: eb87 74bd 071f 063e ac4c ed3d 0b74 bfbb
00000140: 553f abbd 6363 4bbc 909e a53d 4303 48bd
00000150: 4a5d ebbd aaba 9f3d 9cd8 093d 4ecf d2bc
00000160: 4e19 6bbd f405 dfbb 49e6 67bd 5b67 a83c
00000170: 0cde f43d 968c 853e c1a8 203c 2435 4a3e
00000180: 02e2 84bd 677d 7a3d 8388 2fbe 9b45 1f3e
00000190: 7e85 a4bd 0d1e 733e 5e11 643b 5417 ebbd
000001a0: cbff ffbb c0ee 6c3d 6db0 be3d ed0a 46bc
000001b0: 499b d0bd 458d 173e 4857 e4bd d147 da3d
000001c0: 4db9 97bd 26bf 7d3d 0872 0e3c 6114 c43d
000001d0: b3e2 0bbe 83e8 94bd b96c 05be 41f3 1bbe
000001e0: 9dbe c03c c121 49bd d00e dcbd c2db 1c3e
000001f0: bbbe 2fbe 39d5 e4bd 059d d3bd 88a4 2d3e
00000200: 6d53 37be 25c2 c7bc 293f 11be 63e4 d43d
00000210: 0670 dabd 160d 7f3d ff1b 153d 0115 fdbc
00000220: 9841 f5bd dddc d33d 6430 43bc 25cf 0bbc
00000230: e9fa f83d 93fe 0bbe 04f1 05be 37de 9d3d
00000240: 9e06 61bc fb85 28bb a227 c4bb f667 f0ba
00000250: cabe 063c 579d efbb 47c6 243c 7325 02bb
00000260: cd28 bbbb 9e33 813c 1d96 19bb 212a 06bc
00000270: 4e17 25be e3ab 693d f901 9dbc 8652 adbc
00000280: 5e3c 4bbb 3182 9d3c d0f0 99be 5220 913e
00000290: 21f9 443e e78c 94be d938 83bb c4c1 4a3e
000002a0: 4d86 fdbc dbc6 0dbe 6163 163e 7a2e 78bd
000002b0: 66eb 11bd b892 1cbb 4330 43bd f3ad a6bc
000002c0: 8ede 72bc 6c52 dd3d a7db dc3c 3755 36be
000002d0: 0ea5 90bd ef63 84bd 6b9a 2abd 92d7 8f3d
000002e0: 7f06 c03d ebe3 b4bd 3d9e 12be c69a 0c3e
000002f0: fe62 8abc 77ae 62be b386 12bd 7951 813e
00000300: 5fe3 59bc 1786 dabd a9c2 c03c 2062 c8bd
00000310: 801b b1bd 1fd1 fb3d 6e91 d33c 5c2a 0a3e
00000320: 5ab5 3dbd 57aa 173e 34b4 a4bd f5cf 9bbd
00000330: fa73 343e 057f 273e 8281 f33a ec39 1bbe
00000340: 76a3 efbd 348e 7c3c 0efc 183e 6845 113e
00000350: 77c3 c0bd 7479 32be a30e 0d3e c110 33be
00000360: fa27 043e e5db eabd a2ed ee3a 5907 b23b
00000370: 978b 7d3d 2134 023e 4ec4 6a3d 74bc 31bd
00000380: 858a 153e 380e 13be 2ea0 ff3d 9eb1 b0bd
00000390: 1aec 00be b407 d4bc 000b c83d de61 10be
000003a0: 2d72 06be 5b0b e73c 236e 293e b6a2 363e
000003b0: 5b7d b63d 48c2 2ebe 6a2f c13d 6c96 b03c
000003c0: e7c6 6d3e 0817 313e 8e0b 99bd 2607 c33c
000003d0: 52a0 063e 39ff 1abd 1d60 f93d 938d 143e
000003e0: 8fb1 12be 6464 1e3e 7ed7 e4bd 72d7 3abe
000003f0: 0478 07be 496e 17be 4e63 2c3e a6cb 36be
0.008744465 -0.113248475 -0.09576364 0.04192757 0.13075776 -0.09693044 -0.0042326013 0.12381195
-0.044959307 0.043933365 -0.04275919 -0.016895674 -0.1440497 0.05258754 -0.14110972 -0.0329577
0.158818 0.031750053 0.15707366 0.03406668 0.053027745 -0.0025518138 0.15017344 0.21200432
0.0031600753 -0.05387914 -0.05960885 -0.072202 0.05126852 -0.055476125 0.06566192 0.089116886
-0.055608682 0.077524975 0.08129194 -0.04855569 0.00831694 0.18213378 -0.17555422 -0.00015875426
-0.007556735 -0.033552036 -0.06352476 0.16957155 -0.094732784 0.09092339 0.05574567 -0.18933198
0.023054201 -0.06821378 -0.036699574 0.037411083 -0.06913391 -0.022591064 0.046693366 0.01958263
0.023702813 0.0068740505 0.013469404 0.02893038 0.10063063 -0.15436168 0.03172149 -0.0031981003
0.058909126 -0.04640577 -0.19457741 -0.24315903 0.12522957 -0.08296188 -0.035405967 0.16277605
0.076448984 0.02241312 -0.047803875 0.112649515 -0.059699934 0.13097773 0.115868896 -0.005842691
-0.08361689 -0.012413832 0.08086884 -0.048831236 -0.11492403 0.07799275 0.03365384 -0.025733616
-0.05739718 -0.0068061296 -0.0566161 0.020557096 0.119564146 0.2608382 0.009805859 0.19746834
-0.0648842 0.06115475 -0.17141919 0.15553896 -0.08033274 0.23741932 0.003480039 -0.11479059
-0.0078124753 0.057844877 0.09310994 -0.012087566 -0.10185868 0.14799984 -0.1114946 0.10658229
-0.0740839 0.06194987 0.008694179 0.095741995 -0.13660698 -0.072709106 -0.13029756 -0.15229513
0.023528391 -0.049104456 -0.10745013 0.15318206 -0.17162602 -0.111734815 -0.103326835 0.16957295
-0.17902918 -0.024384568 -0.1418425 0.10395124 -0.10665898 0.06226834 0.036403652 -0.030893805
-0.11975402 0.10344861 -0.011913393 -0.008533274 0.12157232 -0.13671331 -0.13080221 0.077084
-0.013734488 -0.0025714624 -0.00598617 -0.001834153 0.008224199 -0.0073124575 0.010057039 -0.0019858747
-0.005711651 0.015771683 -0.0023435422 -0.008188755 -0.16122171 0.05704869 -0.01916598 -0.021157514
-0.0031011323 0.01922712 -0.30066538 0.2834497 0.1923566 -0.2901375 -0.0040045795 0.19800478
-0.030947829 -0.13845389 0.14686348 -0.0605912 -0.035624884 -0.0023891162 -0.047653448 -0.020346617
-0.014823569 0.10806736 0.026960207 -0.17805944 -0.07062732 -0.06464373 -0.04165117 0.07023539
0.09376239 -0.088325344 -0.14318176 0.13730916 -0.016892906 -0.22136866 -0.03577299 0.2525747
-0.013298838 -0.10670107 0.023530321 -0.09784341 -0.08647823 0.12295746 0.025826182 0.13492721
-0.04631553 0.14811073 -0.080421835 -0.07608024 0.17622367 0.16357048 0.0018578025 -0.15158814
-0.117010996 0.015414763 0.14939901 0.14186633 -0.09412282 -0.17429143 0.13775115 -0.1748686
0.12905875 -0.11467723 0.0018228779 0.005433005 0.0619007 0.12715198 0.057316117 -0.043392614
0.14603622 -0.14360893 0.12481724 -0.08627628 -0.12590066 -0.02588258 0.09767723 -0.14099833
-0.13129492 0.028203657 0.1654592 0.17835507 0.089106284 -0.170663 0.09432872 0.021556102
0.23220406 0.17293942 -0.07472907 0.02380712 0.13147095 -0.037841056 0.12176535 0.14507131
-0.14325546 0.15467983 -0.111739144 -0.18246248 -0.13229376 -0.14788164 0.16834757 -0.17851123

layers.0.bias f4 [200]
00000000: ab9e 343d 375c 72bd 8701 d1bd 577f 15be
00000010: 268e 01be 85b7 063e 6f5e f9ba 8257 40bd
00000020: de0a e2bd 3c31 98bd d71d 4abe 587b 143e
00000030: 33c5 033e 499f c73d 2b66 b53d d49d 19be
00000040: 40f3 193e 6efc 01be 7937 983c 1f39 c13d
00000050: 12d9 4a3e b27b c63d 20fa c7bd a5a2 2dbe
00000060: 6c9f ac3d 1df3 b2bd f2f2 1e3e 46fc 4c3d
00000070: 16c1 febd 8010 c73d 2edd 04be 311c 4e3e
00000080: d212 ba3d cb45 483e 7820 413d 18bb 48bd
00000090: 310d 38be 2359 28bd abc0 23be c3d2 60be
000000a0: eae4 26bb 9214 cebd 7bea 90bd b65f d1bc
000000b0: 5cda 0f3e e78a 503d 7cc0 0e3e 30eb 97bd
000000c0: 8b9e 94bd f006 4e3e 0601 4b3e 454b f5bc
000000d0: cac5 9abe 2e15 723e 3527 c03c 4883 883e
000000e0: 5beb 0f3e f035 8fbd 2f1a 4e3d f2c3 3b3e
000000f0: 251d 29bd db0d 12be 37a6 063e 2994 33be
00000100: 0d01 c53c e5ae db3d 1e4b 0f3e 3788 98bc
00000110: 07ff 1f3e 7908 163e 4277 b63d 47bc 6b3c
00000120: 225f a3bd e8f4 2ebd 65cc f6bd 7f31 1dbd
00000130: 7adb d43d db73 9c3c 779d 713e 1e2b 1bbe
00000140: ffa9 8c3d 4e69 7ebe e989 9ebd e2e3 fabc
00000150: 5374 58be c126 b3bd 4e77 30be d1d9 aa3d
00000160: c9b6 933d d23d c5bc 95a4 87be 1156 273d
00000170: 7809 f13d 5a12 03bd 16ec b4bd 446d 113c
00000180: b63b 2cbb 9459 40be 9e26 183e 0ec5 4b3d
00000190: 58f7 213e ee2e a6bd b781 8dbd 2cee 033e
000001a0: 1b88 d5bd b8fe edbb 5cdf 53bd 3987 9a3e
000001b0: 306b 1d3e 16a5 1dbe ddcd b43d 0b8b dbbd
000001c0: 441f 3bbe d6e2 133e bd76 bd3d 2516 563e
000001d0: b58e 483d 978a c1bd 59b8 a43e c2ae 6f3d
000001e0: 553e 84be d2a3 eb3d f77f e13d ac37 cc3c
000001f0: 0f43 64be c335 f83d 69fb 93be 41fd 45be
00000200: be71 71be 6082 9c3d 0965 92be 0d02 093e
00000210: 4e27 093e f850 b23d 19e3 4fbd 290b e63b
00000220: f1ea cb3d 53dc a9bd 45dd 973e a37d 863b
00000230: 8294 a03d 370f d4bd 265b 04bc 6c38 693d
00000240: 73fe 1dbd 0abd 8bbe 82f1 583e d1c3 a3bd
00000250: bfe4 4bbd b6a5 2e3e 373e 7fbd 2783 2a3e
00000260: 3c28 b83c 02df 15be cfd4 303e 38ed 62be
00000270: 6ff1 46be bde3 9dbc 6d9e a63d 154b 73bd
00000280: 3fd9 93bd e579 ab3d 357b 2bbe cc99 d4bc
00000290: 5d71 dbbc 41bd a4bc 2ed2 b43d 144c 193c
000002a0: 47f7 d53d fc38 a8b9 3fe3 eabc 3d9f 683e
000002b0: 4622 05be b706 0f3d c78e 86bd 1c7f c4bc
000002c0: 42ca 4ebe 34a7 e4bd 7b73 933d b276 c3bd
000002d0: ba5e 4cbd fac2 333e 912d 883d 389b 143d
000002e0: 147f b03a 2320 673e cc1d 033e 4127 81bd
000002f0: e4ea 513e 074e 6fbe ffa4 5dbd c611 cd3d
00000300: 7885 f63d 5c8e ddbc 3aef adbd b467 373d
00000310: b539 01be ce30 f13c 4f23 b03d cc4f 0b3e
0.04409663 -0.059169974 -0.102053694 -0.14599358 -0.12651882 0.13155945 -0.0019025336 -0.046958454
-0.11037229 -0.07431266 -0.19737945 0.14500177 0.12868194 0.09747178 0.088573776 -0.15001613
0.15034199 -0.1269395 0.018581139 0.09434723 0.19809368 0.09691562 -0.097645044 -0.16956575
0.08428845 -0.087377764 0.15522364 0.050045274 -0.12439172 0.09719944 -0.12974998 0.20127942
0.09085621 0.19557874 0.047150105 -0.04900655 -0.17973782 -0.041100632 -0.15991466 -0.21955399
-0.0025466033 -0.10062517 -0.070759736 -0.025558334 0.14048141 0.050913718 0.13940614 -0.07417905
-0.07256802 0.20119834 0.19824609 -0.029943118 -0.30229026 0.23640892 0.023456195 0.2666266
0.14054625 -0.0699271 0.05031794 0.18336466 -0.04128756 -0.14263098 0.13149343 -0.17536987
0.024048353 0.10726718 0.13993499 -0.01861964 0.15624629 0.1465167 0.089094654 0.014388151
-0.079771295 -0.04271403 -0.12050704 -0.03837728 0.10393424 0.019098213 0.23595224 -0.15153167
0.06868362 -0.24844858 -0.07741148 -0.030626241 -0.21138124 -0.08747626 -0.17233011 0.083423264
0.07212598 -0.02407733 -0.26492754 0.040853564 0.11769384 -0.031999923 -0.08834092 0.008876149
-0.0026280708 -0.18784171 0.14858481 0.049748473 0.1581701 -0.0811442 -0.06909507 0.12883824
-0.10426351 -0.007263031 -0.051726684 0.30181292 0.1537292 -0.15395007 0.08828328 -0.1071988
-0.18273646 0.14442 0.09251163 0.20906885 0.04896422 -0.09450262 0.32171896 0.05851627
-0.25828806 0.115058556 0.110107355 0.02492889 -0.22291206 0.12119629 -0.28902748 -0.1933489
-0.23578545 0.076420546 -0.2859271 0.13379689 0.133939 0.0870685 -0.050753687 0.0070203734
0.09956921 -0.08293977 0.29661003 0.0041043325 0.078408256 -0.103544645 -0.008078372 0.056938574
-0.03857274 -0.27292663 0.21185878 -0.079963334 -0.049778696 0.17055401 -0.062315192 0.16651593
0.022480123 -0.14635852 0.1726868 -0.22160804 -0.19428037 -0.019273633 0.08135686 -0.059397776
-0.07219171 0.08372859 -0.16746219 -0.025952242 -0.026787454 -0.020109775 0.08829151 0.009356517
0.10447555 -0.00032085914 -0.028672813 0.22716995 -0.13001356 0.034918513 -0.06570201 -0.023986392
-0.20194343 -0.11164704 0.071997605 -0.09544124 -0.049895026 0.17554846 0.06649316 0.03628084
0.0013465607 0.22570853 0.12804335 -0.06306315 0.2049976 -0.23369609 -0.05411243 0.10013156
0.12037176 -0.027045421 -0.084928945 0.044776633 -0.1261967 0.029442217 0.086004846 0.13604659

layers.2.weight f4 [200]
00000000: b4ed 803f cc9a 7a3f 362a 883f 15cb 813f
00000010: ca3e 833f f22a 793f c2e0 823f 2bb0 6c3f
00000020: ad9b 813f 800a 813f 5fa8 733f 3f14 7f3f
00000030: 9bd9 833f 3876 803f 847b 7a3f c3ef 803f
00000040: 1712 7d3f c53d 723f b4b2 803f 92b4 733f
00000050: 2ebb 803f 9b4b 803f 5005 7f3f 40cb 823f
00000060: a1dd 823f 953c 7a3f ae4c 813f 3a45 753f
00000070: bb2f 743f 463c 863f 43e0 753f 1a83 7c3f
00000080: 1090 833f 66b6 803f 8456 823f fa52 7c3f
00000090: c7af 793f 3f6a 813f 44af 883f 8946 873f
000000a0: dc89 893f 468d 773f 5550 803f 7ed0 803f
000000b0: f196 823f c27f 823f fde5 7c3f 67a1 833f
000000c0: 89dd 823f 83de 823f 4d51 7e3f 78aa 803f
000000d0: 084d 853f 872d 7d3f c91c 773f 9cf7 843f
000000e0: 3b2b 773f 21d2 803f 891c 833f 628c 8a3f
000000f0: cfe6 803f 0031 803f 1825 843f 1c91 793f
00000100: f180 813f 6a7a 7b3f f056 803f 50c2 813f
00000110: 337c 763f 0b0f 7b3f d6b5 733f 23bc 7f3f
00000120: 8330 803f 916a 883f 156f 7c3f e357 743f
00000130: 4ed7 803f 2538 753f 9b31 823f 90f7 773f
00000140: e5d9 7a3f 2928 783f 01e1 7f3f c618 7f3f
00000150: 8172 763f e972 7f3f d1b8 823f a84d 7b3f
00000160: e082 723f 68f5 793f aac4 703f fcae 803f
00000170: 1324 833f b225 763f e1b2 813f fc28 733f
00000180: 6caf 883f 0691 7b3f 2ec7 823f d14f 7c3f
00000190: ea11 6e3f 1d94 813f fbcf 7f3f 4888 723f
000001a0: 8cf2 7e3f abb8 793f ccb2 803f 17ef 723f
000001b0: 8ee2 7b3f f44d 7a3f 6523 793f f37a 7c3f
000001c0: 0933 7f3f 6ddd 6d3f 8a24 853f 4a6b 7d3f
000001d0: fe5b 803f 8776 783f 03e4 7b3f 4b81 813f
000001e0: 4fd2 813f 21de 783f a259 793f 99b2 783f
000001f0: 2f5d 7d3f 30c3 7e3f c67a 813f 959a 723f
00000200: 40a5 773f 67c3 783f 7469 803f cbf3 7c3f
00000210: c2fc 7c3f 2404 843f 97b7 783f f417 823f
00000220: 5bad 863f bcbe 733f 2255 7b3f a12f 703f
00000230: 2e97 7f3f eabf 823f eb12 783f 11f2 7b3f
00000240: 7b1f 883f f053 903f bc72 7e3f 39ea 803f
00000250: d4b4 7b3f cd3e 773f 4990 833f d0b5 833f
00000260: 7461 7a3f 708a 7f3f 76eb 803f 65bf 873f
00000270: 0a0b 7c3f 42be 883f 8e74 763f 52e0 6d3f
00000280: 8e80 753f aa4a 803f d0f9 7f3f eda7 7a3f
00000290: e0e0 7b3f eada 723f ac9c 803f 9d26 733f
000002a0: bb1c 803f 3b9a 853f b86a 7e3f 5c4b 803f
000002b0: a69f 6e3f afc9 823f 9483 783f 6cb2 773f
000002c0: 9291 803f c6b1 893f caaf 823f 4b65 7a3f
000002d0: 5661 743f 6ea3 843f bd13 853f c594 813f
000002e0: 897a 743f 5c55 833f 38d3 773f c850 833f
000002f0: 8cfa 7b3f fcca 823f fb1f 753f 63cd 7a3f
00000300: 1e58 823f e792 783f f509 813f 6a8b 803f
00000310: bde7 7e3f e3a5 783f a6ea 763f b5f1 773f
1.0072541 0.9789245 1.0637882 1.0140101 1.0253537 0.97331154 1.0224841 0.9245631
1.0125633 1.0081329 0.9517879 0.9964027 1.0300783 1.0036077 0.9784472 1.007317
0.9885573 0.946255 1.0054536 0.95197403 1.0057123 1.0023073 0.9961748 1.0218277
1.0223886 0.9774869 1.0101526 0.95808756 0.9538533 1.0487144 0.9604532 0.98637545
1.0278339 1.0055664 1.0182652 0.9856411 0.9753384 1.0110549 1.0678487 1.0568401
1.0745196 0.9669994 1.0024515 1.0063627 1.0202314 1.0195239 0.98788434 1.0283631
1.0223857 1.0224155 0.99342805 1.0052023 1.0414133 0.98897594 0.965283 1.0388064
0.9655034 1.0064126 1.0243083 1.0824091 1.0070437 1.0014954 1.032382 0.97487044
1.0117475 0.98233664 1.0026531 1.0137424 0.9628326 0.9806983 0.95199335 0.9989645
1.0014805 1.0657521 0.98607 0.95446604 1.0065706 0.95788795 1.0171388 0.96862125
0.9798873 0.9693628 0.99952704 0.99647176 0.9626847 0.99784714 1.0212651 0.9816537
0.9473095 0.97640085 0.94050086 1.0053401 1.0245384 0.9615127 1.0132715 0.9498441
1.0678535 0.98268163 1.0217035 0.9855929 0.92996085 1.0123326 0.9992673 0.947392
0.9958885 0.97547406 1.0054564 0.9489607 0.9839257 0.977752 0.9731963 0.98625106
0.9968725 0.92915994 1.0401776 0.98991835 1.0028074 0.9705586 0.98394793 1.0117582
1.0142306 0.9721394 0.97402394 0.9714752 0.9897031 0.9951658 1.0115592 0.94767123
0.96736526 0.9717316 1.0032182 0.988095 0.9882318 1.0313764 0.97155136 1.016356
1.0521654 0.9521291 0.9817678 0.93822676 0.99840057 1.0214818 0.96903867 0.9841624
1.0634607 1.1275616 0.9939382 1.0071479 0.98322797 0.965802 1.0278407 1.028986
0.9780495 0.99820614 1.0071857 1.0605284 0.98454344 1.0683062 0.962716 0.9292041
0.95899284 1.0022786 0.9999056 0.97912484 0.98390007 0.94865286 1.0047812 0.94980794
1.0008768 1.0437692 0.9938159 1.0022998 0.93212354 1.0217799 0.9707577 0.96756625
1.0044425 1.0757377 1.0209897 0.9781081 0.9546102 1.0362375 1.0396649 1.0123526
0.95499474 1.0260425 0.9680667 1.0259027 0.9842918 1.0218196 0.95751923 0.97969645
1.0183141 0.97099155 1.0081164 1.0042546 0.99572355 0.97128123 0.96451795 0.9685319

layers.2.bias f4 [200]
00000000: a002 f3bc 0cb4 673c 4620 eabc af2a acbb
00000010: de44 9f3c 78d4 0bbd b722 083e 7f34 23bd
00000020: 3525 113c e808 ddbc 2c12 9cbd 3d53 8c3a
00000030: 8672 f13d 8c68 eb3c 9e02 6abd 9665 02bd
00000040: 6556 513c ecf5 50bc 02b6 ab3c 60af 2dbd
00000050: a994 24bc 03f5 d9bc 1d0b debb d054 b33c
00000060: fca7 363d 1288 0abd b52e b7bd b4ef 2b3d
00000070: 9d0a 3b3c 8836 b13c 3a9f 9f3d 9083 48bd
00000080: c6da 993d d041 893c ee09 f8bc f01b 07bd
00000090: cdab 2bbd 31f0 57bd 407c c73d f32a 44bd
000000a0: 6af0 0dbd ab08 2fbd acfa 2c3d e339 65bc
000000b0: 1660 bf3c ee2d 173e af48 093d 7f12 483d
000000c0: cfe2 153e 51da f7ba 0cca 1cbd 4811 1fbd
000000d0: f641 043c 42ef 89bb 6532 1bbd 25c8 4e3c
000000e0: 188b 37bd 6f26 5abd b802 a239 2524 2f3e
000000f0: 097a 183d 7ee7 50bc 8d5d 2f3b 0936 abbc
00000100: bc91 c63d 33e2 14bd b078 fa3c 3a15 2c3d
00000110: fbdb 673c cc04 d13c 9ed3 a03d 12d5 a73c
00000120: 65ca 103d 5044 3cbd 385b 11bc 5b2b 34bc
00000130: ffe3 333d 2cad 033d 10a7 86bc 6e6a 93bd
00000140: a45b aabc e4b5 31bc 8475 0e3e fd21 b6bd
00000150: 1aca 3bbd e7e6 4e3c a5cd 9fbd c6d6 fe3b
00000160: 9cbb c9bc 17a7 a43d 9143 72bd ab44 0f3e
00000170: 0c6e c73c fcb1 a9bc 914a 40bd 0f28 183d
00000180: 3b2b 1ebc bb58 69bd 5bc4 183d ec8b 253d
00000190: 676b bfbc f9e2 343d 9e8e f43c 075f 84bc
000001a0: b04a 7e3d 1524 e3bc 4b72 5ebd e2f1 e2bc
000001b0: b81c cbbc 7718 3cbb d2ad f03c 205a 8b3b
000001c0: 4782 783d 546c 2cbb 5458 8a3d 1c47 3c3c
000001d0: c637 8fbd 82a0 823c 1300 8cba 1151 b43c
000001e0: 8ef9 84bc cacc 9439 5063 003d 60a1 a33a
000001f0: 7196 7cbd ede2 febc 55ec ad3c 8e61 babd
00000200: e41e 25bc 0cdd b73c b04d 93b8 167f 5abc
00000210: 18bc 8c3d 1b01 083d d5cd 143d 3a9b da3d
00000220: 12d1 883d ec80 43bd 70be 083d f48f 79bd
00000230: 30e8 333d 6bbf 803d c44f 09bd ad0a 58bd
00000240: 6e88 1ebd ba6a 9f3c e859 d93d aff1 08bd
00000250: 1bbc b4bc e024 643c 2fbc 24bd 8c1e 3d3d
00000260: d8d6 83bd e189 40bc a532 25bd dc5b a0bd
00000270: 64b3 513d 6734 3c3d e28b 50bd 6726 53bd
00000280: 7817 19bd e8d4 82bd 87f5 7fbd 4727 283a
00000290: 6db6 043e b545 c1bd d243 0d3e 19fa bb3c
000002a0: 08e8 563c ed30 593d 1b10 8fbd f5e6 e03b
000002b0: 9e4a 90bd 5d4d 8c3c 5c99 d33c bbc3 563c
000002c0: eb85 273c 795d 133d 2137 aa3d 0f62 2cbd
000002d0: a1a4 203d 4233 183e ae34 2d3e 9403 d7bc
000002e0: f2eb 75bb c3db fe3c b97e e03c 897c b5bb
000002f0: a355 573d c6c6 fabb 666c 3b3d 3491 89bb
00000300: ff21 373d 0883 8ebb 1f33 f1bc 42f3 f2bc
00000310: 084f ae3c 33f7 253b 08a0 dd3b 27fa 34bc
-0.029664338 0.014142048 -0.028579842 -0.0052541117 0.019442018 -0.034138173 0.13294493 -0.039844986
0.0088589685 -0.026981786 -0.076206535 0.0010705959 0.11789422 0.028736375 -0.057131402 -0.03183516
0.012776946 -0.012753945 0.020960812 -0.04240358 -0.010045209 -0.026606089 -0.006776227 0.021891028
0.044593796 -0.033821173 -0.089444555 0.041976646 0.011416105 0.021632448 0.07794042 -0.048953593
0.07512431 0.016755015 -0.030278172 -0.032985628 -0.04191189 -0.0527193 0.09740496 -0.047892522
-0.034653105 -0.042732876 0.042231247 -0.013990852 0.023361247 0.14763615 0.033516582 0.048845764
0.14637302 -0.0018909668 -0.038278624 -0.03883484 0.008072367 -0.00420943 -0.037889857 0.01262096
-0.044810385 -0.05325931 0.00030901073 0.17103632 0.037225757 -0.012750505 0.0026758641 -0.02089979
0.096957654 -0.036348533 0.030575126 0.04201243 0.0141515685 0.025514983 0.07852863 0.020487342
0.03534927 -0.045963585 -0.008871846 -0.010996665 0.043918606 0.03214757 -0.016437083 -0.07198034
-0.02079565 -0.010846589 0.13912016 -0.088932015 -0.045847036 0.012628294 -0.078028955 0.007777068
-0.024625592 0.08039682 -0.059146468 0.13991039 0.024344467 -0.020714752 -0.046946112 0.037147578
-0.009653862 -0.056969386 0.037296634 0.040416643 -0.023366643 0.04416177 0.029853161 -0.016158594
0.062082946 -0.027727166 -0.054308217 -0.02770323 -0.024793968 -0.0028701106 0.029379759 0.004252687
0.060671117 -0.0026309686 0.067551285 0.011491563 -0.0699306 0.015945677 -0.0010681174 0.022011312
-0.016232278 0.0002838134 0.03134471 0.0012484007 -0.06166691 -0.031114066 0.021230856 -0.09100638
-0.010078166 0.02244427 -7.023977e-05 -0.013335964 0.068718135 0.03320418 0.03632911 0.10674138
0.06680502 -0.04773037 0.03338474 -0.0609283 0.043922603 0.0628651 -0.033523336 -0.052744556
-0.03870433 0.01946007 0.106128514 -0.033433612 -0.022062352 0.013924807 -0.04021853 0.04617171
-0.064374626 -0.011751623 -0.0403315 -0.07830021 0.05119647 0.045948412 -0.050914653 -0.051550295
-0.037375897 -0.06388265 -0.062490012 0.0006414544 0.12960215 -0.09437124 0.13795403 0.022946404
0.013116844 0.053025175 -0.06985494 0.0068634697 -0.07045482 0.017126733 0.025829963 0.013108189
0.0102248 0.035977814 0.08311296 -0.042085703 0.039219502 0.14863303 0.16914627 -0.026246823
-0.0037524668 0.03111065 0.027404176 -0.0055385274 0.052571904 -0.00765309 0.045757674 -0.0041982178
0.044710156 -0.0043491162 -0.029443322 -0.02965701 0.02127792 0.0025324344 0.006763462 -0.011045969

layers.2.running_mean f4 [200]
00000000: 1cee 723e bb52 8e3e a32e cf3d 284d 323e
00000010: 847b 2d3e 028c ca3e c67c 1c3e e8f1 243e
00000020: 92a1 c23e 7c28 533e 8658 523e ba07 a13e
00000030: 8052 253e 71fb 793e c737 a33e fa79 063e
00000040: 4f77 363e c3e6 0f3e 88ac 2c3e 73d5 623e
00000050: 3a05 de3e 0766 4b3e 4966 013e dd06 e43c
00000060: 677e 5f3e 8f4b b83d 060d d43e 507d cf3e
00000070: f6df 1c3e 1058 7a3e 0df5 b13e 6065 a03e
00000080: 2339 2c3e d1fd b43e a7e5 4f3e f654 103e
00000090: 1564 d23d 4cd3 183e 91d4 233d 2de3 d13c
000000a0: 7b90 3a3e bfc3 9a3d 5b75 ca3d 42a6 293e
000000b0: 72a6 ae3e 8a2a 193e 86b1 673e f1fb ca3d
000000c0: c6be df3d 0fb4 963e 494a 8e3e 0188 4b3e
000000d0: fa3b 163d fb9e a03e dbda 823e 0ac1 073f
000000e0: 8f7e 743e a8fc ec3d 2aa1 4c3e ed29 393e
000000f0: 7140 4c3e f63f 033e 1d3f a63e b295 363e
00000100: 7cb1 0f3e 4fc9 4a3e 6409 bc3e 8e22 503e
00000110: e9e5 fc3e 6672 b53e 6e1d 083e c42f 9d3e
00000120: 1a21 883e 024a ed3d 7cbb 243e fa8c 353e
00000130: 6bb1 b43e 2a6d 483e 98ba 813e d41a 573e
00000140: f985 943e a23e 4d3c 7888 3f3e 9b98 513e
00000150: 84a7 9f3d 0807 e73d f11e fc3d db13 453e
00000160: 0754 6d3e 1023 963e 6af3 523e ccf5 093e
00000170: 8e45 8f3e 5ed0 333e 4f4d 503e 8bf3 853e
00000180: bc16 283e d066 a33d 12e2 843e cf18 713e
00000190: 6100 b53e 313f 0a3e bd38 723e 9d70 8d3e
000001a0: 1a0d 2b3e 13f7 f73d 0e9f 293e dc1b 003f
000001b0: 8891 643e 0f16 0c3e 7e57 9d3e 2046 c73d
000001c0: 7d93 013e 8603 8d3e 6b47 953e b910 bc3e
000001d0: ee10 c23e 01a5 833e d562 183f d039 4c3e
000001e0: eeb8 903d 2e6f 6d3e f3f0 c93e 3e1a b83e
000001f0: bf20 223e 87a9 883e 5628 803d 4f44 a63d
00000200: d13e 0a3e 5360 c23e bb3c 153e 76c7 b63e
00000210: 5cdb be3e 402e ad3e e28a 9b3e 068c 133e
00000220: 4e64 0e3e 242d 4b3e 0b67 b33e e220 833e
00000230: 57c4 c23e fea0 c03d 4eb1 533e 4182 5f3e
00000240: 3641 2a3e f707 703c d500 c23e ed7a 183e
00000250: 6981 003e e5f5 cd3e dcdf a23d 736c 5a3e
00000260: c8ae 863e a775 513e ba2f ac3e 5b7e c93c
00000270: f52e 7b3e 82be db3d c354 9e3e f66f 123e
00000280: 21ae 623e dd60 6b3e 58ec a33d d08f 1b3e
00000290: 5960 1c3e e2d6 453e 8075 413e 6e5c 533e
000002a0: 12c3 9b3e bed1 f83d 37c3 233e 596a ba3e
000002b0: 1a18 0a3e ee47 2f3e 133a a63e c438 7c3e
000002c0: fc19 de3d e006 853d 52d9 a93e d1a9 133e
000002d0: ffa2 6b3e 8c88 2c3e 91bd 133e ea03 ed3d
000002e0: 262a c33e 446b e33e 43a9 903e df30 8a3e
000002f0: cbac e83e 07d7 e63c 7207 4c3e 8f4f 833e
00000300: 2df2 623e df85 af3e 1a03 083e 24bc 1a3e
00000310: da41 ac3d 6e29 ee3d 0857 993e ea30 603e
0.23723644 0.27797493 0.10116317 0.17412245 0.16941649 0.39559942 0.15281972 0.16107905
0.38013893 0.20620912 0.20541582 0.31451207 0.16144753 0.24412324 0.31878492 0.13132468
0.1781895 0.14052872 0.1686269 0.22151737 0.43363363 0.19863139 0.12636675 0.027835304
0.21825562 0.08998787 0.41416186 0.40525293 0.1531981 0.24447656 0.3475727 0.31327343
0.16818671 0.35349897 0.20302449 0.1409491 0.102729954 0.14924353 0.03999764 0.025621021
0.18219177 0.07556867 0.09885665 0.16567329 0.34111363 0.14957634 0.22626314 0.09911335
0.10925059 0.2943425 0.2779105 0.198761 0.03667829 0.31371292 0.25557598 0.5302893
0.23876403 0.11571628 0.19983354 0.180824 0.19946457 0.12817368 0.32470027 0.17830542
0.14032549 0.19803356 0.36725914 0.20325682 0.49394158 0.35438842 0.13292477 0.30700505
0.26587754 0.115863815 0.16087145 0.1772956 0.3529161 0.19572893 0.25337672 0.21006328
0.29008463 0.01252714 0.18704402 0.2046837 0.07795623 0.11280638 0.12310589 0.19245856
0.23176585 0.29323626 0.20600668 0.1347267 0.27982754 0.17559955 0.20341991 0.2616237
0.16414922 0.07978594 0.25953728 0.2354462 0.35351852 0.13500668 0.23654456 0.2762498
0.16704217 0.121076725 0.16564581 0.5004251 0.22321141 0.1368029 0.30730814 0.09730172
0.12653919 0.2754175 0.2915605 0.36731508 0.3790354 0.25711825 0.59525806 0.19943929
0.070665225 0.23186943 0.39441642 0.3595752 0.15832804 0.2669184 0.062576935 0.081184976
0.13500525 0.37964115 0.14573948 0.35699052 0.37276733 0.33824348 0.30379397 0.14408883
0.1390545 0.19841439 0.35039553 0.25611025 0.3804042 0.09405707 0.20673105 0.21827032
0.16626438 0.0146503365 0.3789126 0.14890642 0.12549366 0.40226665 0.07952854 0.21330433
0.26305223 0.20455037 0.33630162 0.024596384 0.24529631 0.10729696 0.30924043 0.14300522
0.22136737 0.22986169 0.08004063 0.15191579 0.15271129 0.19320253 0.18892479 0.20640728
0.30422264 0.1214938 0.15992437 0.36409262 0.13485757 0.17117283 0.32466182 0.2463103
0.108448 0.06495452 0.33173615 0.14420249 0.23011397 0.16848963 0.14427783 0.11573012
0.38118094 0.44417775 0.28254136 0.2699041 0.4544433 0.028178705 0.19924715 0.25646636
0.22162695 0.34281823 0.13282433 0.15110832 0.08410998 0.11628996 0.29949212 0.21893659

layers.2.running_var f4 [200]
00000000: 0f6f 1a3e 567f ab3d b8c4 7e3d 56f6 e03d
00000010: 90a5 9f3d b41b 323e aabc 0f3e eb4a c93d
00000020: b436 1e3e 80c9 d33d 862c 123e 7262 0f3e
00000030: 4211 cb3d b931 e33d a4e3 123e 9426 723d
00000040: 02f3 ca3d 3334 c83d 84da 9a3d c825 0f3e
00000050: 1c3f 433e b258 bc3d 21d3 903d 9e50 813c
00000060: 0701 ec3d 5443 903d 6ec0 883e da1d 833e
00000070: cc43 6f3d a0aa c23d 0eab 4a3e d906 1e3e
00000080: 5354 163e 15c7 c43d 7825 e03d 3dbd 9c3d
00000090: a1a2 6b3d 983d 883d 70a0 d93c 0310 593c
000000a0: b30b c33d c99c 823d d783 d23d f77a b03d
000000b0: 880c 043e 5be1 c83d 2b06 163e 62cf 463d
000000c0: 1eb1 a63d 10ec e23d d56b ca3d b7bb c23d
000000d0: c1c5 c73c 55ab 3a3e ca1f 113e 3b30 213e
000000e0: 26e9 cf3d b705 a43d 5d26 893d d0aa 013e
000000f0: 0639 883d bc32 6d3d cd7c cc3d 6e28 f83d
00000100: b6c9 ea3d 2380 033e 46ab 0d3e 48d2 cf3d
00000110: 29c5 4b3e d9aa c83d 52d2 6d3d 780f 453e
00000120: 0379 903d e6de 963d c9a6 d83d 9bfb de3d
00000130: c489 f23d ada7 a23d 9270 123e 27c3 e33d
00000140: b11b 653e 326a d83b eb31 9c3d e15e f13d
00000150: ab8b f83c 2d14 c33d 1a04 9b3d ab24 c13d
00000160: 5d25 323e d3e7 243e 21c0 113e 794c 923d
00000170: 10e8 023e e7af 9e3d 4f4a 313e 77d3 b23d
00000180: c5c4 bc3d cdc0 313d f47d 313d 31a6 b43d
00000190: ab69 2a3e 60c1 d93d c8aa c23d 256b 233e
000001a0: 4b52 983d 9840 a33d 363b 783d d83f 373e
000001b0: dab5 da3d e238 a53d bead 0a3e d7fe 6d3d
000001c0: c2c5 fc3d d20c c73d d732 003e a24e c93d
000001d0: dd3e 633e 5d1f 2b3e 2822 013e 0744 b43d
000001e0: 55c4 453d 6258 103d c42a 733e dad9 4f3e
000001f0: 164a 073e dfdc 203e ac5d 1e3d 60b5 8c3d
00000200: e867 d83d e275 f13d 65f3 c43d cdd8 1f3e
00000210: fc55 653e ba66 e13d 08df d03d ec4b b33d
00000220: cc22 9f3d f508 b63d 60f5 c03d be72 ed3d
00000230: b092 213e dfa3 3d3d 941a bc3d db62 143e
00000240: 82b4 ad3d 1abd 8c3b b03f 403e 3b90 b63d
00000250: 1a05 a63d 09bb 0c3e 047c 1e3d bf3a 183e
00000260: 4d7d f03d c75b 0a3e 9776 3a3e 4699 4b3c
00000270: 979f e93d 0546 0d3d dbdc fc3d 3866 e93d
00000280: a8f6 003e 2086 f53d 43eb 323d a15f ef3d
00000290: bded 043e 472d e43d 08fc 233e 1e20 b13d
000002a0: 2f4a 183e 1839 713d e2c3 ea3d 945b 0f3e
000002b0: dfa9 8e3d 427b d73c 8258 2f3e 13da bd3d
000002c0: 3766 a23d 77d3 333d c8ca 243e 5e90 ed3d
000002d0: c752 c33d d560 f03d 57f0 d83d 012d 6d3d
000002e0: 08d2 3c3e 0747 e53d 9378 033e ad11 de3d
000002f0: 0866 293e 59a1 843c 8593 ed3d 97f0 873e
00000300: a7e8 ab3d a73b 583e 63aa ba3d b2a5 c63d
00000310: 4e54 7b3d 1570 bd3d ffc6 443e 27f1 013e
0.15081428 0.08373897 0.062199324 0.10984485 0.077952504 0.1739338 0.14036813 0.098287426
0.15450555 0.103411674 0.14274797 0.14002398 0.09915401 0.11093468 0.1434465 0.059118822
0.09909631 0.09775581 0.0756121 0.13979256 0.19067043 0.09196605 0.0707152 0.015785512
0.115236335 0.07044092 0.26709312 0.25608712 0.058414266 0.095052004 0.19791815 0.154323
0.14680605 0.096082844 0.109446466 0.07653282 0.057528142 0.06652373 0.02656576 0.013248446
0.09523716 0.06377561 0.10279053 0.08617204 0.12895405 0.09808608 0.1465079 0.04853762
0.08139251 0.110801816 0.098838486 0.0950846 0.024386289 0.1822942 0.14172283 0.15741055
0.101518914 0.080089025 0.0669677 0.12662816 0.06651501 0.057909712 0.09984741 0.12117086
0.114642546 0.12841849 0.13834867 0.1014753 0.1989943 0.097982116 0.058061905 0.19244182
0.07054331 0.07366733 0.10578687 0.10887834 0.11842683 0.07942138 0.14300755 0.11121207
0.22373845 0.0066044563 0.076267086 0.11785675 0.030340036 0.095253326 0.07569142 0.09430822
0.17397065 0.16104059 0.14233448 0.07143492 0.12783837 0.077483945 0.17313503 0.0873174
0.09217218 0.04339676 0.04333301 0.08820761 0.16641872 0.106325865 0.0950523 0.15958841
0.07437571 0.07971305 0.060603343 0.17895448 0.10679217 0.0806749 0.1354284 0.058104362
0.12342407 0.09719242 0.12519394 0.09829451 0.22191949 0.16711183 0.12610686 0.08802038
0.04828294 0.03524054 0.23746783 0.20297948 0.13211855 0.15709256 0.03866355 0.06870532
0.105666935 0.117900625 0.09616736 0.15610047 0.22396082 0.11005922 0.1019879 0.08754715
0.07770309 0.08888427 0.094218016 0.11594151 0.15778613 0.046298858 0.09184757 0.14490835
0.08481695 0.0042950036 0.18774295 0.089142285 0.08106442 0.13743223 0.03869249 0.1486616
0.11742649 0.13511573 0.18209301 0.01242668 0.114073925 0.034490604 0.12346812 0.1139645
0.12594092 0.11988473 0.043681394 0.11688162 0.12981315 0.111414485 0.16014111 0.08648704
0.14872049 0.05889234 0.11463143 0.13999778 0.06965994 0.026303891 0.17123607 0.0927011
0.07929652 0.04390284 0.1609298 0.115998015 0.09537273 0.11737219 0.10592716 0.057904247
0.18439496 0.11195188 0.12838964 0.10843215 0.16542828 0.016190218 0.11600403 0.26550743
0.08393984 0.21116506 0.0911453 0.096995726 0.061359696 0.092498936 0.19216536 0.12689649

layers.4.weight f4 [100, 200]
00000000: aaba 033d b5bd dabc c93c d23d f325 12bd
00000010: 3a99 823d aed3 e7bc 0fb6 b53c f401 2bbc
00000020: 1ca8 4fbd 4c05 9f3a daad 3f3c ce7a 99bd
00000030: 9bdd ffbc ba90 0c3d d12d a43d e65d 9abd
00000040: 4043 95bd 3276 b73c 1c25 893c 580e 013d
00000050: f76b 22bd d2c7 673d 043b e6bc 43a6 5bbd
00000060: edb0 2b3b c577 7cbd 39fd c0bc 5784 963c
00000070: a99e f4bc f5fa 5aba 1b8a 353d d29c a8bd
00000080: f97c 63bb 315d 573d fbd5 06bd 04ba 26bd
00000090: 71e3 7abd d8dd 3d3d 31b6 ee3b 83df bbbd
000000a0: 5f4f f0ba cc1f 183c f64e 6fbd 2cb0 113d
000000b0: 0c2b 4abd c2b8 05bd 7e04 683d b67d 5fbd
000000c0: a32d 33bb d6e5 27bd b500 43bd bf48 3c3d
000000d0: 66ba bdbc 811f 023d cc2f 8cbd 4593 2fbc
000000e0: 4616 b83c d4cf 02bd 8b70 893b d26a 39bd
000000f0: 4111 243c 3c7f 9bbd b580 b9bd 1b92 473d
00000100: d208 97ba 4c5b a83b 4626 17bd 50e9 06be
00000110: d594 c43d 006e deb5 594b 5fbd be84 203d
00000120: b328 f1bb 8cf4 063d 7465 62bc 24a3 78bd
00000130: 0ed6 6b3d 116f 3b3b 9aec 923d 3b0a 303d
00000140: 89d5 be3c 1055 a9bd 431c 0c3d a52a 3d3c
00000150: c8b9 5dbd 637c 99bd e159 4a3c 3acb 98bc
00000160: 75c4 503c 190a ddbc ec62 3d3d 4c46 24bd
00000170: 5dcf c63a 88e5 5a3c d7ff 28bc b9c3 793d
00000180: 52e8 c53b e357 01bd 04b6 8a3d edfb 2b3c
00000190: 4886 223d 0285 32bc 968f 813d 0250 c7bd
000001a0: 9533 d5bd 9096 203d 5123 47bd 797c 3abd
000001b0: f930 c43c 8e49 933c b32c 843d 878b 65bd
000001c0: badf 85bd bb8e 18bd 2ae4 90bd 78ee 37bc
000001d0: dec5 1cbd e60e 00bd c241 26bd 60c5 8d3d
000001e0: 92a1 98bd 9669 88bd e8a9 9ab9 5ed3 39bd
000001f0: 7a72 5e3d 343e 1bbd 53f8 c23d 81ed 9e3c
00000200: 271e 45bd 3384 b4bc 3395 ebbd 9e30 53bb
00000210: 9816 093c 096d 1f3d 1fdb 98bc b573 19bc
00000220: b866 95bd d9cb 34bd fcd6 3cbb 558a 5a3d
00000230: 34f9 2ebd f2fd 04bd 1798 89bb 6535 f83c
00000240: 3dcd c83d 838a 71bc c972 c1bc 7b77 4f3b
00000250: f1a2 783d c0a2 0c3d 36a2 1d3d 7c6a a7bd
00000260: a55b df3a dffe 853c c0ec f63c d992 15bd
00000270: cba3 f4bc c5c2 b33d 3e91 5e3c b542 79bd
00000280: 09be 183d d275 93bc fc1c 1cbc 5c6c 36bd
00000290: bcb3 923a 9cdd d63c 53ac 5fbd e8d6 9abc
000002a0: 79d6 87bc cfce 183d 132f 03bd 7e08 fc3b
000002b0: 75aa 083d aa7b cebd e64d 2dbc da94 c8bd
000002c0: db81 c7bd 8366 2ebc a452 513d d3be 75bc
000002d0: fed9 843d 93e6 06bd 589e 32bd 6d09 e53c
000002e0: 8d24 4a3c e432 92bb eb32 57bd 7d8e 1d3d
000002f0: 98a6 1b3d 8393 f2bc 2cda 0d3d bab0 f33c
00000300: d8b5 a6bb cf46 f7bc ef0f 563d 5d09 12bd
00000310: eb15 e3bb 3e86 a53a a299 ea3c 80c2 40bd
00000320: 92a8 f33c 4af2 0c3d 496a 77bd d70d be3d
00000330: f341 8fbb f4bb 0c3d 8b72 653d c6db 693c
00000340: 8e58 edbc 6a3e e53c 3782 313c 251d f1bd
00000350: 4843 82bb 4b76 5e3d fb03 0d3d f29f 8a3d
00000360: 61f8 1c3d 37ac 773d e31f 10bc e4ce 053d
00000370: be26 dd3c e287 503d 6732 87bd e86e 7c3c
00000380: 1d9f d8ba f91d a03d 63ba 2fbd 211c 4d3d
00000390: 9411 79bd 8809 ce3d 3e6e 1e3d d7d4 073d
000003a0: 9a8b 22bd ba5e adbd 7e92 703d 16d4 b9bd
000003b0: bf9d 2f3d 897a ec3d 9b71 433d b6b1 983c
000003c0: 45ed 8a3c fa04 a93d 361d d43c d93c 673d
000003d0: 050b e7bc 59ab 9c3c b830 f63c 608d d6bc
000003e0: f838 85bd 6648 d73c 2b80 603c b303 933d
000003f0: ec15 9d3c f56e 8b3c 2b0c bb3c 7e9e 973c
0.03216044 -0.026701787 0.102655 -0.035680722 0.06376882 -0.028299179 0.022181539 -0.010437477
-0.05069743 0.0012132316 0.011699164 -0.07494126 -0.0312336 0.03431771 0.08016551 -0.07537441
-0.072882175 0.022395227 0.016741328 0.03150782 -0.039653745 0.056587048 -0.028104313 -0.053625356
0.0026197985 -0.06163766 -0.023558246 0.018373651 -0.029860811 -0.00083534356 0.04432116 -0.08233036
-0.003471194 0.05257911 -0.03291891 -0.040704742 -0.06125206 0.046354145 0.0072849025 -0.09173491
-0.0018334201 0.009284925 -0.058424912 0.0355684 -0.04935746 -0.032646902 0.05664491 -0.054563247
-0.0027340434 -0.040990673 -0.047608096 0.045967814 -0.02316017 0.031768326 -0.06845054 -0.010716264
0.022471558 -0.03193648 0.0041943244 -0.045267887 0.010013879 -0.075926274 -0.09057752 0.04872332
-0.0011523014 0.0051378366 -0.036901735 -0.13174939 0.095987 -1.6572303e-06 -0.054515216 0.039189093
-0.007359588 0.03294806 -0.013818134 -0.060702458 0.057577185 0.0028600136 0.071740344 0.042978507
0.02329518 -0.082681775 0.03420664 0.011545812 -0.054132253 -0.07494428 0.01235053 -0.018651593
0.0127421515 -0.026982354 0.046236917 -0.040106103 0.0015168 0.013360389 -0.010314903 0.06097767
0.0060396576 -0.031577956 0.06772998 0.0104970755 0.03967884 -0.010895969 0.06326215 -0.09732057
-0.10410229 0.039206088 -0.048617665 -0.045528863 0.023949133 0.01797941 0.06453838 -0.056041267
-0.06536813 -0.037245493 -0.07074769 -0.011226289 -0.03827464 -0.03126421 -0.040590055 0.06922412
-0.07452692 -0.06660764 -0.0002949976 -0.04536759 0.054308392 -0.03790112 0.0952002 0.01940036
-0.04812446 -0.022035694 -0.11503067 -0.0032225023 0.008367203 0.038922343 -0.018659173 -0.009365966
-0.07294983 -0.044139717 -0.0028814664 0.05335458 -0.042718127 -0.032468744 -0.0041990387 0.030298898
0.09804771 -0.014742496 -0.023614304 0.003165691 0.060702268 0.034334898 0.038484775 -0.08174607
0.0017040862 0.016356884 0.030142188 -0.036516998 -0.029863259 0.08777384 0.013584433 -0.060854632
0.037290607 -0.018000517 -0.009528395 -0.044536933 0.0011192481 0.026228718 -0.0546077 -0.018901303
-0.01658176 0.037306603 -0.032027315 0.007691442 0.033365685 -0.10082181 -0.0105776545 -0.09794016
-0.09741565 -0.010644558 0.051104203 -0.014999109 0.06486891 -0.032934736 -0.04360804 0.027958596
0.012337816 -0.004461633 -0.052538794 0.038465966 0.038000673 -0.029611355 0.034631893 0.029747356
-0.0050875954 -0.030185131 0.05226129 -0.03565346 -0.006930103 0.0012628508 0.028637711 -0.04706049
0.029743467 0.034410752 -0.060404096 0.092799835 -0.0043718754 0.034358934 0.05601744 0.0142735895
-0.02897289 0.027983863 0.010834268 -0.11773137 -0.0039753057 0.05431203 0.034427624 0.067687884
0.03832281 0.06046697 -0.008796665 0.03266801 0.026996013 0.050910838 -0.0660141 0.0154073015
-0.0016526912 0.07818217 -0.04290236 0.050075654 -0.06080778 0.10060412 0.038679354 0.033161964
-0.039683916 -0.08465333 0.058733456 -0.09073655 0.042875048 0.11546809 0.047715764 0.018639427
0.016958842 0.08252902 0.025892835 0.056454513 -0.028203497 0.019124674 0.030052528 -0.02619046
-0.065050066 0.02627964 0.013702433 0.0717844 0.019175492 0.017020682 0.02283295 0.018508192

layers.4.bias f4 [100]
00000000: c6de 013e d692 c53b f478 293d ddcc d9bd
00000010: 2a85 f83d 8610 cd3d bfc7 633c ea72 90bc
00000020: 32ec 033e 0112 493d 7283 113e bc7c d3bc
00000030: f090 533e e62d f73d 2ed3 0f3e 793a bbbd
00000040: e612 a93d e64b 183e 6ac7 003e ef56 023d
00000050: a7cb d63d 502e 393e cf05 683d 3f36 003e
00000060: 54b8 1b3e 76c8 ef3d 6b23 d0bc d404 903d
00000070: 18be 183e 78a9 a03d c2c3 0cbd 9e98 043e
00000080: 160a e13d 578b d03c f8bc d63d 1ea6 83bd
00000090: ff93 063e 58c4 05bd 2017 293e ebf0 4d3d
000000a0: e9a8 913d b0d8 c63d 5e0a ce3d ca20 29ba
000000b0: b2b0 d33c ec01 af3d 557d 003e 539a 31bd
000000c0: 95f6 193d fcad 1a3e 3eef e83d 7e54 263e
000000d0: c6e0 ce3d 56dc 183d 3d55 463c cec6 043e
000000e0: 6273 033d 98d3 a0bd f6e3 cf3d 87ff ee3d
000000f0: ea93 103e 414a 083d f700 123d a45d afba
00000100: 13fb ff3d 2728 053e 7e01 543e b05b 72bd
00000110: 6cdb fb3d cac3 163e d20d 0d3d a57a a63d
00000120: b607 22bc 64cc a23d 3b1b 163e 67b8 843b
00000130: 774a af3d 0fb2 fc3d e008 bdbc b2a5 473e
00000140: d0e3 8ebd 66b8 1e3b 397d 0b3e 5ef5 243e
00000150: fbf6 2f3e 7370 3f3e e3d8 1cbd 1ae7 b73d
00000160: 85ff 473d af75 143d 330c 38bc dc44 ff3c
00000170: ec52 e8bc f9cf a3bd 16e7 243e e309 8c3d
00000180: 079d fa3d f86a ce3d 3d5c c53d cbc3 b93d
0.12682638 0.006029467 0.041375116 -0.10634778 0.12134774 0.10012917 0.013902604 -0.01763292
0.1288307 0.049089435 0.14210299 -0.025816314 0.20660758 0.12069301 0.14045402 -0.09142012
0.08255558 0.14872703 0.1257607 0.031821188 0.10488062 0.18084073 0.056646165 0.12520693
0.15207034 0.11708157 -0.025407514 0.07032171 0.14916265 0.078448236 -0.034366377 0.12948844
0.10988252 0.025457067 0.10485262 -0.06428169 0.13142394 -0.03265795 0.16512728 0.050278585
0.07112295 0.097092986 0.10060571 -0.00064517243 0.02584109 0.085452884 0.1254781 -0.043360066
0.037588675 0.15105432 0.11373757 0.16243169 0.10101466 0.037319504 0.012105283 0.12966463
0.03209246 -0.07852858 0.10150902 0.11669832 0.14118925 0.03327394 0.03564545 -0.0013379348
0.124990605 0.13003598 0.20703694 -0.05916947 0.12297711 0.14723125 0.03443701 0.08128861
-0.009889534 0.07949141 0.14658825 0.004050303 0.08559125 0.123386495 -0.023075521 0.19496801
-0.069770455 0.0024218797 0.13621987 0.16109225 0.1718406 0.1869524 -0.038292777 0.08979626
0.048827667 0.036245044 -0.011233377 0.031160764 -0.028359853 -0.07998652 0.16103777 0.06837823
0.12236982 0.100789964 0.09636734 0.09070548

layers.6.weight f4 [100]
00000000: 276f 203f 492b 5b3f e01a 5d3f 8dbd 4a3f
00000010: c63b 503f 922a 263f 71e8 4f3f eb3e 623f
00000020: 0896 4b3f f82f 553f 1809 2a3f caaa 443f
00000030: e625 253f 5020 1e3f 4d57 263f ab22 553f
00000040: e8a5 263f 4f5e 283f 08cb 233f 4fd7 253f
00000050: 29c2 513f 3bcd 2c3f f093 523f 0d44 4e3f
00000060: 5cb5 263f 325a 573f ad2e 5b3f b2ec 263f
00000070: c9ff 273f f3a2 583f 72df 573f 303a 2f3f
00000080: d262 233f a3eb 5d3f 60b5 2b3f 0d1f 463f
00000090: d793 243f 6ffe 5e3f 2404 473f cc53 4f3f
000000a0: 8c55 253f 582b 4f3f c47c 223f c646 503f
000000b0: 6f07 503f 4bd6 583f b1b4 263f d0bc 233f
000000c0: 8866 243f d0e1 2e3f 0cb1 2a3f de4c 2e3f
000000d0: 390f 263f 361a 473f f794 253f 9f32 273f
000000e0: 65a5 533f d3ac 243f a2d3 4b3f 725c 2d3f
000000f0: af15 253f aaa8 5c3f eba0 2b3f 19ff 503f
00000100: dfdd 293f bde1 553f bc87 223f 8c7b 2c3f
00000110: a41e 583f 3665 233f f057 573f 785c 5c3f
00000120: 7bde 573f ccf4 2f3f d5e5 4a3f f803 5d3f
00000130: 4ed0 253f b633 293f f894 323f b683 493f
00000140: b31c 553f 34aa 563f bcde 2b3f aab2 223f
00000150: fce0 233f b7d4 233f f99a 503f 2891 253f
00000160: 0a86 253f df10 5e3f 02ed 623f 25ca 5b3f
00000170: bf38 523f 3a53 5c3f 99c5 2b3f 45e6 533f
00000180: f75b 283f 8b69 2c3f 9d9c 543f fb47 313f
0.62669605 0.8561292 0.86369133 0.7919548 0.8134121 0.6490871 0.8121405 0.88377255
0.79525805 0.8327632 0.66420126 0.76823103 0.64510953 0.61768055 0.6497696 0.83256024
0.650969 0.65768903 0.63981676 0.6478166 0.8193689 0.67500657 0.82256985 0.8057259
0.6512048 0.84122 0.85618097 0.6520492 0.6562467 0.8462364 0.84325325 0.6844816
0.6382266 0.8668768 0.6707363 0.7739113 0.64288086 0.87106985 0.77740693 0.8098724
0.6458366 0.8092551 0.6347163 0.8135799 0.8126134 0.84701985 0.65119463 0.6395998
0.6421895 0.6831331 0.666764 0.6808604 0.6486698 0.7777437 0.6468043 0.65311617
0.8267425 0.6432621 0.796198 0.67719185 0.6448621 0.8619486 0.67042416 0.8163925
0.66354173 0.83547574 0.63488364 0.6737602 0.84421754 0.6382631 0.84118557 0.86078596
0.84323853 0.68732905 0.79256946 0.8633418 0.6477097 0.6609453 0.6975856 0.787166
0.83246917 0.8385346 0.6713674 0.6355387 0.64015174 0.6399645 0.8148647 0.64674616
0.6465765 0.86744493 0.88642895 0.85855323 0.8211784 0.86064494 0.67098385 0.8277324
0.6576533 0.67348546 0.8305147 0.6925046
