review_pytorch/regression_projects/taxi_fees/Taximodel_version4.pt (torch, 112179 bytes, 19 tensors)

embeds.0.weight f4 [24, 12]
0	0x3ec312a9	0.38100174
1	0xbdc5f0b0	-0.09665048
2	0xbeff6d2d	-0.49887982
3	0x3f1c02b4	0.60941625
4	0x3f0fac66	0.56122434
5	0xbf05f00d	-0.52319413
6	0x3fa8980e	1.3171403
7	0x3d4829e5	0.04886808
8	0xbf9db000	-1.2319336
9	0x3f95263b	1.1652292
10	0x3ee5803a	0.44824392
11	0xbe900050	-0.28125238
12	0x3e85eeac	0.26158655
13	0xbfa988dd	-1.3244892
14	0x3e9cac1c	0.3060006
15	0x3f206077	0.62647194
16	0xbeeab821	-0.45843604
17	0xbfaf07e9	-1.3674289
18	0x3f955e8d	1.166948
19	0xbf25b973	-0.647361
20	0x3e1945dc	0.14968055
21	0x3f9a6551	1.2062169
22	0xbef9a979	-0.4876211
23	0x3ed30935	0.41217962
24	0x3ea8baed	0.32955113
25	0xbf94d758	-1.1628218
26	0xbeaf09b7	-0.341871
27	0x3e8ce8f2	0.27521473
28	0xbe57685f	-0.21035908
29	0xbf2fb671	-0.6863776
30	0xbfab86e1	-1.3400537
31	0xbf87589f	-1.057392
32	0xbf892a12	-1.0715964
33	0x3ee5f655	0.449145
34	0xbf763f9e	-0.9619082
35	0x3f3c7cf3	0.7362816
36	0xbf9b94bd	-1.2154766
37	0xbeb2f94a	-0.34955817
38	0xbf889899	-1.0671569
39	0x3fa95334	1.3228517
40	0xbe7f6bb5	-0.2494343
41	0x3e856fce	0.26061863
42	0x3ef0b0cb	0.47009882
43	0x3f471f03	0.77781695
44	0x3eed28d0	0.463202
45	0x3e0807c4	0.13284212
46	0x3e4c26ff	0.19936751
47	0xbe453d3c	-0.1926164
48	0xbf86ab28	-1.0520983
49	0xbf78a6aa	-0.9712931
50	0x3fba93f4	1.4576402
51	0xbfa8b5f2	-1.3180525
52	0xbebc85f4	-0.36820948
53	0xbfc8bf22	-1.5683329
54	0xbebb24fa	-0.36551648
55	0x3f9a55f9	1.2057487
56	0x3d8fbb7e	0.07018183
57	0xbf279a17	-0.654695
58	0x3f461886	0.7738117
59	0x3f047285	0.5173724
60	0x3e8ed3e7	0.27896044
61	0xbe9555b7	-0.29166958
62	0x3f3d87f1	0.74035555
63	0xc0293096	-2.6435905
64	0xbdfbaccf	-0.1228882
65	0xc01147e4	-2.2700129
66	0xbfdea1e0	-1.739315
67	0xbc6cd79d	-0.014455703
68	0xbf8f40eb	-1.1191686
69	0x3f3920b4	0.72315526
70	0x3e9210dd	0.2852849
71	0x3f40b59a	0.752771
72	0x3e766b5f	0.24064396
73	0x3f8bd063	1.092297
74	0x3f218ebd	0.63108426
75	0xbf1810e0	-0.5940075
76	0xbf0db12c	-0.5534847
77	0xbf051a72	-0.5199348
78	0x3f1142e2	0.5674268
79	0xbe0ba1e7	-0.1363598
80	0x3fc3925e	1.5279043
81	0xbfa5d48b	-1.2955488
82	0xbe739b9e	-0.23789832
83	0x3f96ad54	1.1771646
84	0x3fdf6eb8	1.7455664
85	0xbe03fbd7	-0.12889038
86	0x3d6789de	0.056527965
87	0xbf8b3d7d	-1.087814
88	0xbf45fcb2	-0.7733871
89	0x3d4e4a3f	0.050363775
90	0x3f27f4b0	0.6560774
91	0xbf99763a	-1.1989205
92	0xbf2298f6	-0.6351465
93	0xbf7b9a4b	-0.9828231
94	0xbf022e74	-0.5085213
95	0xbf8ef5a3	-1.1168712
96	0xbf208047	-0.62695736
97	0xbf740cef	-0.95332235
98	0x4026f6e9	2.6088202
99	0x3fadce7f	1.3578643
100	0x3cd8efb9	0.026481496
101	0xbf1d5c28	-0.61468744
102	0xbf082cb2	-0.531932
103	0x3d9e6ef1	0.07736004
104	0x3f0db0e1	0.5534802
105	0x3f9ed8f0	1.2409954
106	0x3ef5ac36	0.4798295
107	0xbf023f3f	-0.50877756
108	0x3f80fa8f	1.0076464
109	0xbdd6dca8	-0.104913056
110	0x3f8f830d	1.1211869
111	0xbe5641d7	-0.20923553
112	0xbf9fc0ea	-1.2480748
113	0x3f128224	0.5722983
114	0xbdfda6d1	-0.12385333
115	0xbf83f3ed	-1.0308815
116	0x3f65367e	0.89536273
117	0x3fc08329	1.5040027
118	0xbf9fd76d	-1.2487618
119	0x3e602450	0.21888852
120	0xbe7dc8f7	-0.24783693
121	0x3fc42aa1	1.5325509
122	0xbeb6d15c	-0.35706604
123	0xbec92b10	-0.39290667
124	0x3f1afbbc	0.60540366
125	0xbf499d37	-0.78755516
126	0xbf740faf	-0.9533643
127	0x3f2c1fb4	0.67235875
128	0x3eb608b6	0.3555352
129	0xbf0403fb	-0.51568574
130	0xbfdb3301	-1.712494
131	0xbf14d065	-0.58130485
132	0x3ec4001d	0.38281336
133	0x3f5addf8	0.8549495
134	0xbf44fd06	-0.76948583
135	0x3fe963db	1.8233598
136	0x3f4b7507	0.79475445
137	0x3f7ad0bf	0.9797477
138	0x3f68272d	0.9068478
139	0xbf79cd82	-0.97579205
140	0xbfa1c416	-1.2637966
141	0xbffbbc76	-1.9666889
142	0xbdeb08f1	-0.11476315
143	0xbf18f481	-0.59748083
144	0xbfae3e04	-1.3612676
145	0xbe749d75	-0.2388819
146	0x3f665cb4	0.89985204
147	0x3f57541c	0.84112716
148	0x3bae6d50	0.0053230897
149	0x3f897964	1.074017
150	0xbf7af2cc	-0.9802673
151	0x40115829	2.2710059
152	0xbe12cf70	-0.14336944
153	0x3ebfaf7f	0.3743858
154	0x3fa85fed	1.3154274
155	0xbfb04ef7	-1.3774098
156	0x3fe2e080	1.7724762
157	0x3e93e4ec	0.2888559
158	0xbf3abd2f	-0.7294492
159	0xbf6bc47d	-0.9209669
160	0xbf5a428a	-0.8525778
161	0xbd53e46d	-0.051731516
162	0x3e96a14c	0.29419935
163	0x3ee16355	0.44021097
164	0xbd1636d7	-0.036673393
165	0x3d93a12b	0.07208475
166	0xbfd33bac	-1.6502585
167	0xbfc99209	-1.5747691
168	0x3e8d86d6	0.27641934
169	0xbfb17f87	-1.3867043
170	0x3f87b378	1.0601645
171	0x3f7b3504	0.9812777
172	0xbfd870c3	-1.6909412
173	0x3db905cf	0.09034311
174	0x3faf74b8	1.3707495
175	0xbe879253	-0.26478824
176	0xbf8d2aa1	-1.1028634
177	0x3ee7a30b	0.4524158
178	0x3f88207c	1.0634913
179	0xbf4c09b6	-0.7970232
180	0xbca1b4c2	-0.019739512
181	0xbe867275	-0.262592
182	0x3b158506	0.0022814884
183	0x3d94a818	0.07258624
184	0x3f59797c	0.84950995
185	0x3f79a13e	0.9751166
186	0xbe017607	-0.1264268
187	0xbfeedd82	-1.8661349
188	0x3e3f2a41	0.18668462
189	0xbf49b703	-0.7879488
190	0xbfccf1a5	-1.6011244
191	0xbf4de7ec	-0.8043201
192	0xbfb367d8	-1.4016066
193	0xbfb14fa9	-1.3852435
194	0xbf1c9280	-0.6116104
195	0xbfb283a2	-1.3946421
196	0xbf6d72ba	-0.92753184
197	0xbd0b922a	-0.03407494
198	0x3f92ebec	1.1478248
199	0x3fdeb159	1.7397872
200	0xbce20a6a	-0.027592856
201	0x3e8af1a4	0.27137482
202	0xbec3afa7	-0.3821995
203	0xbeb16385	-0.3464624
204	0xbee37814	-0.4442755
205	0xc004fe42	-2.0780187
206	0xbf7992f1	-0.9748984
207	0xbfa02bd9	-1.2513381
208	0x3e3ba686	0.18325242
209	0x3ec12142	0.37720686
210	0xbfc513c6	-1.5396659
211	0xbe8dbc0a	-0.27682525
212	0xbf33aa9c	-0.70182204
213	0xbed15cbe	-0.4089107
214	0xbecaa500	-0.3957901
215	0x3f9fd9cb	1.248834
216	0xbfd7d38e	-1.6861436
217	0xbf4aac41	-0.7916909
218	0xbf088ac3	-0.53336734
219	0xbf791379	-0.9729534
220	0x3f493fa8	0.78612757
221	0xbeb5cc69	-0.35507515
222	0x3ef8b200	0.48573303
223	0xbcde17fd	-0.027111048
224	0xbf7be35e	-0.9839381
225	0x3daf41f0	0.085574985
226	0xbf8afa88	-1.0857706
227	0xbf6afa3e	-0.9178809
228	0xbfbe4e3a	-1.4867623
229	0x3e9479d2	0.28999192
230	0xbf6e5952	-0.9310504
231	0xbe869b9b	-0.26290593
232	0x3ecdc3c5	0.40188423
233	0x3e11d628	0.1424185
234	0x3ff8dc7b	1.9442285
235	0xbe84139a	-0.25796205
236	0x3faae5b9	1.3351356
237	0xbead0400	-0.33792114
238	0xbc81b9bb	-0.015835634
239	0x3f9e1e24	1.2352948
240	0xbfef18ac	-1.8679404
241	0xbf0fa901	-0.56117254
242	0xbd09b5c6	-0.03362062
243	0xbf1d1ec0	-0.61375046
244	0xbe835bed	-0.2565607
245	0xbd172eaf	-0.036909755
246	0xbf13b54f	-0.5769853
247	0xc024856e	-2.570644
248	0x3ef264a5	0.4734241
249	0x3f174f73	0.59105605
250	0xbf5353fe	-0.82550037
251	0x3f84d020	1.0376015
252	0xbf93123e	-1.1489942
253	0xbe26092a	-0.16214433
254	0xbf8e37ac	-1.111074
255	0xbed95da9	-0.4245427

embeds.1.weight f4 [7, 4]
0	0xbf1cc9c3	-0.61245364
1	0xbdf839d5	-0.121204056
2	0xbe8acf2f	-0.27111194
3	0x3fd267e9	1.6437961
4	0x3eca9af0	0.39571333
5	0x3eb24268	0.3481629
6	0x3f51dead	0.819804
7	0xbfe6c9ee	-1.8030374
8	0xbe831a7f	-0.25606152
9	0x3f108d28	0.5646539
10	0x3c0d8911	0.008638636
11	0x40016c3a	2.0222306
12	0xbfee7cc6	-1.8631828
13	0xbf73317d	-0.9499739
14	0x3f789de3	0.97115916
15	0x3d1f1a4b	0.038843434
16	0x3f1a7698	0.6033721
17	0xbe5bb802	-0.21456912
18	0xbff98e3d	-1.9496533
19	0xbfc96cba	-1.5736306
20	0x3d79876c	0.060920164
21	0x3e14861b	0.14504282
22	0xc00608f1	-2.0942957
23	0x3f14dd34	0.5815003
24	0x3fc5dc19	1.5457793
25	0xbf08aea8	-0.53391504
26	0xbfa2dc19	-1.2723418
27	0xbeba3d93	-0.36375102

bn_num.weight f4 [6]
0	0x3f79b3f7	0.9754023
1	0x3f9069ba	1.1282265
2	0x3f84b206	1.0366828
3	0x3f98a503	1.1925358
4	0x3f5b136d	0.85576516
5	0x3f8d6479	1.1046287

bn_num.bias f4 [6]
0	0x3d238f39	0.03993151
1	0x3ba2559a	0.004954052
2	0xbde9889f	-0.114030115
3	0x3d6a5206	0.05720713
4	0xbdd94a28	-0.10609847
5	0xbe1fdbd5	-0.15611203

bn_num.running_mean f4 [6]
0	0xc293f4b8	-73.97797
1	0x4223017c	40.75145
2	0xc293f3ac	-73.97592
3	0x422301dc	40.751816
4	0x3fac0c62	1.3441279
5	0x40273103	2.6123664

bn_num.running_var f4 [6]
0	0x3a8258b9	0.0009944654
1	0x3a2c88b3	0.0006581649
2	0x3a8abeb1	0.0010585395
3	0x3a6fe905	0.0009151849
4	0x3f1117ca	0.56676924
5	0x4136c7cc	11.423779

layers.0.weight f4 [200, 22]
0	0x3c071129	0.008243837
1	0x3c9ee42f	0.019395916
2	0x3cedb4d7	0.029016895
3	0xbb18be5c	-0.0023306822
4	0x3a7d5efb	0.0009665337
5	0xbb6e67d2	-0.00363778
6	0xbc7890d5	-0.015171249
7	0x3b0f7138	0.0021887552
8	0x3c9be9d8	0.019032404
9	0xbc2f652b	-0.010705273
10	0x3c5b3aba	0.013380701
11	0xbcb1c5fd	-0.021700853
12	0x3b49c035	0.003078473
13	0xbb008a07	-0.001961352
14	0xbc29a3cd	-0.010353995
15	0x3b41f725	0.0029596773
16	0x3e57a585	0.21059234
17	0xbe94c9ec	-0.29060304
18	0xbe26b641	-0.16280462
19	0x3e9030af	0.28162143
20	0x3c4b79d7	0.012419186
21	0x3d7071e9	0.058702383
22	0xbc9d8739	-0.019229518
23	0xbc5eb46f	-0.013592823
24	0xbca0c82b	-0.019626698
25	0x3ce44f4d	0.027869845
26	0xbdb5ecbb	-0.088830434
27	0xbdff5efa	-0.12469287
28	0x3d7afad1	0.061274353
29	0x3b8847f4	0.004158968
30	0x3d98e2c6	0.074651286
31	0x3b8c7c92	0.004287311
32	0xbcb4c6dc	-0.02206748
33	0xbd41ca03	-0.047311794
34	0x3db338e3	0.08751085
35	0x3da7756e	0.08176695
36	0xbd1e8604	-0.038702026
37	0xbcaf64b8	-0.021410331
38	0xbdaf7270	-0.08566749
39	0xbe2069a4	-0.15665299
40	0x3d46415c	0.048402175
41	0xbdf79616	-0.120891735
42	0x3d46084f	0.048347767
43	0x3e5e786b	0.21725623
44	0x3a3280f6	0.0006809378
45	0x3bd551ae	0.006509981
46	0x3b426eba	0.002966805
47	0x3bd586c0	0.0065163076
48	0x3a07f226	0.0005185924
49	0x3baa94e5	0.005205738
50	0xba82aa9e	-0.0009969061
51	0xba281c91	-0.0006412948
52	0xbbbb371d	-0.005713357
53	0xb99464ae	-0.00028303772
54	0xbabef47e	-0.0014568714
55	0xbb32c3be	-0.0027277316
56	0xbb49cc67	-0.0030792
57	0x3b4798f8	0.0030456167
58	0xbad79deb	-0.0016450261
59	0xbb0988ac	-0.0020986004
60	0x3e092e7b	0.13396637
61	0xbe464d50	-0.1936543
62	0xbe15d497	-0.14631878
63	0x3e69b04e	0.22821161
64	0x3bbb77b4	0.005721057
65	0xbe11fad0	-0.14255834
66	0x3b7e2d89	0.0038784465
67	0x3af7113e	0.0018849743
68	0xbb88f743	-0.0041798665
69	0xba6fca54	-0.00091472757
70	0x3bd07042	0.0063610384
71	0xbb706ae7	-0.0036684813
72	0x3b52d13d	0.0032168173
73	0xbb3e381c	-0.0029025143
74	0x3b72d899	0.0037055372
75	0x3b237b9e	0.0024945508
76	0x3acc39aa	0.001558115
77	0x3b3f15d6	0.0029157302
78	0x3bc7c4ca	0.006096457
79	0x3a808e10	0.0009807963
80	0xbb58265c	-0.0032981848
81	0x3a1f19c2	0.0006069207
82	0xbe63b1a1	-0.22235729
83	0x3e5b59d8	0.21420991
84	0x3dfbcf3e	0.12295388
85	0xbe57cb5e	-0.21073672
86	0xbbf15eb6	-0.0073660268
87	0x3e859925	0.26093403
88	0xbda96945	-0.08272032
89	0x3e2f5dcd	0.17125626
90	0x3dc6fdd6	0.09716384
91	0xbd9932e0	-0.07480407
92	0xbe3328c2	-0.17496017
93	0x3cfb1471	0.030649396
94	0x3db003da	0.085944846
95	0xbdad7f76	-0.08471577
96	0x3d67a4ad	0.05655353
97	0x3e01d2c8	0.12678063
98	0x3d39d4b6	0.045368873
99	0xbdbe8695	-0.09303013
100	0xbd4aa08b	-0.049469512
101	0xbd9bf48b	-0.07615002
102	0xbe34705c	-0.17620987
103	0x3d6f60f8	0.058442086
104	0x3e017f67	0.12646256
105	0x3dbc5f0f	0.091978185
106	0xbdc53ed0	-0.09631121
107	0x3e8d3298	0.27577662
108	0xbd75a136	-0.059968196
109	0x3e148488	0.14503682
110	0xbdfe656e	-0.1242169
111	0x3dbe17e2	0.09281899
112	0xbd530eba	-0.051527716
113	0x3e1e9e15	0.15489991
114	0xbdc50d68	-0.09621698
115	0xbd1583f0	-0.03650278
116	0xbd9b1865	-0.07573012
117	0x3dd39183	0.103304885
118	0x3da4bb88	0.08043581
119	0xbbf208a6	-0.007386285
120	0xbd864be3	-0.06557443
121	0x3e2086e1	0.15676452
122	0xbdd3c609	-0.103405066
123	0x3d9ba9b3	0.07600727
124	0xbd5e8bc7	-0.05433252
125	0x3d94d83d	0.07267807
126	0xbd1e94c9	-0.03871611
127	0x3e4092a6	0.18805942
128	0xbe0f473e	-0.1399202
129	0xbd8d1044	-0.06887868
130	0xbd814c4f	-0.06313383
131	0xbe339ac5	-0.17539509
132	0x3d97d84d	0.07414303
133	0xbca27bb4	-0.019834377
134	0xbd1df677	-0.038565125
135	0x3e06ba93	0.1315711
136	0xbe1fc548	-0.156026
137	0xbe072676	-0.13198265
138	0xbd1323ce	-0.035922818
139	0x3e1028e0	0.14078093
140	0xbe0a749a	-0.13521042
141	0xbcdbd4ef	-0.026834933
142	0xbd1f8975	-0.03894945
143	0x3d8cbcd5	0.06871954
144	0x3c8c2182	0.017105822
145	0x3bd6c778	0.0065545402
146	0x3c8311d0	0.015999705
147	0x3c11c7a0	0.008897692
148	0xbce3171e	-0.027720984
149	0x3dd18ff5	0.10232536
150	0xbaccc961	-0.001562398
151	0x3c2aa9cc	0.010416459
152	0x3dc2bfe5	0.09509257
153	0xbe7c5706	-0.24642572
154	0xbdace7f4	-0.08442679
155	0xbc07374a	-0.008252928
156	0xbd344aa1	-0.044016484
157	0xbcc32b78	-0.023824438
158	0x3da0ace3	0.078454755
159	0x3c9f5409	0.01944925
160	0xbd8da17a	-0.06915565
161	0xbd401477	-0.046894517
162	0x3d9fe5c6	0.07807498
163	0xbde4a595	-0.11164395
164	0xbddba140	-0.10724115
165	0x3c83eee6	0.016105127
166	0xbd13d2d9	-0.036089752
167	0x3dd34fcb	0.10317954
168	0xbc85b875	-0.016323308
169	0x3c0aea72	0.008478748
170	0x3c6d1e25	0.014472519
171	0x3e0bb505	0.13643272
172	0xbe2063d0	-0.15663075
173	0xbd722ae7	-0.059122946
174	0xbd84a911	-0.06477559
175	0x3e918ba8	0.28426862
176	0x3d8f42a1	0.0699513
177	0xbe22b8cf	-0.15890811
178	0x3b744890	0.0037274696
179	0x3df6d709	0.120527335
180	0x3cb80b40	0.022466302
181	0xbe4a1b58	-0.19736993
182	0x3dc14014	0.0943605
183	0xbe153ec2	-0.14574721
184	0x3cacd58a	0.021097917
185	0xbd7d23f0	-0.06180185
186	0xbd8a28b1	-0.067460425
187	0xbc3f711b	-0.011684681
188	0xbd6c3fe2	-0.05767811
189	0x3e637c00	0.22215271
190	0xbd4b2a1e	-0.049600713
191	0xbdd3f568	-0.10349542
192	0x3de6643e	0.112495884
193	0xbdac8dc8	-0.0842548
194	0xbb82f157	-0.003996055
195	0x3df245f1	0.118297465
196	0x3e0ef7c0	0.13961697
197	0xbe97032f	-0.29494616
198	0xbda1bf0f	-0.0789777
199	0xbc4cd674	-0.0125023015
200	0xbd2f75fb	-0.042837124
201	0xbddba3d1	-0.10724605
202	0xbdcfd2d3	-0.101476334
203	0x3e60c46b	0.21949928
204	0xbb14f6fc	-0.0022730222
205	0xbd4283a1	-0.047488812
206	0xbd5d20c2	-0.05398632
207	0xbcd37206	-0.025811207
208	0xbd9e21bf	-0.0772128
209	0x3d8e24cc	0.06940612
210	0x3d836bfd	0.064170815
211	0x3e1ac101	0.15112688
212	0xbd9ae014	-0.07562271
213	0x3dca441f	0.09876274
214	0xbca2d1c6	-0.019875418
215	0xbe1c0b27	-0.1523863
216	0x3e1175d1	0.142051
217	0x3e14a744	0.14516932
218	0x3c8b4504	0.017000683
219	0xbe63abc8	-0.22233498
220	0x3bb05d29	0.0053821993
221	0x3d9819d9	0.07426805
222	0x3dfd320f	0.123630635
223	0x3e11c39d	0.14234777
224	0xbe5e4502	-0.21706012
225	0xbe29c9dc	-0.1658091
226	0x3e0932f4	0.13398343
227	0xbe043862	-0.12912133
228	0x3e00dc46	0.12584028
229	0xbe33b014	-0.17547637
230	0xbcef761e	-0.029231127
231	0xba58b0cf	-0.00082660926
232	0x3cb5fc93	0.022215163
233	0x3dc563f3	0.096382044
234	0x3de45d88	0.11150652
235	0xbc989245	-0.018624434
236	0x3e258a80	0.16166115
237	0xbe154457	-0.14576851
238	0x3e82f636	0.2557847
239	0xbe2e6431	-0.17030407
240	0x3d81b7ac	0.06333861
241	0xbcaf25bf	-0.021380303
242	0x3e2d314f	0.16913341
243	0xbe1a538c	-0.15070933
244	0xbd0d1feb	-0.034454267
245	0xbcea2071	-0.028579922
246	0x3d57ed78	0.052716702
247	0x3de6f604	0.112773925
248	0xbc4733c0	-0.012158334
249	0xbc44eec6	-0.012019819
250	0x3e0ad320	0.135571
251	0xbd100503	-0.03516103
252	0x3e28d29d	0.16486593
253	0x3de34bb9	0.11098427
254	0xbd87119a	-0.06595154
255	0x3d904600	0.070446014

layers.0.bias f4 [200]
0	0xbe4d2ef4	-0.20037442
1	0x3e30f0ef	0.17279409
2	0xbe84e127	-0.25953028
3	0x3e5f47fa	0.218048
4	0xbd6b0e87	-0.0573869
5	0x3ddb5f50	0.10711539
6	0x3dff32dd	0.12460873
7	0x3c771827	0.015081442
8	0xbddaa257	-0.10675495
9	0x3de64305	0.11243252
10	0xbd43905a	-0.047745086
11	0x3da03ab8	0.078237
12	0xbbc554d8	-0.006022077
13	0xbbe05dc6	-0.006847116
14	0x3d21166d	0.039328028
15	0x3bddf3a9	0.0067734313
16	0x3d101a60	0.035181403
17	0xbe1183fa	-0.14210501
18	0x3e67a8a9	0.22622932
19	0x3dbe48c9	0.092912264
20	0x3bf195da	0.0073726
21	0x3c6c5e4b	0.014426778
22	0xbe9b11ef	-0.3028712
23	0x3d4b076e	0.049567632
24	0xbe83ef5d	-0.25768557
25	0xbdf77fd7	-0.120849304
26	0x3e3c8425	0.18409784
27	0x3eb84939	0.35993364
28	0xbdb4f028	-0.08834869
29	0x3e6bec1b	0.23039286
30	0x3e363c02	0.17796329
31	0x3d0fd642	0.03511644
32	0xbd92da18	-0.07170504
33	0xbddf7344	-0.10910657
34	0xbd472d0d	-0.04862695
35	0x3d79a99c	0.060952768
36	0x3e08cab1	0.1335857
37	0xbd46fa03	-0.048578274
38	0x3d379de3	0.044828307
39	0x3d8c1377	0.0683965
40	0x3e042da9	0.12908043
41	0x3da0255c	0.07819626
42	0x3db39666	0.087689206
43	0x3dab4867	0.08363419
44	0x3e18f787	0.14938174
45	0x3d2f2576	0.042760335
46	0x3e2dc208	0.16968548
47	0xbd9f7a11	-0.07786954
48	0xbd8adbca	-0.06780203
49	0x3e50ed6a	0.20403066
50	0xbebdf3b7	-0.37100002
51	0xbdab1c79	-0.0835504
52	0x3e9402bb	0.28908333
53	0x3ddeeb29	0.10884697
54	0xbdd0904c	-0.101837724
55	0xbc968584	-0.018374212
56	0xbe067ba4	-0.13133103
57	0xbe5e3e13	-0.21703367
58	0x3c4b03cf	0.012391045
59	0xbdadccd9	-0.08486337
60	0x3da374fb	0.07981297
61	0x3e4d815c	0.20068878
62	0xbdb4691a	-0.08809109
63	0xbd5756a2	-0.052572854
64	0x3e109589	0.14119543
65	0xbe7b2123	-0.2452436
66	0xbdb10d57	-0.086451225
67	0xbe57524f	-0.21027492
68	0x3c652aff	0.013987302
69	0x3e493b10	0.19651437
70	0x3de7094f	0.11281072
71	0x3e12ce50	0.14336514
72	0xbc8673a0	-0.016412556
73	0xbded6841	-0.115921505
74	0xbe1cc9aa	-0.15311304
75	0xbe89f1c5	-0.26942268
76	0x3e0959c4	0.13413149
77	0x3e501215	0.20319398
78	0xbda94f90	-0.082671285
79	0xbe28ddaa	-0.16490808
80	0xbdb36a69	-0.087605305
81	0x3e008996	0.12552485
82	0x3bca0586	0.006165209
83	0xbda6997e	-0.08134745
84	0xbd5958c1	-0.053063158
85	0xbe48ccec	-0.19609421
86	0x3da8a1fb	0.0823402
87	0xbd4144ed	-0.047184873
88	0xbc77a98c	-0.015116107
89	0x3d10ab0b	0.03531937
90	0x3dac9447	0.08426719
91	0xbe238749	-0.15969576
92	0x3e81814b	0.25293955
93	0xbe3a5a85	-0.18198593
94	0x3e821a96	0.25410908
95	0x3e8f5805	0.2799684
96	0x3dce41bc	0.100711316
97	0xbd899a0f	-0.067188375
98	0x3c89d866	0.01682682
99	0xbe82db40	-0.255579
100	0x3dc4657f	0.09589671
101	0xbe45659f	-0.19277047
102	0xbc4824a2	-0.012215765
103	0xbd29a94c	-0.04142122
104	0xbe2c1906	-0.1680642
105	0xbdbbaaa3	-0.09163406
106	0xbdcb8b6a	-0.099387005
107	0xbdfca5cd	-0.123363115
108	0x3e8afa34	0.27144015
109	0xbdf03190	-0.11728203
110	0x3e81d7ca	0.25359946
111	0xbdc60007	-0.09667974
112	0xbe4c26f1	-0.1993673
113	0xbdc52260	-0.09625697
114	0x3e83f255	0.25770822
115	0x3caefb60	0.0213601
116	0xbdf61e15	-0.120174564
117	0xbd9bde56	-0.076107666
118	0x3d87b7ca	0.06626852
119	0x3dad758d	0.08469687
120	0xbde3e6f2	-0.11128034
121	0xbe516ecf	-0.20452426
122	0xbda5b27b	-0.08090683
123	0xbe52d9b9	-0.20590867
124	0xbe2b3f47	-0.16723357
125	0x3dc2a310	0.09503758
126	0x3d93e788	0.072218955
127	0x3d950027	0.0727542
128	0x3db5520b	0.08853539
129	0x3d5590b7	0.052139964
130	0xbdbbdce7	-0.09172993
131	0xbe12f50a	-0.14351287
132	0xbdba0296	-0.090825245
133	0xbbd40f3c	-0.0064715426
134	0xbc29c84e	-0.010362698
135	0xbe6f97e3	-0.23397784
136	0xbd79ce43	-0.060987722
137	0x3e26552d	0.1624343
138	0x3eb2bf34	0.349115
139	0xbde8d2da	-0.11368342
140	0x3c95c1c5	0.018280873
141	0x3dcc0b02	0.09963037
142	0xbdd86e46	-0.10567908
143	0x3dd505c7	0.104014926
144	0xbdf55872	-0.1197976
145	0xbe031990	-0.1280272
146	0xbdabdc82	-0.08391668
147	0x3ab47598	0.0013767956
148	0xbdf966a4	-0.1217778
149	0xbdfbe2f3	-0.122991465
150	0xbd48447b	-0.048893433
151	0x3ddfc750	0.10926688
152	0x3e26a613	0.1627429
153	0x3e455674	0.1927126
154	0x3d53af17	0.05168065
155	0xbbc2220a	-0.005924468
156	0x3e35ac37	0.17741476
157	0xbd2adb2d	-0.04171293
158	0x3e6cc19b	0.2312073
159	0xbe24e3f3	-0.1610258
160	0x3d960bd8	0.07326478
161	0x3dc85fdd	0.097839095
162	0xbe5b21ac	-0.21399564
163	0x3d907986	0.07054429
164	0x3c0dcba4	0.008654509
165	0xbe31060d	-0.17287464
166	0x3e4b6de6	0.19866142
167	0xbcd59317	-0.026071114
168	0xbe831f30	-0.25609732
169	0xbd5ff79d	-0.0546795
170	0x3e7edb22	0.2488828
171	0x3d93a65d	0.07209466
172	0x3e153dd1	0.14574362
173	0x3de0f581	0.10984326
174	0xbe74bcca	-0.23900142
175	0xbe6c5508	-0.23079312
176	0xbd1726dc	-0.036902294
177	0xbe075d5d	-0.13219209
178	0x3e151a1b	0.1456074
179	0x3cfa9a4a	0.030591149
180	0xbd6b914f	-0.057511624
181	0xbdf3eecd	-0.11910782
182	0xbda35ce7	-0.07976704
183	0xbcb2c330	-0.021821588
184	0x3e550577	0.20802866
185	0xbeab3e9a	-0.334462
186	0x3e856694	0.26054823
187	0xbbc4b9e6	-0.006003606
188	0xbe54398c	-0.20725077
189	0xbbd76945	-0.0065738284
190	0x3e38fd4b	0.18065374
191	0x3d742d33	0.059613418
192	0x3da4d47f	0.08048343
193	0x3d939245	0.07205633
194	0xbdda944b	-0.10672816
195	0x3e2775b2	0.16353491
196	0x3d50bd0b	0.050961535
197	0x3e8034bd	0.25040236
198	0xbd01c363	-0.031680476
199	0x3e8dcaa3	0.27693662

layers.2.weight f4 [200]
0	0x3f870434	1.0548158
1	0x3f7748f8	0.96595716
2	0x3f89752f	1.0738887
3	0x3f89f352	1.077738
4	0x3f81e9e4	1.0149503
5	0x3f7b0286	0.98050725
6	0x3f78152d	0.9690731
7	0x3f7bffb3	0.9843704
8	0x3f788ed2	0.97092927
9	0x3f783c3a	0.969669
10	0x3f7a477b	0.9776532
11	0x3f781a27	0.96914905
12	0x3f795678	0.97397566
13	0x3f745620	0.95443916
14	0x3f7ca624	0.9869101
15	0x3f7e98c6	0.99451864
16	0x3f78469d	0.9698275
17	0x3f80dd7f	1.0067595
18	0x3f807126	1.003453
19	0x3f85bbba	1.0447915
20	0x3f824533	1.0177368
21	0x3f8107c6	1.0080497
22	0x3f80d0e6	1.0063751
23	0x3f801ac4	1.0008168
24	0x3f83c80b	1.0295423
25	0x3f701bfb	0.93792695
26	0x3f7acb29	0.9796625
27	0x3f7b5134	0.9817078
28	0x3f83c678	1.0294943
29	0x3f79275a	0.9732567
30	0x3f828843	1.0197834
31	0x3f7f4dfa	0.9972836
32	0x3f82efab	1.0229391
33	0x3f8490c0	1.0356674
34	0x3f7e84fe	0.9942168
35	0x3f87558f	1.0572985
36	0x3f794902	0.97377026
37	0x3f77d144	0.9680369
38	0x3f77c3e1	0.9678326
39	0x3f822283	1.0166782
40	0x3f796c95	0.9743131
41	0x3f84bd19	1.0370208
42	0x3f822a64	1.0169187
43	0x3f80573b	1.0026621
44	0x3f75b509	0.9597936
45	0x3f7d2096	0.9887785
46	0x3f82dc4e	1.0223482
47	0x3f89c099	1.0761901
48	0x3f75d557	0.96028656
49	0x3f6eb5f1	0.9324637
50	0x3f7712a1	0.965128
51	0x3f74cfcb	0.95629567
52	0x3f72d1e2	0.94851506
53	0x3f86b851	1.0524999
54	0x3f778da3	0.96700495
55	0x3f8232a2	1.0171702
56	0x3f74d7a3	0.95641536
57	0x3f7c5a4e	0.98575294
58	0x3f8096a8	1.0045977
59	0x3f7a639c	0.9780824
60	0x3f83aa35	1.0286318
61	0x3f78ae1d	0.97140676
62	0x3f81337e	1.0093839
63	0x3f745891	0.9544764
64	0x3f7c53d6	0.98565423
65	0x3f7cd4ff	0.98762506
66	0x3f7370d0	0.95094013
67	0x3f812e42	1.0092242
68	0x3f75175c	0.9573877
69	0x3f755610	0.95834446
70	0x3f7deeaf	0.9919233
71	0x3f7d54cb	0.9895751
72	0x3f6a362b	0.91488904
73	0x3f7b2143	0.9809763
74	0x3f822f4f	1.0170687
75	0x3f812d46	1.0091941
76	0x3f8032ec	1.001554
77	0x3f7ee798	0.99572134
78	0x3f7d8654	0.99033093
79	0x3f7f8e59	0.9982658
80	0x3f7cd859	0.9876762
81	0x3f771dd9	0.9652992
82	0x3f7c51b7	0.98562187
83	0x3f7ec7bf	0.9952354
84	0x3f783b21	0.96965224
85	0x3f7e1fa8	0.99267054
86	0x3f8432ef	1.0328044
87	0x3f82217a	1.0166466
88	0x3f78847c	0.97077155
89	0x3f824a24	1.0178876
90	0x3f78b0a4	0.9714453
91	0x3f7defde	0.99194133
92	0x3f68ddd1	0.90963465
93	0x3f7da99b	0.9908692
94	0x3f74cd44	0.9562571
95	0x3f7bf685	0.98423034
96	0x3f7ed354	0.9954121
97	0x3f815d6e	1.0106637
98	0x3f82d571	1.0221387
99	0x3f84c696	1.0373104
100	0x3f8504c8	1.0392084
101	0x3f86322e	1.0484064
102	0x3f7d8adb	0.9904
103	0x3f73d6d8	0.952497
104	0x3f7e7daf	0.9941053
105	0x3f846486	1.0343177
106	0x3f7201c5	0.9453395
107	0x3f7ed165	0.9953826
108	0x3f7e2556	0.9927572
109	0x3f7f7be6	0.9979843
110	0x3f7e03e2	0.99224675
111	0x3f792c2b	0.9733302
112	0x3f851ab0	1.0398769
113	0x3f7f40b5	0.9970811
114	0x3f808414	1.0040307
115	0x3f74587b	0.9544751
116	0x3f75e159	0.9604698
117	0x3f7b047d	0.98053724
118	0x3f72d07d	0.9484938
119	0x3f7975f5	0.97445613
120	0x3f7b6bd7	0.98211426
121	0x3f7da1d5	0.9907506
122	0x3f763532	0.9617492
123	0x3f7d865c	0.9903314
124	0x3f8f94db	1.1217302
125	0x3f7fbfe9	0.99902207
126	0x3f80a90b	1.0051588
127	0x3f7b4767	0.98155826
128	0x3f7b49d5	0.98159534
129	0x3f78ce82	0.97190106
130	0x3f78f659	0.97250897
131	0x3f7da6e8	0.99082804
132	0x3f8007bc	1.000236
133	0x3f815a7b	1.0105737
134	0x3f764e23	0.9621298
135	0x3f87a6a4	1.059773
136	0x3f7e7a60	0.9940548
137	0x3f864730	1.0490475
138	0x3f75db83	0.96038073
139	0x3f7a230a	0.97709715
140	0x3f7be3fe	0.98394763
141	0x3f7b3615	0.981294
142	0x3f8229e1	1.016903
143	0x3f79acdd	0.97529393
144	0x3f801710	1.0007038
145	0x3f7c76b3	0.9861862
146	0x3f82b6f8	1.0212088
147	0x3f7b15d7	0.980802
148	0x3f83f8bf	1.0310286
149	0x3f7e5ecc	0.993634
150	0x3f742c8a	0.9538046
151	0x3f83f253	1.0308326
152	0x3f7448c5	0.9542354
153	0x3f84e928	1.0383654
154	0x3f80344a	1.0015957
155	0x3f79de95	0.9760526
156	0x3f845f03	1.0341495
157	0x3f88a046	1.0673912
158	0x3f81fcce	1.0155275
159	0x3f82c5f4	1.021666
160	0x3f7d7a21	0.9901448
161	0x3f803fe3	1.0019497
162	0x3f89a007	1.0751961
163	0x3f722b12	0.9459697
164	0x3f7aa9c4	0.9791529
165	0x3f7db0cc	0.99097896
166	0x3f7ce238	0.9878268
167	0x3f810fb8	1.0082922
168	0x3f800605	1.0001837
169	0x3f815d62	1.0106623
170	0x3f823024	1.0170941
171	0x3f79680f	0.97424406
172	0x3f7c26d7	0.98496765
173	0x3f72c00e	0.948243
174	0x3f84325a	1.0327866
175	0x3f7da088	0.99073076
176	0x3f7b669b	0.9820344
177	0x3f7e7d43	0.99409884
178	0x3f807819	1.0036651
179	0x3f7d504f	0.98950666
180	0x3f74a0ac	0.95557666
181	0x3f846a17	1.0344876
182	0x3f826d59	1.018962
183	0x3f7b39fb	0.98135346
184	0x3f7b641b	0.98199624
185	0x3f827cd8	1.0194349
186	0x3f78e368	0.97221994
187	0x3f7fb113	0.9987957
188	0x3f753f90	0.95800114
189	0x3f782265	0.9692748
190	0x3f7f2913	0.9967205
191	0x3f806336	1.0030277
192	0x3f79bee0	0.9755688
193	0x3f817963	1.0115169
194	0x3f84f735	1.0387942
195	0x3f82d085	1.0219885
196	0x3f81c4f8	1.0138235
197	0x3f7b9b4e	0.9828385
198	0x3f7af382	0.98027813
199	0x3f7a941d	0.9788225

layers.2.bias f4 [200]
0	0x3dfc4e4f	0.12319624
1	0xbd0b5de3	-0.034025084
2	0x3dd5e76d	0.104445316
3	0x3e2c5126	0.1682783
4	0x3c1ddca4	0.009635124
5	0x3d8ea695	0.06965367
6	0xbabcecbf	-0.0014413818
7	0xbb420fcd	-0.0029611469
8	0x3cd53788	0.026027456
9	0xbdb8c81b	-0.09022542
10	0xbd5f20df	-0.054474708
11	0xbd15bacd	-0.0365551
12	0xbcefc3a7	-0.029268099
13	0xbd03bc82	-0.032162197
14	0x3c91d1d8	0.017800257
15	0x3b805881	0.0039168005
16	0xbd9469aa	-0.07246716
17	0xbc8e7f34	-0.01739464
18	0x3d34dab7	0.044153895
19	0x3e2d83e4	0.16944844
20	0x3d6b93b6	0.057513915
21	0x3d140ced	0.03614514
22	0x3c032a93	0.008005756
23	0x3ba8a8de	0.0051470837
24	0x3d132df3	0.035932492
25	0x3c9d94c8	0.019235983
26	0xbc6deaa9	-0.014521279
27	0xbc538515	-0.012910147
28	0xbb343b1d	-0.0027501055
29	0xbd6f1c2c	-0.058376476
30	0xbbc6d9f4	-0.0060684625
31	0xbd4ce52e	-0.05002325
32	0xbcfb4547	-0.030672682
33	0xbaf84e38	-0.001894421
34	0xbc641713	-0.013921517
35	0x3bc13186	0.005895796
36	0xbcbc16e3	-0.022960132
37	0x3a065853	0.00051248557
38	0x3cba8b81	0.022771599
39	0x3c399815	0.011327763
40	0xbd19d162	-0.0375532
41	0x3c44cd9c	0.012011912
42	0x3d077fd4	0.03308089
43	0xbd160e7c	-0.036634907
44	0xbc2615d6	-0.010137042
45	0x3c2fc923	0.010729107
46	0x3aba2d17	0.0014204112
47	0x3d91f83d	0.07127426
48	0xbc55f151	-0.013058023
49	0xbbcaa1ab	-0.006183823
50	0xbd114920	-0.035470128
51	0xbcad2e96	-0.021140378
52	0xbb14691d	-0.002264566
53	0x3e1f9ed0	0.15587926
54	0x3c71f363	0.014767501
55	0x3d17c8ea	0.03705684
56	0x3d653d6b	0.055966776
57	0x3c594216	0.013260385
58	0x3da5ddb0	0.08098924
59	0xb885bc94	-6.3770596e-05
60	0x3d2ed96d	0.042687822
61	0x3c87074f	0.016482977
62	0x3d9485c8	0.07252079
63	0xbd515f37	-0.051116195
64	0xbcfa13f6	-0.030527096
65	0x3d0795cd	0.033101846
66	0xbcc080e7	-0.023498965
67	0xbd0b7a9f	-0.034052487
68	0xbd0de793	-0.034644675
69	0xbca61edc	-0.020278387
70	0xbc540503	-0.012940648
71	0x3cc0ad06	0.023520004
72	0x3d65b4ca	0.056080617
73	0xbd28801a	-0.041137792
74	0x3cf2a4de	0.02961963
75	0xbcc67ac2	-0.024228457
76	0xbb8ae5a4	-0.004238801
77	0xbd1d1766	-0.038352393
78	0x3c4efdcf	0.012633755
79	0xbd447835	-0.0479662
80	0xbccef945	-0.025265345
81	0x3d4e6fbd	0.05039953
82	0x3c550041	0.013000549
83	0xbd5f882a	-0.054573216
84	0xbd369d1d	-0.04458343
85	0x3d6e2ff6	0.058151208
86	0x3d4d0cd1	0.05006105
87	0x3b927278	0.004469212
88	0x3cf9fde8	0.03051658
89	0x3e398b34	0.18119508
90	0xbca29a74	-0.01984904
91	0x3dbcca45	0.09218267
92	0x3c7d861a	0.015473867
93	0xbd469643	-0.048483144
94	0x3d344b7c	0.0440173
95	0xbd12ef85	-0.035872955
96	0xbb8114b5	-0.003939236
97	0xbcf7eba3	-0.030263728
98	0xbda3fabb	-0.080068074
99	0xbc381cd7	-0.011237345
100	0xbbd08e43	-0.006364615
101	0x3ce62bde	0.02809709
102	0x3d42db45	0.047572393
103	0xbba18e14	-0.004930267
104	0x3df504c0	0.119637966
105	0xbd37e56d	-0.04489653
106	0x3cce4042	0.025177125
107	0x3ccdfaef	0.025144069
108	0x3d0cfc33	0.034420203
109	0xbd9a89d5	-0.075458206
110	0xbcb2cd7f	-0.021826504
111	0x3d13b4b8	0.03606102
112	0xbd29105c	-0.041275367
113	0x3c9f6b98	0.019460484
114	0x3ca8448a	0.020540494
115	0xbb8fc5e7	-0.0043876055
116	0x3c13e5ca	0.009026954
117	0xbd7f1bb6	-0.062282287
118	0xbe018ec9	-0.12652124
119	0x3e0f3d96	0.13988337
120	0x3d2013e9	0.039081488
121	0x3dc6c1a8	0.09704906
122	0xbd951626	-0.07279615
123	0x3d73f1e8	0.05955687
124	0x3dc0b531	0.094095595
125	0x3db6f247	0.089329295
126	0x3dd1acd3	0.10238042
127	0xbd72d521	-0.059285287
128	0x3b52e5cc	0.0032180427
129	0xbd651e0a	-0.05593685
130	0xbd79e7d1	-0.061012093
131	0x3e256b52	0.1615422
132	0x3cae7bd7	0.021299286
133	0xbc3495ce	-0.011022044
134	0xbd2ae594	-0.04172285
135	0xbc7dc23a	-0.015488202
136	0xbcb1dc7e	-0.021711584
137	0xbd4189ea	-0.047250666
138	0xbcdeb044	-0.02718366
139	0xbdac387a	-0.084092095
140	0xbcd68982	-0.026188616
141	0xbbf33268	-0.0074217804
142	0x3db40c99	0.08791465
143	0xbce1e841	-0.027576568
144	0xbc324ca9	-0.010882535
145	0xbd443cf8	-0.047909707
146	0xbcaeae67	-0.021323396
147	0xbd3fd0b2	-0.046829887
148	0x3d92df35	0.071714796
149	0xba3742d9	-0.0006990857
150	0x3d41df9c	0.04733239
151	0x3dc63f0c	0.09679994
152	0x3bf3cde8	0.0074403174
153	0x3d6daf58	0.05802855
154	0xbd929757	-0.07157772
155	0xbbb0f8c4	-0.005400749
156	0x3e150f57	0.14556633
157	0x3d838841	0.06422473
158	0x37cd9970	2.4509354e-05
159	0xbcbd7cea	-0.023130853
160	0xbc8d24b3	-0.017229414
161	0xbda7486f	-0.081681125
162	0x3e01cbf1	0.12675454
163	0x3c2f0333	0.010681915
164	0xbd071024	-0.032974377
165	0xbd6c54d7	-0.057698097
166	0x3cba6cf2	0.022757027
167	0x3b2981d4	0.0025864737
168	0x3c054f6d	0.008136612
169	0x3dca1463	0.0986717
170	0x3bb9e347	0.0056728455
171	0x3d70d81c	0.058799848
172	0xbd826521	-0.06366945
173	0xbc2661cd	-0.010155153
174	0xbc95d6c1	-0.01829088
175	0x3e1bf46d	0.1522996
176	0x3d0adaa3	0.033899914
177	0xbde0eed7	-0.10983055
178	0xbc5466e0	-0.01296398
179	0xbcab0edc	-0.020881109
180	0xbcffa82b	-0.031208118
181	0x3e04aa3f	0.12955569
182	0x3c689da6	0.014197743
183	0xbc9cab17	-0.01912455
184	0xbc4dbe7c	-0.012557622
185	0xbc315de3	-0.010825607
186	0xbb73a712	-0.003717844
187	0xbc693334	-0.014233399
188	0xbcf9005b	-0.030395677
189	0x39fae14a	0.0004785157
190	0xbbfe2757	-0.0077561545
191	0xbd030278	-0.031984776
192	0x3b09bf25	0.0021018472
193	0x3dbf41bc	0.0933871
194	0xbc63869b	-0.013887073
195	0x39623543	0.00021572881
196	0x3df87ad6	0.12132804
197	0xbcda2c10	-0.026632339
198	0x3d773cb7	0.060360637
199	0xbd0d9fc5	-0.034576196

layers.2.running_mean f4 [200]
0	0x3d90c3e4	0.07068613
1	0x3e905a1a	0.28193742
2	0x3cab731c	0.020928912
3	0x3e379030	0.17926097
4	0x3e98ef65	0.29870144
5	0x3e9abdb5	0.3022286
6	0x3e8a8b57	0.27059433
7	0x3e3d0630	0.18459392
8	0x3e63c3fd	0.22242732
9	0x3eb031a8	0.34412885
10	0x3e56bb6f	0.20969938
11	0x3e825ea5	0.25462833
12	0x3eda59c8	0.42646623
13	0x3e50ba54	0.20383579
14	0x3e7f4433	0.2492836
15	0x3e2b8130	0.167485
16	0x3ea28924	0.31745255
17	0x3ddd6232	0.10809745
18	0x3eac58e9	0.33661583
19	0x3e30e6ab	0.17275493
20	0x3db3c1c8	0.08777195
21	0x3e32561b	0.17415659
22	0x3daeaf2e	0.085295066
23	0x3e957ea5	0.29198185
24	0x3d418dd4	0.0472544
25	0x3e3ba051	0.18322875
26	0x3ec24e33	0.37950286
27	0x3f086501	0.5327912
28	0x3e177c77	0.14793573
29	0x3ee1fdaf	0.44138858
30	0x3ed8d13c	0.42347133
31	0x3ec730f8	0.38904548
32	0x3e0b7baa	0.13621393
33	0x3e2f3b20	0.17112398
34	0x3e5d48c2	0.21609786
35	0x3e39b6a4	0.18136078
36	0x3e64bef6	0.22338471
37	0x3e705321	0.23469211
38	0x3e667c98	0.22508466
39	0x3e85073a	0.25982076
40	0x3e8772d2	0.26454788
41	0x3e2a9c83	0.16661267
42	0x3e1e7a48	0.15476334
43	0x3e17a77f	0.14809988
44	0x3ead30e6	0.3382637
45	0x3e80360a	0.2504123
46	0x3e98e521	0.2986231
47	0x3de09ed7	0.10967796
48	0x3e8681b8	0.26270843
49	0x3e966b85	0.29378906
50	0x3d7dbb44	0.06194617
51	0x3e83f618	0.25773692
52	0x3edb68fa	0.42853528
53	0x3e2f2adb	0.17106192
54	0x3dc9aa02	0.098468795
55	0x3e425e16	0.18981203
56	0x3e9f8144	0.3115331
57	0x3e1156ce	0.1419327
58	0x3e09ec0b	0.1346895
59	0x3e5c2a07	0.21500407
60	0x3ec3a0a1	0.38208488
61	0x3ebad6cd	0.36492005
62	0x3e0d0543	0.13771538
63	0x3e395de0	0.18102217
64	0x3ebd941b	0.37027058
65	0x3d882fee	0.06649767
66	0x3e203037	0.15643393
67	0x3e00182c	0.12509221
68	0x3ec10239	0.37697008
69	0x3ea44a1e	0.32087797
70	0x3ef5e581	0.4802666
71	0x3e51c81c	0.20486492
72	0x3e6c1c4e	0.23057672
73	0x3e58e32d	0.2118041
74	0x3e348498	0.17628706
75	0x3da58e29	0.080837555
76	0x3e483592	0.19551685
77	0x3e913479	0.28360346
78	0x3e33886d	0.17532511
79	0x3e003829	0.12521423
80	0x3e6fb5ec	0.23409241
81	0x3ec1dd0c	0.37863958
82	0x3ebe6371	0.37185243
83	0x3e587583	0.21138577
84	0x3e776b4b	0.24162023
85	0x3e43fdb6	0.19139752
86	0x3df363e7	0.11884289
87	0x3e379000	0.17926025
88	0x3e573823	0.21017508
89	0x3e659808	0.22421277
90	0x3e95ad96	0.29233998
91	0x3e5ee180	0.21765709
92	0x3ea22e45	0.31675926
93	0x3dcac59d	0.09900973
94	0x3eedbd33	0.4643341
95	0x3ec52a86	0.38509005
96	0x3e56d5ea	0.20980039
97	0x3e28bbf1	0.16477944
98	0x3e597dfe	0.21239468
99	0x3da5af96	0.08090131
100	0x3e8356b2	0.2565208
101	0x3d9be884	0.07612708
102	0x3e547c1b	0.20750467
103	0x3ec16897	0.37775108
104	0x3e19f21f	0.15033768
105	0x3e971b0c	0.29512823
106	0x3e0eed63	0.13957743
107	0x3dafdc4e	0.08586942
108	0x3ebfaf2f	0.37438342
109	0x3e3f2511	0.18666483
110	0x3ef3e732	0.47637326
111	0x3e78bf36	0.24291691
112	0x3d97ef54	0.07418695
113	0x3e48ab67	0.19596635
114	0x3ed64cae	0.41855377
115	0x3e47df07	0.19518672
116	0x3e49d121	0.19708683
117	0x3dd9350d	0.10605822
118	0x3f036ae4	0.5133498
119	0x3e5e337a	0.21699324
120	0x3da8c894	0.08241382
121	0x3dc837d5	0.09776274
122	0x3e928668	0.2861817
123	0x3dce95f5	0.10087196
124	0x3cc4c9cc	0.024022005
125	0x3ec0f1e6	0.37684554
126	0x3e7c1057	0.24615608
127	0x3ea9e9b6	0.3318612
128	0x3edfd290	0.43715334
129	0x3e6d58ab	0.23178355
130	0x3e947125	0.28992572
131	0x3e36a3c2	0.17835906
132	0x3dd467b3	0.103713416
133	0x3e4d39cd	0.2004158
134	0x3e292b19	0.16520347
135	0x3cffc797	0.031223102
136	0x3e6b7587	0.22994052
137	0x3eb9d9fe	0.36299127
138	0x3f022be2	0.5084821
139	0x3e2ab8ab	0.16672008
140	0x3e405675	0.1878298
141	0x3e985f24	0.29760087
142	0x3db3c5b7	0.087779455
143	0x3ea370ae	0.31921905
144	0x3e30f480	0.1728077
145	0x3e1553db	0.1458277
146	0x3dc60589	0.096690245
147	0x3e37a5c9	0.17934336
148	0x3de810a0	0.11331296
149	0x3dc32d95	0.095301785
150	0x3e6e0012	0.23242214
151	0x3e2b183d	0.16708465
152	0x3eadc0e0	0.33936214
153	0x3e28e3b6	0.16493115
154	0x3e70a477	0.23500238
155	0x3e756cfa	0.23967353
156	0x3e4f7c14	0.20262176
157	0x3de0c581	0.10975171
158	0x3ea1643b	0.31521782
159	0x3da59c6a	0.08086474
160	0x3e80a8c5	0.2512876
161	0x3e8d1882	0.2755776
162	0x3d02565c	0.03182064
163	0x3e9ddd30	0.30832815
164	0x3e95d2b0	0.29262304
165	0x3e31b66b	0.17354743
166	0x3ec09318	0.37612224
167	0x3e5ff38a	0.21870247
168	0x3de58f3d	0.11208961
169	0x3e74a8a0	0.2389245
170	0x3ec1347a	0.3773535
171	0x3ecc4284	0.39894497
172	0x3ed0e993	0.40803203
173	0x3e9bde43	0.3044301
174	0x3dd116d2	0.10209431
175	0x3e0396c0	0.12850475
176	0x3e7a876c	0.24465722
177	0x3e635961	0.22202064
178	0x3e7e54b1	0.24836995
179	0x3ea282ed	0.31740513
180	0x3e261eb6	0.16222653
181	0x3d9b2320	0.07575059
182	0x3de76bdc	0.112998694
183	0x3e53f290	0.20697999
184	0x3ec1793a	0.377878
185	0x3d2756dc	0.04085432
186	0x3ef05fb3	0.46948013
187	0x3e253777	0.1613444
188	0x3dbd302a	0.09237702
189	0x3e73f979	0.23825635
190	0x3e837ce5	0.25681224
191	0x3e4e1046	0.20123395
192	0x3e91404f	0.28369376
193	0x3e42d5b3	0.19026832
194	0x3e75b01a	0.23992959
195	0x3eb787db	0.35845837
196	0x3e065f4e	0.13122293
197	0x3ea38d19	0.31943586
198	0x3e256a6b	0.16153876
199	0x3ee81299	0.4532669

layers.2.running_var f4 [200]
0	0x3d9e745c	0.077370375
1	0x3e116e37	0.142022
2	0x3bd3fa11	0.006469019
3	0x3e0778c2	0.13229659
4	0x3e2346f2	0.15945032
5	0x3de97246	0.11398749
6	0x3daab327	0.08334952
7	0x3db13b0f	0.08653843
8	0x3db38929	0.087663956
9	0x3dfe2728	0.12409812
10	0x3e2e75a2	0.17037061
11	0x3decabcd	0.11556206
12	0x3e1bf285	0.15229233
13	0x3e035636	0.12825856
14	0x3dc40707	0.09571653
15	0x3dad8d53	0.08474221
16	0x3e3e5979	0.18588819
17	0x3d731168	0.05934277
18	0x3e186c58	0.1488508
19	0x3df8e9a8	0.121539414
20	0x3d32ae27	0.043623116
21	0x3e2e7bb3	0.17039375
22	0x3d53491d	0.051583398
23	0x3dceeec2	0.10104133
24	0x3d1d057c	0.03833531
25	0x3de0342e	0.109474525
26	0x3e136411	0.14393641
27	0x3e112c2b	0.14177005
28	0x3d40caca	0.047068395
29	0x3eadcb15	0.33944002
30	0x3e4a0a35	0.19730456
31	0x3e2eb516	0.17061266
32	0x3d7531a6	0.0598618
33	0x3d8d349e	0.068948016
34	0x3e19eb67	0.15031205
35	0x3e1cac7c	0.15300173
36	0x3de9c3c1	0.1141429
37	0x3e15811e	0.14600036
38	0x3e07d488	0.13264668
39	0x3e23d81a	0.16000405
40	0x3dd9b926	0.106310174
41	0x3da37911	0.07982076
42	0x3db5e67b	0.08881851
43	0x3d906762	0.07050969
44	0x3e100130	0.14062953
45	0x3e23de5c	0.16002792
46	0x3d20782b	0.0391771
47	0x3d62d9a9	0.05538336
48	0x3dc40eea	0.09573157
49	0x3e1277cc	0.14303511
50	0x3d3a91f9	0.045549367
51	0x3e18e54d	0.14931221
52	0x3de57f98	0.11205977
53	0x3e07da2a	0.13266817
54	0x3d4d5c59	0.050136898
55	0x3db1b087	0.08676248
56	0x3e1c9631	0.15291668
57	0x3d9dedaf	0.0771135
58	0x3dbd97f7	0.092575006
59	0x3e0a16d5	0.13485272
60	0x3e9ed915	0.31024995
61	0x3e63108d	0.22174282
62	0x3e16c343	0.14722924
63	0x3de92cb2	0.11385478
64	0x3e2a62c7	0.16639243
65	0x3d28d5e8	0.041219622
66	0x3dcd3b97	0.100211315
67	0x3deb4848	0.11488396
68	0x3e3fa957	0.18716942
69	0x3da14dc9	0.078761645
70	0x3e9a3c64	0.301242
71	0x3e18d5b7	0.14925276
72	0x3dce3511	0.10068715
73	0x3de32115	0.11090294
74	0x3ddf6b6c	0.10909161
75	0x3d8a150d	0.06742296
76	0x3e0c53d6	0.13703856
77	0x3dcf055f	0.10108446
78	0x3e0cff21	0.13769199
79	0x3da94f2f	0.08267056
80	0x3e152e26	0.14568385
81	0x3e595c7d	0.21226688
82	0x3e986277	0.29762623
83	0x3d972a9b	0.07381173
84	0x3e311e46	0.17296705
85	0x3df6d189	0.120516844
86	0x3df111d9	0.11770982
87	0x3dcda0a8	0.100404084
88	0x3e2fa49c	0.17152637
89	0x3df7e498	0.12104148
90	0x3e3b3aad	0.18284102
91	0x3e16c135	0.1472214
92	0x3e105954	0.14096576
93	0x3d687fb3	0.05676241
94	0x3e20c622	0.15700582
95	0x3def3d59	0.11681623
96	0x3e035fce	0.12829515
97	0x3dc22d5d	0.094813086
98	0x3dda1e63	0.10650327
99	0x3d317e7e	0.043333523
100	0x3d92c736	0.07166903
101	0x3d19d06b	0.03755228
102	0x3e04520b	0.12921922
103	0x3e39c5fd	0.18141933
104	0x3da19b43	0.07890942
105	0x3e33f43b	0.17573635
106	0x3ddc3d18	0.1075384
107	0x3d8376d3	0.06419148
108	0x3e5d9535	0.21638949
109	0x3e016770	0.12637115
110	0x3e00b52a	0.12569109
111	0x3e11b859	0.1423048
112	0x3d376e12	0.044782706
113	0x3e032f06	0.12810907
114	0x3e08b375	0.13349707
115	0x3db73c75	0.08947078
116	0x3dfcaf92	0.12338175
117	0x3d4b7c37	0.049679007
118	0x3ec981d2	0.39356858
119	0x3dbdbb3f	0.0926423
120	0x3d53970f	0.051657733
121	0x3dbcd79b	0.09220811
122	0x3e370850	0.17874265
123	0x3d60d897	0.054894056
124	0x3beef4a1	0.0072923456
125	0x3e234aaa	0.15946451
126	0x3db2ecb6	0.08736555
127	0x3e2bfe30	0.16796184
128	0x3e3d6cd9	0.18498553
129	0x3de4ff90	0.11181557
130	0x3e1088bb	0.14114659
131	0x3ddc58b4	0.10759106
132	0x3db2bb13	0.08727088
133	0x3d248ea7	0.040175106
134	0x3dcb9828	0.09941131
135	0x3c937ee8	0.01800485
136	0x3e45f2fe	0.19330975
137	0x3e4acada	0.19803944
138	0x3e5b5572	0.21419314
139	0x3db51713	0.08842292
140	0x3ddd31bd	0.108005024
141	0x3e0c4fa7	0.1370226
142	0x3d3f940c	0.046772048
143	0x3e3096dd	0.1724505
144	0x3dc777d5	0.09739653
145	0x3dc366be	0.09541081
146	0x3d483fb1	0.048888866
147	0x3dba38a4	0.090928346
148	0x3dbba64e	0.091625795
149	0x3d89a169	0.0672024
150	0x3e11d248	0.14240372
151	0x3deb0d1e	0.11477111
152	0x3dfc4653	0.12318101
153	0x3e27ca4d	0.16385765
154	0x3e2142d1	0.15748145
155	0x3ddf4e6d	0.109036304
156	0x3e003c3e	0.1252298
157	0x3d481c8d	0.048855353
158	0x3db87e19	0.09008426
159	0x3d4c0d87	0.04981759
160	0x3e1b68b1	0.15176655
161	0x3e22bb12	0.15891674
162	0x3c532ab0	0.012888595
163	0x3e23c055	0.15991338
164	0x3e07f077	0.13275324
165	0x3dfb50de	0.122712836
166	0x3e5e76d9	0.21725024
167	0x3e48e849	0.1961986
168	0x3d9c5b6f	0.07634627
169	0x3e15ad90	0.1461699
170	0x3d130e04	0.03590204
171	0x3e6d0c84	0.23149306
172	0x3e27b236	0.16376576
173	0x3de4dc51	0.111748345
174	0x3d8af3f8	0.067848146
175	0x3d7fde06	0.062467597
176	0x3e4b1e98	0.1983589
177	0x3debb84a	0.1150976
178	0x3e1e263e	0.15444276
179	0x3e536077	0.20642267
180	0x3d8435ab	0.06455549
181	0x3d8f3c1e	0.06993888
182	0x3d82adc2	0.06380798
183	0x3e7f7b89	0.24949469
184	0x3dc31be2	0.095268026
185	0x3c9f77f5	0.01946638
186	0x3e3c081f	0.18362473
187	0x3e12200b	0.14270036
188	0x3d7bd779	0.061484788
189	0x3e01ac59	0.12663402
190	0x3e45de7e	0.19323155
191	0x3d92dd15	0.07171074
192	0x3dfa8446	0.122322604
193	0x3e42613c	0.18982404
194	0x3dc19c53	0.094536446
195	0x3dcdba31	0.10045279
196	0x3d9c0298	0.07617682
197	0x3dcc60af	0.099793784
198	0x3dc25bd1	0.09490169
199	0x3e576982	0.21036342

layers.4.weight f4 [100, 200]
0	0x3e01ec18	0.12687719
1	0x3de62460	0.11237407
2	0xbc8dc505	-0.01730586
3	0x39ae8890	0.00033289613
4	0x3da5cdf0	0.0809592
5	0xbd636392	-0.05551488
6	0xbd5fe2e7	-0.05465975
7	0x3c540027	0.012939489
8	0xbc285791	-0.010274784
9	0xbde12004	-0.109924346
10	0xbc337b2a	-0.010954658
11	0x3ccec615	0.025240937
12	0xbd325822	-0.04354108
13	0x3d3b6fba	0.045760848
14	0xbc9da469	-0.019243436
15	0x3d4f1575	0.050557572
16	0x3da2a7e2	0.07942177
17	0x3cf66422	0.030077044
18	0xbd9ac161	-0.07556415
19	0x3d684832	0.056709476
20	0x3cb0cd65	0.021582315
21	0x3d6a6618	0.05722627
22	0x3cc142d3	0.023591435
23	0xbd861ece	-0.06548844
24	0x3da32489	0.07965953
25	0x3d2246e4	0.039618388
26	0xbd26e952	-0.040749855
27	0xbd0282da	-0.03186307
28	0xbd95c202	-0.07312395
29	0x3d0d1e71	0.03445286
30	0xbccf82ae	-0.025330868
31	0xbd644288	-0.05572751
32	0x3cf05726	0.02933843
33	0x3d751b68	0.05984059
34	0x3c128190	0.008942023
35	0x3d7d07fb	0.06177519
36	0x3c69f12c	0.014278691
37	0xbbd58a20	-0.00651671
38	0x3d0f9d9f	0.03506243
39	0x3c6debff	0.014521598
40	0xbd0aca6f	-0.033884462
41	0x3cc24b61	0.023717584
42	0x3d812ce8	0.06307393
43	0x3c877224	0.016533919
44	0xbdcf0581	-0.10108472
45	0x3d8fb640	0.07017183
46	0xbe1328c4	-0.1437102
47	0x3d3718bf	0.044701334
48	0xba5cc6bb	-0.0008421947
49	0x3c003060	0.0078240335
50	0xbd1da778	-0.03848979
51	0xbc085989	-0.008322128
52	0x3cfe8f2f	0.031074135
53	0x3e05d8e7	0.13071023
54	0x3cb0f70e	0.02160218
55	0xbc89a5c8	-0.016802683
56	0xbba6480a	-0.0050745057
57	0x3cf922dd	0.030412132
58	0x3d375ab2	0.04476423
59	0xbd79e167	-0.061005976
60	0xbcc0c48a	-0.023531217
61	0x3c87f6b0	0.016597122
62	0x3d5c5644	0.053793207
63	0x3cfaa40c	0.030595802
64	0xbcff9cf9	-0.03120278
65	0xbbb18c2e	-0.005418322
66	0xbd8c78ad	-0.068589546
67	0x3d02217d	0.03177022
68	0xbd64fd16	-0.055905424
69	0xbd1c9ed6	-0.038237415
70	0x3cf6cf7a	0.03012823
71	0xbd70866f	-0.058721956
72	0x3bad9af2	0.005298012
73	0xbda505e8	-0.08057767
74	0x3d5e81a8	0.05432287
75	0xbd334d15	-0.043774683
76	0x3ddea83a	0.108719304
77	0xbd80ac2d	-0.0628284
78	0x3c0d2faf	0.008617326
79	0x3c92dfc1	0.01792896
80	0xbcb05d5e	-0.021528896
81	0xbcf9a718	-0.030475184
82	0x3cd85330	0.026406854
83	0x3cb38293	0.021912849
84	0x3daece7a	0.08535476
85	0x3c7cb103	0.015423062
86	0x3d642f06	0.055708908
87	0x3d26596f	0.040612634
88	0x3d9590b1	0.07302988
89	0xbd9e6504	-0.07734111
90	0xbc857c4e	-0.016294625
91	0xbd47b4f9	-0.048756573
92	0xbd5416a8	-0.05177942
93	0x3dd9a9aa	0.10628064
94	0x3cce2284	0.025162943
95	0xbdd5ba45	-0.10435919
96	0x3d9315ad	0.07181869
97	0xbd07be57	-0.033140507
98	0xbd7ad23b	-0.061235648
99	0x3d1ecba1	0.038768414
100	0x3aac01e1	0.0013123119
101	0x3ddd1761	0.10795475
102	0x3c0428ce	0.008066369
103	0xbdb84a7b	-0.08998581
104	0xbcd853bf	-0.02640712
105	0x3d1e8e01	0.038709644
106	0x3da16582	0.07880689
107	0x3d817e98	0.06322974
108	0xbd0d539c	-0.034503564
109	0xbd5091aa	-0.050920166
110	0xbb020cec	-0.0019844128
111	0x3d1889c5	0.037240762
112	0x3d55f3c3	0.052234422
113	0x3ce85d65	0.028364846
114	0x3c2c1efa	0.010505432
115	0xbceea801	-0.029132845
116	0xbd962e40	-0.0733304
117	0xbcf369d9	-0.029713558
118	0xbb145a0e	-0.0022636685
119	0xbd149173	-0.036271524
120	0x3d86d144	0.06582883
121	0x3cf20b5e	0.029546436
122	0xbc960406	-0.018312465
123	0xbcc15768	-0.023601249
124	0x3dce334a	0.10068376
125	0xbc40bcf2	-0.011763798
126	0xbd18acda	-0.03727422
127	0x3d10159a	0.03517685
128	0x3caf0c2a	0.021368105
129	0xbdca6882	-0.098832145
130	0xbba474a6	-0.0050187884
131	0xbcaa75ce	-0.020808127
132	0x3d267f60	0.040648818
133	0xbcaeb7b3	-0.021327829
134	0x3dbcb748	0.092146456
135	0x3dc26a16	0.094928905
136	0x3de45681	0.11149312
137	0x3d28e536	0.041234218
138	0xbdc1e061	-0.09466625
139	0x3d1d2f76	0.03837534
140	0x3d285cf4	0.041104272
141	0xbd15c853	-0.036567997
142	0x3da407aa	0.08009274
143	0xbcae24f3	-0.021257853
144	0x3d10b590	0.0353294
145	0xbd6f87e0	-0.05847919
146	0x3d5ca46d	0.053867746
147	0x3d10efd2	0.03538496
148	0xbab99930	-0.0014160033
149	0x3da19a9f	0.0789082
150	0x3da3eb05	0.08003811
151	0x3d91c774	0.07118121
152	0xbcbf2674	-0.023333766
153	0x3d8df147	0.069307856
154	0x3ce09a2a	0.027417261
155	0xbd82ae7d	-0.06380937
156	0x3d025e63	0.031828295
157	0x3ca61347	0.020272864
158	0xbd846cd3	-0.06466069
159	0x3d8dfbc0	0.06932783
160	0x3d9f4dff	0.077785484
161	0xbd89712c	-0.06711039
162	0x3daf2abc	0.08553073
163	0x3b9254c6	0.004465672
164	0x3cfd9a04	0.03095723
165	0x3ce4eb85	0.027944336
166	0xbda4c568	-0.08045465
167	0x3d2207e5	0.03955831
168	0xbda970c0	-0.082734585
169	0xbc525779	-0.012838238
170	0x3c7d359e	0.015454678
171	0x3d91ab13	0.07112708
172	0xbbbc6395	-0.005749176
173	0xbcc4582e	-0.023967829
174	0x3bbc5e2a	0.00574853
175	0x3d1bf69f	0.038076993
176	0xbc2a600c	-0.010398876
177	0xbdbebe41	-0.09313632
178	0x3d6d2897	0.057900038
179	0xbd55a966	-0.052163504
180	0xbe06fe9a	-0.1318306
181	0x3de38675	0.1110963
182	0xbd1246a4	-0.0357119
183	0xbd4885e9	-0.04895583
184	0x3c0493fe	0.008091925
185	0xbcf718f5	-0.030163268
186	0x3a9d23ee	0.0011988857
187	0x3c7b5336	0.015339663
188	0x3cf7354b	0.03017678
189	0xbd25ed88	-0.04050973
190	0x3d17a0cf	0.037018593
191	0x3d46beec	0.04852192
192	0xbd333a31	-0.043756668
193	0x3cfa6ec8	0.030570403
194	0xbdab98bb	-0.083787404
195	0xbcb41b36	-0.021985631
196	0xbd1345d0	-0.03595525
197	0xbd68574f	-0.05672389
198	0x3beac04e	0.007164038
199	0x3cb84566	0.02249403
200	0xbe0fe3df	-0.1405177
201	0xbd26f010	-0.040756285
202	0xbdb4daed	-0.08830819
203	0xbc31b8a3	-0.0108472435
204	0x3d24b28d	0.04020934
205	0x3d001a50	0.031275094
206	0xbdb0ecca	-0.08638914
207	0x3d212f63	0.039351832
208	0x3dae209b	0.08502313
209	0x3b57edd3	0.003294815
210	0x3ae66d68	0.0017580213
211	0x3ceb0b56	0.028691929
212	0x3dcc2871	0.09968651
213	0xbca7763b	-0.020442119
214	0xbaec6e50	-0.0018038247
215	0xb9dd4c7c	-0.0004220939
216	0xbd094bb7	-0.033519473
217	0x3d5d2edc	0.053999767
218	0xbd7248f8	-0.05915162
219	0xbda0a816	-0.0784456
220	0xbd80a062	-0.062805906
221	0xbd6fd917	-0.058556642
222	0xbd3f044b	-0.046634953
223	0x3baffb26	0.0053705154
224	0x3b965e37	0.004588868
225	0x3bf0b3b2	0.00734564
226	0x3c4dcf4e	0.012561632
227	0xbcdbc1df	-0.026825843
228	0x3d27159b	0.04079209
229	0xbd6b761b	-0.05748568
230	0x3c9a6dea	0.01885124
231	0x3c8961fb	0.016770354
232	0x3d62e4b7	0.0553939
233	0x3d445f5c	0.047942504
234	0xbd2bbc79	-0.04192779
235	0xbcfcfb51	-0.030881556
236	0x3c2b8aa6	0.010470068
237	0x3d086b7c	0.03330563
238	0x3d16dd17	0.03683194
239	0xbccd83c9	-0.025087254
240	0xbd5eb640	-0.054373026
241	0x3d00b846	0.031425737
242	0xbdcf7208	-0.101291716
243	0x3d53ad34	0.05167885
244	0x3d3e634a	0.04648141
245	0x3d83f23e	0.064426884
246	0x3cb54cd2	0.022131357
247	0xbd9b9b6c	-0.07598004
248	0xbc2e9cbc	-0.010657486
249	0x3c4e7d71	0.01260315
250	0xbcf3a744	-0.029742844
251	0x3b9f4fbf	0.0048618014
252	0x3d7a25a7	0.061071064
253	0xbe0563cc	-0.1302635
254	0xbd2d035d	-0.042239536
255	0x3d0bdf58	0.034148544

layers.4.bias f4 [100]
0	0x3c4975a3	0.012296113
1	0x3e20a8e2	0.15689424
2	0x3e0661c4	0.13123232
3	0x3d36bd8d	0.044614363
4	0x3def5015	0.11685196
5	0x3d56463e	0.052313082
6	0xbd5828a0	-0.052773118
7	0x3d41e6ee	0.047339372
8	0x3e2e6e9c	0.17034382
9	0xbd0cd913	-0.034386706
10	0xbd1f758d	-0.038930465
11	0xbe06d29b	-0.13166277
12	0x3dda7a27	0.1066783
13	0xbcb01c77	-0.021497948
14	0x3e005856	0.12533697
15	0x3de8beb7	0.11364501
16	0x3d641a2c	0.055689022
17	0x3d0d5859	0.034508083
18	0x3e04c762	0.12966684
19	0xbd0ce710	-0.034400046
20	0x3c972789	0.018451469
21	0xbb2853c9	-0.0025684705
22	0x3e3b0558	0.18263757
23	0x3e52123d	0.2051477
24	0x3e3eb13d	0.18622299
25	0x3d851f32	0.06500091
26	0xbd666cfc	-0.05625628
27	0x3e5782a0	0.21045923
28	0x3d8135b5	0.06309072
29	0x3dd52bb0	0.10408723
30	0x3d00c0b1	0.031433765
31	0xbd79e439	-0.061008666
32	0xbd079321	-0.033099297
33	0x3e577ea7	0.21044408
34	0xbb5dce53	-0.0033844903
35	0x3d258e89	0.040419135
36	0xbca03717	-0.019557519
37	0x3d5fa954	0.054604843
38	0xbd022a37	-0.03177854
39	0x3d903f2a	0.070432976
40	0x3e245af7	0.16050325
41	0xbb143e43	-0.0022620119
42	0x3d065aec	0.032801554
43	0x3d179fe7	0.03701773
44	0x3e2772d7	0.16352402
45	0x3dd3e333	0.10346069
46	0x3e5142d3	0.20435648
47	0x3e0a79eb	0.1352307
48	0x3d04da4f	0.032434758
49	0x3d1e668f	0.038672026
50	0x3dafc0ae	0.085816726
51	0x3e324093	0.17407446
52	0x3d24b9e4	0.04021634
53	0xbe028400	-0.12745667
54	0x3e251dd4	0.1612466
55	0x3defcc51	0.11708892
56	0xbd2c067f	-0.041998383
57	0x3dad5351	0.08463157
58	0x3e3b8952	0.18314102
59	0x3dfd3556	0.12363689
60	0x3d4d9b32	0.050196834
61	0xbdb0a1f2	-0.086246386
62	0x3dbdb7e7	0.09263592
63	0x3d49be8d	0.04925399
64	0x3e2bf5d9	0.16793002
65	0x3d457f13	0.04821689
66	0x3da8acba	0.0823607
67	0x3d504146	0.0508435
68	0xbd293993	-0.041314673
69	0x3c968c9f	0.0183776
70	0xbbeafa28	-0.007170934
71	0x3e18ba2f	0.14914773
72	0x3e2cd857	0.16879402
73	0x3d950c64	0.07277754
74	0x3e048106	0.12939844
75	0x3ccda9f0	0.025105447
76	0x3c5188e8	0.012788989
77	0x3e437a7e	0.19089696
78	0xbe00a347	-0.12562285
79	0x3d830535	0.063974775
80	0xbbd69907	-0.006549004
81	0x3d81c83c	0.0633702
82	0x3d4f44a9	0.05060259
83	0xbdaff54d	-0.08591709
84	0x3d572564	0.052525893
85	0xbdbd437c	-0.09241387
86	0x3d192509	0.037388835
87	0x3d74c0c4	0.059754148
88	0x3ce0d087	0.027443184
89	0x3b2e5df2	0.0026606289
90	0x3da7a4d9	0.08185739
91	0x3d4cbc50	0.049984276
92	0x3d983cf7	0.07433503
93	0x3d6fda3c	0.058557734
94	0x3e106d58	0.14104211
95	0x3df3db18	0.11907023
96	0x3d85ef88	0.065398276
97	0x3db1aac1	0.08675147
98	0x3ce07624	0.027400084
99	0x3db9a6f1	0.09065045
