review_pytorch/regression_projects/taxi_fees/Taximodel.pt (torch, 114896 bytes, 21 tensors)

embeds.0.weight f4 [24, 12]
000000 46 3e e9 3e 04 40 dc bd 96 4f 01 bf c4 3e 12 3f
       0.45555323 -0.107543975 -0.50512064 0.5712702
000010 c6 86 2e 3f a4 c4 f8 be e4 0f bb 3f 79 c7 38 3e
       0.681744 -0.48587525 1.4614224 0.18044843
000020 ca 92 a3 bf b6 2f a9 3f 60 c6 c1 3e 50 07 7e be
       -1.2779171 1.3217685 0.3784666 -0.24807477
000030 14 af c2 3d 7f e5 a9 bf 06 34 85 3e 9e 37 24 3f
       0.0950605 -1.3273162 0.26016253 0.64147365
000040 36 fd a6 be 60 12 b3 bf 77 07 8d 3f 2b d0 12 bf
       -0.3261506 -1.3989983 1.1017903 -0.5734889
000050 a1 c8 6b 3e 23 63 a2 3f 3a 45 07 bf 9c 70 e6 3e
       0.23025753 1.2686504 -0.52840006 0.4500779
000060 34 5a c7 3e 9f 42 9f bf ff 46 de be 3d de 9f 3e
       0.38936007 -1.2442206 -0.4341354 0.31224242
000070 57 ba 75 be fb 1b 47 bf 47 ce b3 bf 64 2b 8e bf
       -0.23996864 -0.7777707 -1.4047326 -1.1106992
000080 ee 04 83 bf 4f 4a ce 3e 27 2e 86 bf 06 75 40 3f
       -1.023588 0.40291068 -1.0482835 0.75178564
000090 21 10 9e bf 8c 0a aa be 59 a9 8e bf e2 30 ac 3f
       -1.2348672 -0.33211172 -1.1145431 1.3452418
0000a0 30 e7 33 be 6c 9c 82 3e 76 0a fd 3e af bd 4f 3f
       -0.1756866 0.25509965 0.49422044 0.8114881
0000b0 96 96 ec 3e 9f e7 9c 3d 88 f6 ef 3d a5 c1 62 be
       0.46208638 0.07661366 0.11716944 -0.22144182
0000c0 58 23 87 bf e6 8b 80 bf b0 98 b3 3f 81 63 a5 bf
       -1.0557661 -1.0042694 1.4030972 -1.2920991
0000d0 a6 48 86 be 05 bc cc bf d3 b8 8b be 09 ac 96 3f
       -0.262273 -1.5994879 -0.27289447 1.1771251
0000e0 89 35 69 3d 75 18 22 bf 99 0b 5a 3f 47 47 ea 3e
       0.05693582 -0.6331857 0.85173947 0.45757505
0000f0 e6 79 7d 3e a7 8e 9e be aa f4 37 3f 51 9a 28 c0
       0.24753532 -0.3096821 0.718577 -2.6344187
000100 75 a7 80 bd e6 d0 13 c0 04 03 dd bf 72 31 db 3d
       -0.0628194 -2.3096251 -1.7266545 0.1070279
000110 9e a5 87 bf e5 1a 25 3f d5 f6 27 3e 60 0b 49 3f
       -1.0597417 0.6449416 0.16402753 0.7853298
000120 61 7a 89 3e 3e 26 8c 3f 89 04 1f 3f 23 50 15 bf
       0.2685118 1.094917 0.62116295 -0.58325404
000130 f4 d2 28 bf 02 3a 05 bf 28 f2 15 3f 91 7f ed bd
       -0.6594689 -0.5204164 0.58572626 -0.11596597
000140 d8 27 c3 3f 01 56 a5 bf 6c fd 0c be ee 0c 9a 3f
       1.5246534 -1.2916871 -0.13768548 1.2035196
000150 58 ec da 3f a3 42 34 be 05 6e ea 3d 94 3c 8b bf
       1.7103376 -0.17603545 0.11446766 -1.0877862
000160 57 6b 3c bf c9 06 4f 3d 4b 6f 27 3f 9b eb 98 bf
       -0.7360129 0.05054358 0.65404195 -1.1946901
000170 25 04 16 bf ba e3 70 bf 21 18 0c bf 08 97 8f bf
       -0.58600074 -0.94097483 -0.5472432 -1.1217966
000180 63 d2 22 bf c3 1e 70 bf 51 1a 28 40 eb 6d ae 3f
       -0.63602275 -0.9379694 2.6266062 1.3627294
000190 9a 19 4d 3d ce 38 2f bf 7d 06 03 bf 85 3b 0b 3e
       0.050073244 -0.6844605 -0.51181775 0.13596924
0001a0 5a d9 0e 3f b7 0a 9e 3f 4a 27 e2 3e ea 55 01 bf
       0.558004 1.234702 0.441706 -0.5052172
0001b0 f1 8b 87 3f db fe 02 be 18 bb 91 3f 28 db d8 bd
       1.0589582 -0.12792532 1.1385221 -0.10588676
0001c0 ab e9 a1 bf 9a 5d 10 3f 94 bd 88 be 1b ee 83 bf
       -1.2649435 0.56392825 -0.26707137 -1.0307039
0001d0 fd 19 5d 3f b5 84 bf 3f 94 f8 a2 bf 9e 10 95 3e
       0.8636778 1.4962374 -1.273211 0.2911424
0001e0 26 b9 a5 be 8a a3 c2 3f dc 51 ca be 32 42 6f be
       -0.3236782 1.5206158 -0.3951558 -0.23365095
0001f0 2d 25 1c 3f 3b be 59 bf e5 89 77 bf cb a2 27 3f
       0.60994226 -0.85055894 -0.96694785 0.6548278
000200 5d 57 d9 3e 3b bc fa be e7 e4 dc bf e9 8c 0f bf
       0.42449465 -0.48971733 -1.7257355 -0.56074387
000210 68 30 bb 3e 38 db 5e 3f bf c6 46 bf cb 8b ea 3f
       0.3656037 0.8705325 -0.7764701 1.8323911
000220 ea 33 5c 3f 98 71 6d 3f 7f b5 6b 3f d1 68 76 bf
       0.86016715 0.92751455 0.92073816 -0.9625369
000230 ad e8 a5 bf ea 9b fe bf 91 e7 2f 3c 05 07 20 bf
       -1.2961632 -1.9891331 0.010736362 -0.6251071
000240 f8 33 b5 bf c3 9e 56 be 72 12 62 3f 21 50 61 3f
       -1.4156485 -0.20959 0.88309395 0.8801289
000250 6d 84 80 bb ed 9f 8d 3f 6b 6b 76 bf 52 14 10 40
       -0.0039220364 1.106443 -0.96257657 2.2512403
000260 12 a2 39 be 16 36 a8 3e d6 a5 a3 3f 30 fb b5 bf
       -0.18128231 0.32853764 1.2784984 -1.4217281
000270 94 b3 e4 3f 7d bb a9 3e 71 f9 34 bf a6 e4 70 bf
       1.7867303 0.33150855 -0.7069312 -0.9409889
000280 f1 da 63 bf f6 b3 f6 bd c6 63 6e 3e 8b cb dd 3e
       -0.89005953 -0.120460436 0.23280248 0.43319353
000290 b8 7d 81 bd 8a fd 15 3d 32 cb d2 bf da 77 cd bf
       -0.06322807 0.036618747 -1.646826 -1.6052201
0002a0 ec f3 4c 3e 52 7f b4 bf 6b 25 8c 3f 62 9a 74 3f
       0.20014924 -1.4101355 1.0948919 0.9554807
0002b0 6b 9f d7 bf 55 d2 34 3d 6e 53 ac 3f bf 9b 5f be
       -1.6845526 0.0441459 1.3462961 -0.21836756
0002c0 a5 82 86 bf db 58 c3 3e 28 da 84 3f 1f ba 47 bf
       -1.050862 0.3815373 1.0379076 -0.78018373
0002d0 db 68 8b bd 83 05 93 be 7f 95 6d bd 11 ff c6 3d
       -0.06807109 -0.28715143 -0.0580039 0.09716619
0002e0 85 e9 66 3f 60 e9 86 3f 98 f8 4d be e0 f5 f1 bf
       0.9020007 1.053997 -0.20114362 -1.890316
0002f0 ed 65 38 3e 40 5c 54 bf 46 d6 cb bf de 70 4a bf
       0.18007632 -0.8295326 -1.5924766 -0.7907847
000300 0b 39 b0 bf 2c 6c b3 bf da b4 1f bf 3f e5 b5 bf
       -1.3767408 -1.4017386 -0.6238533 -1.4210585
000310 4f 3e 7a bf ed 15 0d bd 25 85 98 3f ec 69 e0 3f
       -0.97751325 -0.03444474 1.1915632 1.7532325
000320 cd 3a 04 be 30 14 89 3e 3e 75 a3 be 4e 90 a6 be
       -0.12913056 0.26773214 -0.31925386 -0.3253197
000330 a9 57 ba be 16 cb 06 c0 c5 06 76 bf 97 24 9f bf
       -0.36395004 -2.1061454 -0.9610408 -1.2433041
000340 43 cc c2 3d 3a 62 e6 3e 94 b1 c7 bf 7b da 4d be
       0.09511616 0.44996816 -1.5601068 -0.20102875
000350 9c da 3a bf a3 33 d9 be 92 19 00 bf 11 e5 a2 3f
       -0.7298982 -0.42422208 -0.5003902 1.2726156
000360 9d a2 d7 bf 0a 4f 3e bf 37 fa 00 bf 35 9d 78 bf
       -1.6846501 -0.74339354 -0.503818 -0.9711488
000370 dc 52 4f 3f cb 3f a1 be ff c9 df 3e 9f 7c fc bd
       0.8098581 -0.31493983 0.43708798 -0.12328457
000380 e4 46 7e bf 36 2a cd 3d 5b 73 8a bf c0 5f 6c bf
       -0.9932692 0.10017817 -1.0816454 -0.923336
000390 48 75 c0 bf d7 cf bd 3e b5 1d 6c bf 33 c7 97 be
       -1.5035791 0.37072632 -0.9223283 -0.29644164
0003a0 88 67 b6 3e f0 9f 66 3e 5c e2 f8 3f 45 84 8b be
       0.35625863 0.22521949 1.9444079 -0.2724935
0003b0 3d 58 a9 3f 81 e0 c9 be 18 a9 b3 3b 41 bb 9a 3f
       1.3230053 -0.39429095 0.005482804 1.2088395
0003c0 35 9a ee bf 7f 04 06 bf 6c f4 60 bb f2 1c 12 bf
       -1.864081 -0.5235061 -0.0034325374 -0.5707542
0003d0 10 32 a3 be e9 78 4f 3c d6 3e 25 bf 38 c9 24 c0
       -0.31874132 0.012663105 -0.64549005 -2.5747814
0003e0 15 55 01 3f 3e 04 09 3f e2 73 5f bf 58 73 7a 3f
       0.5052045 0.535221 -0.872862 0.9783225
0003f0 4e 6e 9d bf 14 b5 27 be ba ea 8a bf 8a 9f e3 be
       -1.2299287 -0.1637767 -1.0852883 -0.44457656

embeds.1.weight f4 [2, 1]
000000 a0 49 9f bd 33 0c 69 3e
       -0.07777715 0.2275856

embeds.2.weight f4 [3, 2]
000000 0d ae b5 bb d2 ca 78 3f 93 2e a9 3d ad 0d 21 3f
       -0.00554443 0.9718448 0.082608365 0.6291149
000010 47 ad 13 bf 1b f9 a2 bf
       -0.57686275 -1.2732271

embeds.3.weight f4 [7, 4]
000000 26 e5 e2 3d 55 15 55 bf ec a9 0d be 6d 3a ac bf
       0.11078863 -0.83235675 -0.13834351 -1.345533
000010 9a b7 49 3f f0 5c 80 bf 5f f5 12 3f 85 e4 09 3e
       0.7879578 -1.0028362 0.57405657 0.1346608
000020 e3 c8 d3 bf 62 1a 37 3e dc 55 03 be 66 e8 b4 3f
       -1.6545681 0.17881158 -0.12825722 1.4133422
000030 a5 fa 48 bf a0 f2 74 bf 6d f3 cf bf 0e 78 9e 3e
       -0.78507453 -0.95682716 -1.6246163 0.3095097
000040 16 1d aa 3c d4 28 89 3f 7d 57 97 3f fc ce cd be
       0.020765822 1.0715585 1.1823574 -0.4019698
000050 5b 50 1c be 3e fa 5c bf b7 03 b5 bf ec 0e 69 bd
       -0.15265028 -0.8631934 -1.4141759 -0.056898996
000060 f6 f6 47 bf 6a 9c f0 3e eb 21 8d 3e f5 7a 16 bf
       -0.7811121 0.46994334 0.2756494 -0.5878137

bn_num.weight f4 [6]
000000 dd eb 7c 3f 78 06 90 3f 65 f6 83 3f b2 20 98 3f
       0.987974 1.1251974 1.0309569 1.1884978
000010 22 2f 59 3f c7 75 8b 3f
       0.84837544 1.0895318

bn_num.bias f4 [6]
000000 26 5c 72 bd 53 f7 35 bd c2 33 9d bd 4e 4d ac 3d
       -0.05916991 -0.04442532 -0.07675888 0.08413182
000010 00 22 95 bd 77 9e 12 be
       -0.072818756 -0.14318262

bn_num.running_mean f4 [6]
000000 b8 f4 93 c2 7c 01 23 42 ac f3 93 c2 dc 01 23 42
       -73.97797 40.75145 -73.97592 40.751816
000010 62 0c ac 3f 03 31 27 40
       1.3441279 2.6123664

bn_num.running_var f4 [6]
000000 b9 58 82 3a b3 88 2c 3a b1 be 8a 3a 05 e9 6f 3a
       0.0009944654 0.0006581649 0.0010585395 0.0009151849
000010 ca 17 11 3f cc c7 36 41
       0.56676924 11.423779

layers.0.weight f4 [200, 25]
000000 ac 75 ef 3d 02 54 de bd 6d f4 44 bd 6a c9 ac 3d
       0.11692366 -0.10855867 -0.048084665 0.08436854
000010 94 ca 47 bd 2c f2 f2 bc 0b 70 38 3c 2f 96 cc bc
       -0.048777178 -0.029656492 0.011257182 -0.024973957
000020 1f 0c 6e bd c3 10 bf 3d be 32 ea bd 52 3c b3 bc
       -0.05811703 0.09329369 -0.114354596 -0.021879349
000030 07 b3 37 3d 2d 1c ed bd 13 dc 59 3d e2 16 d4 3d
       0.04484847 -0.1157764 0.053188395 0.10355927
000040 90 24 83 3d 4d bc 79 3d 01 73 b7 3d d6 61 09 3e
       0.06403458 0.060970593 0.08957482 0.13416228
000050 6d 74 99 ba af ce 97 bd 05 39 64 be 02 7e 19 be
       -0.0011707671 -0.07412469 -0.22287376 -0.14989474
000060 78 7e fc 3d 3e 87 b5 b9 55 2e 5d 3b 16 e1 82 3b
       0.123288095 -0.00034623774 0.003374954 0.0039941175
000070 1a cd a0 3b d2 e9 86 bb e4 e2 42 3a e5 dc b6 3a
       0.0049072625 -0.004117229 0.0007434322 0.001395133
000080 92 a0 a1 bb ec bc 79 bb e9 d8 a9 bb 64 91 35 3a
       -0.0049324716 -0.003810699 -0.0051833284 0.0006926267
000090 d5 92 77 bb 1e 48 6d bc 9a 9c 6e ba 6b ac 81 3a
       -0.0037776728 -0.014482526 -0.0009102315 0.0009893304
0000a0 ec d7 4a 3a 11 08 aa bb b9 19 24 3a d8 bf 33 38
       0.00077378633 -0.00518895 0.00062599365 4.2855594e-05
0000b0 9c f8 06 3e e0 d9 38 be ad fe 08 be c7 26 58 3e
       0.13180774 -0.18051863 -0.13378401 0.21108542
0000c0 f9 06 fa 3b 92 50 0c be 3e e1 91 3d b2 0b 93 bc
       0.0076302257 -0.1370261 0.0712304 -0.017949913
0000d0 52 98 2b bd 79 06 f8 3b 00 1a bc 3b ff d8 2f bd
       -0.04189331 0.007569131 0.005740404 -0.042931553
0000e0 cb 55 5e 3d b3 db 8c bd df d3 31 3d c1 f4 b9 3c
       0.054281037 -0.06877842 0.043414947 0.022699716
0000f0 5e dc d1 3d 01 9c 0e bd 37 eb 46 be 78 91 09 be
       0.1024711 -0.034816746 -0.19425665 -0.13434398
000100 f8 2c 64 3d bc 41 9d bc 69 9e a7 bd d5 f7 1d 3d
       0.055706948 -0.019196384 -0.08184511 0.03856643
000110 77 cc 1a 3c d2 8f 69 bd 5d cd b7 bd e2 79 06 3e
       0.009448162 -0.057021923 -0.08974717 0.13132432
000120 1a 30 de bd bf 7f d4 3d f0 b6 86 3e cb ba 42 bd
       -0.108490184 0.10375928 0.26311445 -0.04754142
000130 61 87 cf bd c8 c7 10 3d b1 1c 52 3d 29 c8 94 bc
       -0.10133243 0.035346776 0.051296894 -0.01816185
000140 b5 b7 ea 3c 25 92 60 3c c3 b0 bd 3c 3d 8e ab 3c
       0.028652051 0.013706719 0.023155576 0.020941848
000150 f4 ff 08 be a8 84 a4 bd cb 68 09 3b d4 3c 60 3d
       -0.13378888 -0.08033115 0.0020967002 0.05474551
000160 de fe 1a 3d a8 d6 4b 3d 52 ae 18 3d 23 2a 6d 3d
       0.037840717 0.04976526 0.03727562 0.057901513
000170 c9 33 0e bd 2c 0a d4 3c 18 9d 65 be b8 a9 53 3e
       -0.034717355 0.025883757 -0.22423208 0.20670211
000180 4f 9b 20 be 75 bc 65 3e e7 4b a8 3c dc 0e 1e be
       -0.15684246 0.22435172 0.020544006 -0.15435356
000190 6e fa c3 bc 32 58 1b 3d 26 44 6f 3d 11 ac 72 bd
       -0.023923125 0.037925906 0.0584146 -0.059246127
0001a0 aa ab e6 bd 34 d6 92 3d 4c 71 40 b8 12 70 36 3d
       -0.11263211 0.07169762 -4.5881883e-05 0.044540472
0001b0 9a a7 2a bd 74 cd 8d 3a 28 8e 0b bd e5 39 3f 3d
       -0.041663744 0.0010818676 -0.034071118 0.046686072
0001c0 5c 99 78 bd a5 93 92 bd 38 53 17 bb f3 3f 83 bd
       -0.06069313 -0.07157067 -0.0023090374 -0.06408682
0001d0 a8 96 57 bc bd 59 21 bd 34 b7 48 bd af 0b 44 3e
       -0.013158478 -0.03939222 -0.04900284 0.19145082
0001e0 b7 e6 1a be 08 b0 01 be 6b ce e2 3d 8a a2 b0 3d
       -0.15127073 -0.12664807 0.11074527 0.08624752
0001f0 c1 9b 8d be e2 f2 2d 3c 14 89 db bc da c9 97 3d
       -0.27657893 0.01061699 -0.026798762 0.07411547
000200 a6 1c d5 bc 52 cd 67 bd 17 7e f9 3c 32 e1 39 3d
       -0.026014637 -0.056592293 0.030455632 0.04538078
000210 16 f0 22 bc 8e 8b 21 3c 0e 18 1b bd d5 22 84 3b
       -0.009944936 0.009859933 -0.037864737 0.0040324726
000220 20 1a 27 3d 42 19 38 be 41 fb 79 bd 56 98 e4 3c
       0.0407964 -0.17978385 -0.06103063 0.02790467
000230 d6 92 6a bd db 5d 4b bd f1 be 5e 3d cc 79 8b bc
       -0.05726894 -0.049650054 0.054381315 -0.01702585
000240 6c 85 3a be 1b 20 7f 3d b9 6b 41 3e 59 d9 75 be
       -0.18214959 0.062286478 0.18888749 -0.24008693
000250 1b a6 20 bc a5 5c 43 3e c1 e6 da bd 07 36 f6 3d
       -0.009805228 0.1907831 -0.10688544 0.12022024
000260 c7 3c 95 bd 37 4d 65 bb e4 98 28 3d 96 cd bc 3d
       -0.07286983 -0.003498865 0.041161433 0.092189
000270 4e 57 b4 bd 6b c0 47 3d 86 ba 07 be cb f2 2b 3e
       -0.088057145 0.04876749 -0.13254747 0.16791837
000280 b6 09 2b 3e 83 2c 27 be 56 82 d9 3c 91 21 44 3e
       0.16702923 -0.16325574 0.026551407 0.1915343
000290 46 63 bd bc 80 20 2d be b5 9f 7a 3e f1 ff 18 be
       -0.023118626 -0.16906929 0.24474986 -0.14941384
0002a0 20 42 c4 bd ff e3 87 bd a1 de 07 bb 9a 99 1b bd
       -0.09582925 -0.06635284 -0.0020732062 -0.037988283
0002b0 ad ab 8a bd e1 50 45 3e 9b be ac bd ab d4 29 be
       -0.06771026 0.19269134 -0.084347926 -0.16585033
0002c0 02 5e c9 3d bc 27 84 bd e5 37 ab ba d0 87 17 3e
       0.09832384 -0.06452891 -0.0013062923 0.14797902
0002d0 25 31 4d 3e cb 07 49 be c8 1d 1b be 6f 34 b5 3c
       0.20038278 -0.19631879 -0.1514808 0.022119729
0002e0 20 5b fd bc 52 d6 1e be b3 c1 94 bd 05 2a 45 3e
       -0.03092724 -0.15511444 -0.07263508 0.1925431
0002f0 18 e2 eb 3b 2f 07 89 bd aa 02 bd bc 71 2c 9a bb
       0.0071985833 -0.06690823 -0.02307256 -0.004705005
000300 e0 d6 5f bd bf bd 00 3e 0e 23 54 3d cf 30 7f 3e
       -0.05464828 0.12572382 0.051791243 0.24920963
000310 22 10 1e bd 40 60 ba 3d 5c fb e1 bd 19 e9 b6 bd
       -0.038589604 0.091003895 -0.11034271 -0.089311786
000320 38 55 ff 3d cd 39 ec 3d 35 6c 8e 3d 84 b3 29 be
       0.12467426 0.11534462 0.069542326 -0.16572386
000330 5a 61 92 bd c2 c2 f8 3c d5 83 94 3d 91 7f 11 3e
       -0.071474746 0.030366305 0.072517075 0.14208819
000340 47 5a 1a be 74 77 e8 bd 14 30 ac 3d d9 0c 73 bd
       -0.150735 -0.11350909 0.08407608 -0.059338424
000350 88 23 07 3e 2c bf 12 be 1b 8e 2f 3d 96 8a 00 3c
       0.13197148 -0.14330739 0.04286013 0.007845541
000360 4d db ad 3d 1b f4 1b 3e 44 ce 36 3e 1a d0 27 bd
       0.08489094 0.15229838 0.17852122 -0.040969945
000370 bb cb f8 3d a4 9b 0d be 1c 04 a4 3e 9b 70 87 bd
       0.121482335 -0.13828903 0.32034385 -0.06613275
000380 c4 9a c9 3c 90 94 51 bd 6b ab e3 3d 6c 22 38 be
       0.02460993 -0.05116707 0.1111668 -0.17981881
000390 85 7f a1 bd 9a fc 6a 3b 6c 1a 08 3e 3f 9d ca 3c
       -0.078856505 0.0035856129 0.13291329 0.024733184
0003a0 88 6c 78 3c 32 a1 65 bd 59 e7 9e 3d a6 a0 63 bd
       0.015162595 -0.05606193 0.0775897 -0.05557313
0003b0 d1 8d 0f 3e 1d 79 60 3e b0 da 58 bd be d1 33 bb
       0.14018942 0.21921201 -0.05294293 -0.0027438249
0003c0 dd bf d0 3d a4 e8 ba bd 14 7a 3a 3d 95 a7 b9 3d
       0.10192845 -0.09126404 0.04552658 0.09065167
0003d0 ec 26 d0 bd be 8e 24 3e 90 37 ce 3d 4e 32 54 be
       -0.10163674 0.16070077 0.100691915 -0.20722315
0003e0 78 71 87 bd 92 cb 84 be 7b 6b c5 3c 49 90 70 bd
       -0.06613439 -0.25936562 0.024099102 -0.05873135
0003f0 40 d2 fe bd 10 6e d6 bb cb 37 bd 3d 6b 68 0c bd
       -0.12442446 -0.006543882 0.09239157 -0.03427927

layers.0.bias f4 [200]
000000 50 06 8c 3d 67 b4 7d be 83 11 4c 3e 8a 57 da 3d
       0.068371415 -0.2477585 0.19928555 0.10661228
000010 c5 57 06 3c 53 ac 1c 3d 92 63 c1 bc 3b e0 09 be
       0.008199637 0.03825028 -0.02360705 -0.13464443
000020 5e 03 dd 3c 60 b9 55 3e 72 7b 91 3e f0 5c 6f be
       0.026979145 0.20871496 0.28414494 -0.23375297
000030 e8 38 81 be 92 a2 ff bc a9 64 f7 bd 84 cc af bc
       -0.2523873 -0.03120545 -0.12079746 -0.021459825
000040 9f f1 a4 bc f8 3e 81 3e f9 00 0e be 9d 57 77 3d
       -0.020134745 0.25243354 -0.13867559 0.06038629
000050 d5 84 2d 3e 7e 2e 56 bd bb 78 4a be c7 df b6 3d
       0.16945203 -0.052290432 -0.19772618 0.08929401
000060 60 a0 fa bd 77 1a 25 3d 33 5e ee 3d c4 17 5f be
       -0.1223762 0.040308442 0.11639061 -0.2178641
000070 f1 f1 0d 3e 3e a1 19 3e a5 32 3f be 1d 38 86 bc
       0.13861825 0.15002915 -0.18671663 -0.016384179
000080 3e 47 1f 3a 2d 17 74 3e 5d 1b 67 3e ee 4f dd 3d
       0.00060759846 0.23836966 0.22569032 0.10806261
000090 25 9e 52 3d 6e 89 a1 3d 76 bb f6 3b 3c 70 19 3e
       0.05142035 0.07887541 0.0075296713 0.1498422
0000a0 f7 3c ad be d8 40 8d bd 26 d0 bf 3d c6 18 82 be
       -0.33835575 -0.068971336 0.09365873 -0.25409526
0000b0 18 dd 25 3e 50 bb 8f 3d 1b ce 06 be 02 99 3b 3e
       0.16197622 0.07018149 -0.1316456 0.18320087
0000c0 90 b4 3d 3e 68 58 76 3d 3f 81 0f 3d e8 e5 8f 3d
       0.1852591 0.060142905 0.035035368 0.07026273
0000d0 ca 99 6f bc b8 1d 57 be 63 fc c5 3d f4 7f 07 3d
       -0.0146240685 -0.2100743 0.096672796 0.03308101
0000e0 3f 1a 06 be 25 89 c6 bd cc 0d 53 be b0 d8 8b 3e
       -0.1309595 -0.09694127 -0.20610732 0.27313757
0000f0 94 40 90 3d e5 7f 65 be b5 7e b3 bd 14 70 7a bd
       0.07043567 -0.22412069 -0.08764402 -0.061142042
000100 b0 f7 1e 3e 1b 11 96 3e 6c 71 53 be 43 40 82 3e
       0.15524173 0.29309925 -0.20648736 0.25439653
000110 fa 13 93 bd f9 87 04 3e 4b 0c c1 3d bf 8a 7e be
       -0.071815446 0.12942494 0.09426173 -0.24857615
000120 72 4e 93 3e 41 47 c7 bd c6 27 6c 3d 96 88 06 3e
       0.28770787 -0.097303875 0.05765512 0.13138041
000130 31 80 1d 3e fa ec 1c be 84 a4 a8 3d 75 6b e9 3b
       0.15380932 -0.15324774 0.08234504 0.0071234056
000140 bb 05 65 bc 69 28 9c bc 47 6b 2a bd 48 80 10 be
       -0.013978417 -0.019062238 -0.041606214 -0.14111435
000150 23 ea dc 3d 7e a2 1a 3d f4 09 e9 3d 19 38 85 3d
       0.107868455 0.03775262 0.113788515 0.065048404
000160 f4 b7 87 bd f0 a1 6a 3d f5 20 04 be d3 29 b3 bc
       -0.06626883 0.057283342 -0.12903197 -0.02187053
000170 a7 7a 9d bd 6d 3f 83 bc d3 5e c8 3d d5 8c ae 3d
       -0.0768941 -0.016021455 0.09783711 0.08522955
000180 b4 68 79 3e 73 1c 9a 3d 19 f6 59 3e ba 3c 18 be
       0.24356347 0.075249575 0.21285285 -0.14866915
000190 ad 2a 2b be ed eb d7 bd 97 e6 9d bc 69 3a a3 bd
       -0.16715498 -0.10543046 -0.019274993 -0.07970125
0001a0 65 c9 1a 3e 9c d7 bc 3c ca b3 28 3e 05 1b 4c be
       0.15115888 0.02305203 0.16474834 -0.19932182
0001b0 86 5a d8 bd 66 17 55 be e7 f9 0d be d6 b6 68 3d
       -0.10564141 -0.20809707 -0.13864861 0.05681499
0001c0 76 d5 aa bd fa 4f 07 be 55 5f fd bd 2b fc 7c 3b
       -0.08341496 -0.13214102 -0.12371699 0.0038602452
0001d0 b7 96 56 bd 61 84 51 be a6 cd cf bd ee 4c a7 bd
       -0.052389827 -0.20460655 -0.10146646 -0.0816897
0001e0 5c b5 b3 3e bd 5c 24 be dc fa f8 bd d1 cf d7 3d
       0.35099304 -0.16051002 -0.12157223 0.10537685
0001f0 39 a1 77 be 98 1a 2f be a1 b9 0f be 84 de 86 bd
       -0.24182595 -0.17099988 -0.14035656 -0.0658541
000200 54 9b 84 3d 87 5e 82 3d 6f fe 5e 3d 5e 44 0a 3e
       0.06474939 0.06365686 0.054441866 0.13502643
000210 40 05 f8 bd 02 a3 0a be 61 c1 d4 3c 6d a6 b8 3d
       -0.12110376 -0.13538745 0.025971116 0.09016118
000220 e5 7e 5e be 29 cf e8 bd ac 40 3c 3d 54 40 d1 bc
       -0.21728094 -0.11367638 0.045960113 -0.02554337
000230 02 3a 41 3b 7c db ae bd 45 1d f7 3c 5f 20 d6 3d
       0.0029484038 -0.08537957 0.030165324 0.10455393
000240 49 83 4b 3e 53 0d 15 3d 0f 67 29 3c 51 46 94 bc
       0.198743 0.03638966 0.0103395125 -0.018099936
000250 15 42 32 3d 6b 47 c3 3d d1 44 19 3e b2 8d 36 be
       0.043520052 0.09535106 0.14967658 -0.1782749
000260 6e 1e c4 bd 75 6a 60 3e f4 9f d7 3d 0f ea d1 bd
       -0.095761165 0.2191561 0.105285555 -0.10249721
000270 ee 43 e8 3d 18 a2 02 be f7 84 c5 3d bb 00 1b 3d
       0.113410816 -0.12757146 0.09644502 0.037842494
000280 7e ef 4d 3d 49 ca b5 bd 66 99 45 be 87 da 30 be
       0.050277226 -0.088764735 -0.19296798 -0.17270862
000290 c0 0d 38 3d e3 cb 0f be fd 8b b7 bd af f4 a4 bc
       0.044934988 -0.1404262 -0.089622475 -0.020136205
0002a0 77 b9 c2 3d 61 18 55 be 8e 9b ee bd 62 53 03 be
       0.09508031 -0.20810081 -0.116507635 -0.12824777
0002b0 03 63 5f bd 2d e5 17 3e cf 55 82 3e c0 5e 92 bd
       -0.054537784 0.14833517 0.25456092 -0.071469784
0002c0 4f 07 13 3e 63 ef b2 3b ca 35 31 bd 1e 5c ea 3d
       0.14358257 0.005460666 -0.043264188 0.11443351
0002d0 8c 8c e4 3d bd 9f 19 bb b0 cd 3d be 75 80 0a 3e
       0.1115962 -0.0023441159 -0.18535495 0.13525565
0002e0 1e c5 28 3e db 94 b8 3d 63 d7 68 3e dd 76 f8 3d
       0.16481444 0.09012767 0.22738414 0.12132046
0002f0 0d e2 ed 3c 2a 1e 13 be ee 8f 75 3d 47 6b 8e bd
       0.029038453 -0.14366975 0.059951715 -0.06954055
000300 8b 58 61 3e 3c 22 3b 3e 2d d6 02 3e 81 b6 4f bc
       0.22006433 0.18274778 0.12777014 -0.01267779
000310 3b 35 4b 3e d7 fc a1 3e ca 3c 33 be bc 41 41 3e
       0.19844525 0.31638214 -0.17503658 0.18872732

layers.2.weight f4 [200]
000000 60 32 7f 3f f3 02 8b 3f ed cd 74 3f 59 30 86 3f
       0.9968624 1.0860275 0.9562672 1.0483505
000010 0c 7d 7d 3f bb ce 73 3f 94 b9 77 3f ae b8 72 3f
       0.9901893 0.9523732 0.96767545 0.9481305
000020 51 22 81 3f a3 12 7f 3f cb 61 81 3f 28 00 7e 3f
       1.0088598 0.9963781 1.0107969 0.9921899
000030 d6 05 70 3f 50 2c 87 3f 74 21 85 3f dc 28 87 3f
       0.93758905 1.0560398 1.0400834 1.0559344
000040 79 03 81 3f 08 80 83 3f e4 11 7e 3f 77 24 76 3f
       1.0079185 1.0273447 0.9924605 0.9614939
000050 71 9b 7d 3f 45 28 79 3f 95 10 82 3f c2 30 82 3f
       0.9906531 0.9732707 1.016131 1.017113
000060 59 95 83 3f d8 78 82 3f fd 30 80 3f 53 50 81 3f
       1.0279952 1.0193129 1.001495 1.0102638
000070 b1 34 81 3f 93 98 7c 3f 9c a4 82 3f ea 13 74 3f
       1.0094205 0.9867031 1.0206485 0.95342886
000080 44 2b 77 3f 33 ce 80 3f fe b9 7f 3f cb ec 7d 3f
       0.96550393 1.0062927 0.99893177 0.9918944
000090 c8 ac 7e 3f c8 be 84 3f 29 be 81 3f 7b d0 86 3f
       0.99482393 1.0370722 1.0136157 1.0532373
0000a0 0d 32 82 3f 75 87 7a 3f b0 43 7f 3f bf a3 7f 3f
       1.0171524 0.9786294 0.9971266 0.9985923
0000b0 18 fb 7f 3f 94 e3 76 3f 3c 72 7b 3f 05 90 7c 3f
       0.99992514 0.96441007 0.9822118 0.98657256
0000c0 fc 35 84 3f c3 d4 78 3f 3a 66 72 3f d3 11 88 3f
       1.0328975 0.9719965 0.94687235 1.063044
0000d0 c5 fa 74 3f 23 da 7d 3f b6 01 83 3f 94 bb 76 3f
       0.95695144 0.99160975 1.0234897 0.9637997
0000e0 a8 30 80 3f 97 97 81 3f 1c 29 80 3f 33 3b 7c 3f
       1.0014849 1.0124387 1.0012546 0.9852783
0000f0 6a f2 7d 3f b9 37 76 3f 22 2d 7d 3f b0 20 7a 3f
       0.9919802 0.96178776 0.9889699 0.9770613
000100 86 b3 73 3f 14 19 81 3f c8 35 81 3f 31 5b 77 3f
       0.95195806 1.0085778 1.0094538 0.9662352
000110 c9 34 7f 3f 60 2b 7c 3f e7 74 89 3f af 27 80 3f
       0.9968992 0.98503685 1.0738801 1.001211
000120 30 52 78 3f 3d 13 83 3f a9 3c 7c 3f 6b ce 73 3f
       0.9700041 1.0240246 0.9853006 0.95236844
000130 7f 8c 80 3f fb a3 85 3f 8a e7 88 3f e1 e6 76 3f
       1.0042876 1.0440668 1.069566 0.96446043
000140 2b 9d 76 3f 4c ea 83 3f 3c 67 81 3f fa f9 80 3f
       0.9633357 1.0305877 1.010963 1.0076287
000150 6d 97 76 3f 1c 76 81 3f 28 1c 7e 3f d5 8e 80 3f
       0.9632481 1.0114169 0.99261713 1.0043589
000160 48 b9 7b 3f f5 d4 7b 3f 67 44 80 3f 41 17 80 3f
       0.9832959 0.9837182 1.0020875 1.0007097
000170 1b 3e 83 3f f9 1f 75 3f 00 ae 81 3f ac 9c 72 3f
       1.0253328 0.9575191 1.0131226 0.9477031
000180 b2 98 81 3f fa d9 79 3f 33 a2 74 3f c9 4c 82 3f
       1.0124724 0.9759823 0.95559996 1.0179683
000190 88 7c 81 3f 9d 2d 80 3f fa 76 78 3f d3 d2 7a 3f
       1.0116129 1.001392 0.97056544 0.9797794
0001a0 61 8f 84 3f fc 42 81 3f 9c 42 7d 3f 38 5c 76 3f
       1.0356256 1.0098567 0.9892976 0.96234465
0001b0 44 f7 77 3f e4 c9 7b 3f 7c 70 84 3f 6c c4 82 3f
       0.9686167 0.98354936 1.0346828 1.0216193
0001c0 c4 c0 83 3f c4 07 80 3f 12 0a 79 3f 96 41 83 3f
       1.0293202 1.000237 0.9728099 1.025439
0001d0 96 f3 79 3f 4d 1d 81 3f b2 62 83 3f b3 d8 76 3f
       0.9763731 1.0087067 1.0264494 0.96424407
0001e0 2f 17 82 3f 9c 96 77 3f 3b d1 7a 3f 54 c6 7a 3f
       1.0163325 0.96714187 0.9797551 0.97958875
0001f0 bc f9 83 3f 42 4d 7d 3f 6a 57 78 3f 9f 1c 7e 3f
       1.0310588 0.9894601 0.97008383 0.9926242
000200 13 64 7d 3f 74 bc 76 3f d2 de 73 3f 0c 97 7e 3f
       0.98980826 0.96381307 0.9526187 0.9944923
000210 b8 2d 7a 3f 0f f8 7e 3f c3 01 78 3f 1f 62 7d 3f
       0.9772601 0.9959726 0.9687769 0.98977846
000220 66 11 78 3f 75 9b 71 3f c6 ba 7e 3f d2 e5 8b 3f
       0.9690155 0.94377834 0.99503744 1.092951
000230 97 39 82 3f b9 e1 74 3f 37 e9 72 3f fa c7 7c 3f
       1.0173825 0.95656925 0.9488711 0.9874264
000240 77 0e 7f 3f a0 a6 78 3f 95 63 88 3f 98 c5 73 3f
       0.99631447 0.9712925 1.065539 0.9522338
000250 e5 35 7f 3f a3 df 7e 3f c2 89 71 3f 58 60 80 3f
       0.9969161 0.9955999 0.94350827 1.0029402
000260 cc 6f 79 3f c8 3a 80 3f 52 92 72 3f 30 22 77 3f
       0.97436213 1.0017939 0.9475452 0.9653654
000270 1f d8 79 3f 61 ab 82 3f 00 1f 82 3f 95 0e 7b 3f
       0.975954 1.0208551 1.016571 0.98069125
000280 d8 93 85 3f 8f c0 8b 3f 80 c7 83 3f d1 aa 7a 3f
       1.0435743 1.0918139 1.0295258 0.97916895
000290 2e 4d 7f 3f 31 9d 86 3f 55 cd 85 3f 62 97 7d 3f
       0.9972714 1.0516721 1.0453287 0.99059117
0002a0 56 ec 79 3f c5 a0 7e 3f 2d b7 73 3f 45 1a 7f 3f
       0.97626245 0.99464065 0.9520138 0.9964946
0002b0 25 13 79 3f db e8 7c 3f f4 63 7b 3f 1f ca 7a 3f
       0.9729484 0.9879281 0.9819939 0.9796466
0002c0 a9 77 7a 3f e8 b6 7d 3f 85 df 7d 3f 83 ec 7b 3f
       0.97838837 0.9910722 0.9916919 0.98407763
0002d0 d2 16 7e 3f 00 04 81 3f 6b c5 85 3f 43 bb 7f 3f
       0.9925357 1.0079346 1.0450872 0.99895114
0002e0 44 99 73 3f 38 5f 7a 3f cb 6f 7a 3f b4 57 7f 3f
       0.9515574 0.9780154 0.9782683 0.997432
0002f0 9d b4 80 3f 20 19 84 3f e4 80 7f 3f 0d be 90 3f
       1.0055119 1.0320168 0.99806046 1.1307999
000300 34 1b 7f 3f f7 61 81 3f 18 b8 81 3f 22 27 74 3f
       0.99650884 1.0108021 1.0134306 0.9537221
000310 6c 50 7b 3f fb 17 80 3f 62 d5 81 3f 29 46 79 3f
       0.9816959 1.0007318 1.0143244 0.9737268

layers.2.bias f4 [200]
000000 8c 81 90 bd 11 df 02 3e 85 ee 5e 3b 41 9d 92 3c
       -0.07055959 0.12780406 0.003401668 0.01789725
000010 dc 28 14 bd 32 2b 86 3c 92 b1 ba bd 3b cc c4 3c
       -0.03617178 0.016378019 -0.091159 0.024023166
000020 7a 7e ab 3c 6f 76 1d 3d 3e fd 41 bd a5 62 f8 bc
       0.020934332 0.038443025 -0.04736065 -0.030320475
000030 0e a3 95 bc 44 43 7e bc 02 20 39 bc 8d 8c cc 3d
       -0.018266227 -0.015518967 -0.011299135 0.099877454
000040 c0 5b 5a 3d 99 91 12 3c 98 24 c8 3d 1e df 6e 3d
       0.053310156 0.008945846 0.09772605 0.05831825
000050 74 15 59 bd b3 9a 4e bd 12 72 01 3d 0a 12 dc bb
       -0.052998975 -0.0504405 0.031602927 -0.0067160176
000060 c8 bf cf 3c 4a ce 05 3c 5a 50 86 3d 59 99 ce 3c
       0.025360003 0.008166859 0.065582946 0.025219606
000070 51 41 38 3e ca dc bd 3d b3 3b 86 3d 98 47 d8 3a
       0.17993666 0.09270628 0.065543555 0.0016500829
000080 7d 66 69 bd 62 0d 08 3d 21 e3 ce bc 80 7f 20 bc
       -0.056982506 0.033215888 -0.025254788 -0.009796023
000090 06 4f 78 bc 78 65 fc bc 86 c8 df bc e3 10 a1 bd
       -0.015155559 -0.030810103 -0.027317297 -0.07864549
0000a0 9d f2 cc 3d 4e 5a 51 3c 43 3f 9c bc 98 9e 75 3d
       0.10007212 0.012777878 -0.019073134 0.0599657
0000b0 d2 c4 80 3c 54 ad fb bc c5 36 05 be d6 90 e2 bd
       0.015718851 -0.030722298 -0.13009174 -0.110627815
0000c0 4a c9 bc bc 73 1c fe 3b 37 91 af bc 82 05 c1 bb
       -0.0230452 0.0077548563 -0.021431549 -0.005890549
0000d0 9a 98 bb bd 58 c7 27 3d 21 11 f0 3d a1 60 88 bd
       -0.09159966 0.040961593 0.11722017 -0.066590555
0000e0 5d 8d 4b 3d 4f 88 b7 3c b9 8d 89 3d ba 5f ad 3b
       0.04969536 0.022403864 0.067164846 0.0052909525
0000f0 b4 51 9f bc eb 76 2c bd 72 e9 90 3d 11 c2 a8 bc
       -0.019448139 -0.042105597 0.07075776 -0.02060035
000100 32 52 8d bd c4 97 4c 3b 7c 28 b1 3c 89 b7 3c 3c
       -0.06900443 0.003121839 0.02162575 0.011518368
000110 28 89 62 bd 86 53 1c 3b 31 45 9d 3b 35 48 74 bd
       -0.055306584 0.0023853495 0.004799508 -0.059639174
000120 51 95 60 3d b9 c7 2b 3d bd b7 88 bc af 82 99 3b
       0.0548299 0.041938517 -0.016689176 0.004684768
000130 31 b8 9a bd 9e 23 a0 3c 24 fb b2 3d 7d a2 2e 3d
       -0.07554663 0.019548234 0.087393075 0.04263543
000140 fa e2 2c bc 3b 06 43 3e 10 d7 47 bc 77 8f 41 bc
       -0.010552162 0.19045345 -0.012197271 -0.01181399
000150 30 de 29 be e8 4f 53 bc c6 93 1f 3c b4 60 20 3c
       -0.16588664 -0.012897469 0.009739822 0.009788681
000160 b7 72 c5 3c 02 75 b5 3d 94 bc 06 bc 92 9c 7d bd
       0.024102552 0.08860208 -0.0082236715 -0.061916895
000170 b6 a4 ea bb cf ef c8 bc e6 5b 51 bc e3 c9 e2 bc
       -0.0071607484 -0.024528412 -0.012778258 -0.027684158
000180 00 18 a0 bb 73 48 db 3c 51 a9 2e bd ab 76 36 bc
       -0.0048856735 0.026767945 -0.04264194 -0.011136691
000190 84 45 84 bd 8e 31 38 bd f4 21 a2 3a 8c 23 35 3d
       -0.064585716 -0.044969134 0.0012369738 0.044223353
0001a0 d0 ca 03 3e 62 af 72 3d ea b2 80 bd bc b5 d6 3d
       0.12870336 0.05924929 -0.06284125 0.10483882
0001b0 94 f1 51 3c 3e 65 b0 3d ca 4b ca 3b 57 f6 b4 bc
       0.012813944 0.086130604 0.0061735855 -0.02209012
0001c0 f6 5d 0a bd 8a 33 22 bd 6e 77 2c bd e7 b5 8d bd
       -0.033781014 -0.039599933 -0.042106085 -0.06919461
0001d0 f4 77 e8 ba 17 f8 2c 3a 2b 44 9f bd 42 c6 66 3b
       -0.0017735944 0.00065982476 -0.07776674 0.0035213386
0001e0 34 f4 15 ba de 97 57 bd 30 33 06 3d 65 f8 5e bc
       -0.0005720288 -0.052635066 0.03276366 -0.013609027
0001f0 3e d1 88 ba 8b 47 63 bd f4 9e 16 bd b4 fe a1 3c
       -0.0010438336 -0.05548815 -0.036772683 0.019774772
000200 8d 03 cb bc 32 b7 dc 3d 87 24 1b 3e 51 a6 ed 3d
       -0.024781967 0.10777129 0.15150653 0.11603988
000210 05 91 82 3d 3b 87 48 bd 1e 07 97 bc c3 e3 ec bc
       0.063753165 -0.04895709 -0.01843601 -0.028917199
000220 5a b6 c8 bc ad 9f 1d bb 04 63 90 3d b2 0b f0 bb
       -0.024501015 -0.0024051473 0.07050136 -0.007325613
000230 a0 ab 37 bd ce 73 99 bc ee ac 6a 3d 21 d9 0f bc
       -0.04484141 -0.018731978 0.057293825 -0.008779795
000240 be 35 34 bd bf ef 7f 3c a8 95 ef 3d 08 94 e1 3b
       -0.043996565 0.015621125 0.116984665 0.006884102
000250 72 7a cf 3d 76 1a b5 bb 86 e4 f1 bc af e1 c4 bc
       0.101307765 -0.005526836 -0.029527914 -0.024033396
000260 ba 91 dc bc 3e 48 8d 3c 19 1b a7 bd 5e 7d 9d bd
       -0.026924957 0.017246362 -0.08159465 -0.076899275
000270 f6 94 84 bd 37 d1 bc bc 17 75 42 3e f0 e7 45 3c
       -0.064737245 -0.02304898 0.18989979 0.012079224
000280 b5 10 0c bd 10 dc de bb 50 65 2b bd 20 78 ac bc
       -0.03419562 -0.006801136 -0.041844666 -0.021053374
000290 c5 17 44 bd b6 20 dc bc a6 c0 6e 3a 2a 52 9e bc
       -0.04787423 -0.026871067 0.00091076863 -0.019326288
0002a0 42 8a 75 bd 82 89 f4 bb 16 c6 0c 3d f0 52 b1 bc
       -0.059946306 -0.0074626813 0.034368597 -0.021645993
0002b0 42 50 1b bd a5 04 4b 3c 68 eb 1a bd 09 f5 b7 ba
       -0.037918337 0.012391244 -0.037822157 -0.0014034818
0002c0 eb 72 28 3c fa c1 2d 3d 81 12 1c bd 61 a5 4c bc
       0.010281305 0.04242132 -0.038103584 -0.012490601
0002d0 1d b7 f6 bb a1 d3 c9 bc b2 67 09 3e f8 9b dc 3c
       -0.007529153 -0.024637045 0.13418463 0.02692984
0002e0 cb 7f b1 3d 62 d1 95 bd ae 79 98 bb e3 e2 b5 3c
       0.08666953 -0.07315327 -0.004653177 0.022202915
0002f0 22 c1 f4 3d db dc 88 3b 39 bd dd bc 3a 3c 4d bd
       0.119509 0.0041767186 -0.027067767 -0.050106265
000300 8f 55 21 3c 89 8c c4 3d 81 e9 fa 3d b6 4e 6e bc
       0.009847059 0.095971175 0.122515686 -0.014545133
000310 e7 e3 44 3a 52 93 19 bb fa 0a f8 bc c9 01 9a bd
       0.0007510767 -0.0023433757 -0.030278672 -0.07519872

layers.2.running_mean f4 [200]
000000 b0 de 5c 3e 52 74 a1 3c b7 d6 69 3e 9a ff b1 3e
       0.21569324 0.019708786 0.22835813 0.3476532
000010 2f 71 5a 3e c8 23 19 3e 00 f7 40 3e e9 7e 6d 3e
       0.21332239 0.14955056 0.18844223 0.23192944
000020 ae 60 8f 3e 7e d9 9b 3e 55 61 d7 3e d4 f6 d1 3d
       0.28003448 0.3043937 0.42066446 0.10252157
000030 38 1d f0 3d 7f 55 77 3e 1a 9a b0 3d 96 31 e6 3d
       0.11724323 0.24153708 0.086231425 0.112399265
000040 50 02 10 3e 38 bc 99 3e ef 39 64 3e 3c 4d a9 3e
       0.14063382 0.30026412 0.22287725 0.33066738
000050 21 5a 77 3e ff 06 8a 3e f7 61 9c 3d 45 bf 90 3e
       0.24155475 0.26958463 0.07635873 0.28270927
000060 75 62 78 3d c5 6a a9 3e 88 5d ae 3e a1 03 7f 3d
       0.06064077 0.3308927 0.34055734 0.06225932
000070 a8 a4 24 3e 3c 03 88 3e 9a ef 6d 3d c9 51 2b 3e
       0.16078436 0.26564968 0.05808983 0.16730417
000080 66 f2 49 3e ed ce b3 3e ee 6f c2 3e 54 4f ab 3e
       0.19721374 0.3511881 0.3797602 0.3345896
000090 23 96 a2 3d bd 22 15 3e ea e3 83 3e b1 17 96 3e
       0.079387926 0.14564033 0.25759822 0.2931495
0000a0 1e e6 13 3d a5 bb 13 3e 19 0b 44 3e 6a 4f 93 3d
       0.03610813 0.1442705 0.19144858 0.071928814
0000b0 44 ec 88 3e 05 cd 48 3e a3 d8 4b 3e cc c7 d0 3e
       0.26742756 0.19609459 0.19906859 0.40777433
0000c0 9f b1 a6 3e fd 99 7a 3e 6f e2 6f 3e 88 16 41 3e
       0.3255739 0.24472804 0.23426221 0.18856251
0000d0 2e 8a 5e 3e a4 ac b0 3d 46 c8 1c 3e ac 8f ba 3e
       0.21732399 0.086266786 0.15310773 0.36437738
0000e0 e9 14 e1 3d 66 50 62 3e fa 52 e8 3d ed 86 cf 3e
       0.109903164 0.22100982 0.113439515 0.40532628
0000f0 b8 59 19 3e 9d 61 1e 3e 26 8c f4 3d 06 50 17 3e
       0.14975631 0.15466924 0.11940794 0.1477662
000100 3f b6 95 3e 54 6c dc 3e a2 44 5b 3d fe 1d ae 3e
       0.29240605 0.43051398 0.05353225 0.34007257
000110 d6 b7 19 3e c7 d9 aa 3e 26 1e 98 3e a6 8d be 3d
       0.15011534 0.33369276 0.297105 0.09304361
000120 97 d6 f8 3e c4 70 04 3e 9e 84 6c 3e b5 ae ac 3e
       0.4860122 0.12933642 0.23097464 0.3372704
000130 10 ac b9 3e cb 5e 82 3d d6 75 e8 3d e2 d1 b9 3e
       0.36264086 0.063657366 0.113506004 0.3629294
000140 08 ed 71 3e fa ac 12 3e b7 91 21 3e f1 ef 09 3e
       0.23625576 0.14323798 0.15778242 0.13470437
000150 96 0a 86 3e 22 e5 61 3e 92 37 34 3e 44 ef 59 3e
       0.2617995 0.22060063 0.17599323 0.21282679
000160 1a 48 80 3e f2 86 9c 3e a5 b1 a1 3d c7 b6 1d 3e
       0.2505501 0.30571705 0.07895211 0.15401755
000170 d2 ff f2 3d 33 a8 61 3e 34 f7 eb 3d 47 8a 84 3e
       0.118652 0.22036819 0.1152176 0.25886747
000180 ce 8d 09 3f c2 7b 9e 3e 6e 90 b0 3e 81 e7 1a 3e
       0.53732 0.30953795 0.3448519 0.15127374
000190 54 6a 43 3e e7 ee 1b 3e 3f b1 0e 3e 4e 5d 8c 3e
       0.1908353 0.15227853 0.13934802 0.27414936
0001a0 0d e4 0c 3e 73 fd f9 3d 3c 2d c5 3e 0e 1d cd 3d
       0.1375887 0.12206545 0.38511074 0.10015307
0001b0 fd 2f 3c 3e 80 1f 0c 3e 9e 24 84 3d cd b2 97 3e
       0.18377681 0.13683891 0.06452297 0.29628602
0001c0 09 7e 64 3e b6 72 1e 3e fd d0 4f 3e 63 4d 5c 3e
       0.22313704 0.15473446 0.20294566 0.21513896
0001d0 27 07 eb 3d aa a5 bb 3d 39 b6 3f 3e 15 23 38 3e
       0.114759736 0.09162457 0.18721856 0.17982133
0001e0 fa a6 b7 3e b4 d2 0d 3e 16 70 41 3e 12 80 9d 3e
       0.3586958 0.13849908 0.18890414 0.30761772
0001f0 f1 d3 e4 3d 51 fd 09 3e 07 50 6e 3e 7f 20 88 3e
       0.11173237 0.13475539 0.23272716 0.26587293
000200 f2 b8 3c 3e 03 5b c6 3e 72 b3 43 3e 13 8c 88 3e
       0.18429926 0.3874131 0.19111422 0.26669368
000210 96 49 97 3d ef c5 42 3e eb eb 62 3e a9 59 73 3e
       0.07387082 0.19020818 0.22160308 0.23764671
000220 f3 68 0c 3e 64 da 77 3e b9 ae 19 3e c9 89 be 3d
       0.1371191 0.24204403 0.15008058 0.09303624
000230 e0 ad 60 3e dd 0a 7a 3e 2a 3c 83 3e 8e 91 c1 3e
       0.21941328 0.24418207 0.2563184 0.37806362
000240 ec b5 9a 3e 12 8e 80 3e 6b 5a 15 3e db 4e 96 3e
       0.3021692 0.2510839 0.14585273 0.29357037
000250 75 fb 45 3e 79 69 8c 3e ee 7d 9b 3e 86 fa 1b 3e
       0.19334204 0.2742422 0.30369514 0.15232286
000260 59 e4 63 3e 54 41 ae 3e 8c 99 bf 3e f4 0f 26 3e
       0.22255076 0.34034216 0.37421834 0.16217023
000270 39 70 6c 3e f2 12 78 3d a3 d8 17 3e b4 b3 7d 3e
       0.23089685 0.060564943 0.14828734 0.24775583
000280 f6 f3 5b 3e 5a 62 c5 3d b7 31 bd 3d 19 da de 3d
       0.21479782 0.096379 0.09237998 0.108814426
000290 85 c4 a9 3e 86 98 a6 3d 6a 0d f3 3d 0d f9 05 3e
       0.33157745 0.0813456 0.11867793 0.13083287
0002a0 fa cc 61 3e e2 3b e8 3d 38 c4 c9 3d 01 d5 3c 3e
       0.22050849 0.11339547 0.09851879 0.1844063
0002b0 54 80 73 3e 9f 7d 90 3e 19 49 a0 3e 08 79 33 3e
       0.23779422 0.2822084 0.3130577 0.17526639
0002c0 8c 2b a4 3e 74 ea 99 3e a6 8b 1a 3e e4 8d 81 3e
       0.32064474 0.30061686 0.15092334 0.25303566
0002d0 09 ff dc 3e 19 fc 2d 3e 89 49 2b 3d 7a 15 92 3e
       0.43163326 0.16990699 0.041818175 0.2853201
0002e0 40 df 8d 3e 13 1a ad 3e 8a b6 d0 3e 07 24 58 3e
       0.2770939 0.33808956 0.40764266 0.21107493
0002f0 0a 06 04 3e b3 3a c6 3d 32 7d 8d 3e fd 78 a3 3d
       0.12892929 0.09679165 0.2763458 0.07982061
000300 fe dd cb 3e b5 09 30 3e 92 47 24 3e c1 af 17 3e
       0.39817804 0.17191203 0.16042927 0.14813139
000310 7b e5 ad 3e 5d c3 01 3f 5e 78 01 3e 0c 5c a4 3e
       0.33964142 0.50688726 0.12643573 0.32101476

layers.2.running_var f4 [200]
000000 ab 1b e9 3d 6a 42 c7 3b 50 31 26 3e 5f 4e c7 3d
       0.1138223 0.006080915 0.16229749 0.09731745
000010 6c a7 3b 3d c2 ec fa 3d e9 f0 d2 3d 4d ba 18 3e
       0.045813963 0.12252189 0.10299856 0.14914818
000020 80 bd 1b 3e 46 68 df 3d 5f 20 ee 3d 2e bb 8c 3d
       0.15209007 0.109085605 0.11627268 0.06871639
000030 b9 a6 61 3d 74 23 06 3e ca 64 1b 3d 5c 98 71 3d
       0.05509064 0.13099462 0.037937917 0.05898319
000040 9c 25 1b 3e 1f 53 58 3d 9c 62 e6 3d 95 d2 02 3e
       0.15151066 0.052813645 0.11249277 0.12775643
000050 80 60 b0 3d 5d 38 d2 3d ad 54 61 3d 0f e0 bb 3d
       0.08612156 0.10264657 0.055012394 0.09173595
000060 0b 18 18 3d b3 e2 75 3e 43 f6 5a 3e b2 2e 11 3d
       0.037132304 0.2401226 0.21383004 0.035444923
000070 d2 28 b9 3d 36 22 27 3e e8 79 43 3d 44 ca 6a 3d
       0.09040989 0.16321644 0.04772368 0.0573218
000080 c5 49 c0 3d 26 76 a3 3d 76 a3 a3 3d 1e 5d c1 3d
       0.093890704 0.079815194 0.07990162 0.09441589
000090 78 90 d3 3c 30 4b 85 3d 7b 27 01 3e 67 ce 00 3e
       0.025825724 0.065084815 0.12612717 0.12578736
0000a0 e1 10 b9 3c 59 05 b9 3d 66 a7 4b 3e ec df 6c 3d
       0.022591056 0.09034223 0.19888076 0.057830736
0000b0 7c 0c db 3d 13 0b 5c 3d 6c d6 be 3d f9 3c 2d 3e
       0.106957406 0.0537215 0.093182415 0.1691779
0000c0 d8 79 04 3d 30 a3 10 3e c1 ab f6 3d 10 f9 86 3d
       0.03234276 0.14124751 0.12044478 0.06590474
0000d0 9b 9d 1d 3e 9b 82 84 3d dd 33 c2 3d 8a 83 2d 3e
       0.15392153 0.064702235 0.094825484 0.1694471
0000e0 f2 57 4b 3d ce 36 f9 3d 0c d7 80 3d ea 26 29 3e
       0.049644418 0.12168656 0.06291017 0.16518751
0000f0 88 ff 89 3d 5c c8 cb 3d 54 60 96 3d 48 09 8f 3d
       0.06738192 0.09950325 0.07342592 0.06984192
000100 3d 9a 0a 3e cf ea 0f 3e 7e ba 80 3c f0 73 d4 3d
       0.135354 0.14054416 0.015713926 0.10373676
000110 fe 0d bd 3d 83 80 df 3d 40 77 9e 3d e0 4b 2f 3d
       0.092311844 0.109131835 0.07737589 0.04279697
000120 31 15 2e 3e 53 fd 6f 3d 40 3e 2b 3e dd da e3 3d
       0.17000271 0.0585912 0.16722965 0.11125729
000130 59 17 76 3e 1c 24 28 3d 19 f5 97 3d 6a 17 4c 3e
       0.24032344 0.04105006 0.074197955 0.19930807
000140 0f c7 8e 3d cb c8 d3 3d f3 84 ac 3d bc 09 08 3e
       0.06971561 0.103410326 0.084237956 0.13284963
000150 6f 7f 30 3e 86 c3 e8 3c cb ac d8 3d 0a 47 a3 3c
       0.17236112 0.028413545 0.10579833 0.019931335
000160 21 55 0e 3e 94 c3 2c 3e be af 1d 3d 89 f5 4f 3d
       0.13899662 0.16871482 0.03849768 0.05077127
000170 20 0b 72 3d 77 69 ff 3d b1 11 4c 3d d2 db 0c 3e
       0.05909264 0.12471288 0.04982156 0.1375573
000180 2c a5 46 3e 7b 56 20 3e 41 48 00 3e 58 fa 9d 3d
       0.19398946 0.1565799 0.12527563 0.07713765
000190 8b fa 0d 3e 0e c4 d8 3d 78 81 c1 3d 4d 96 0f 3e
       0.13865106 0.105842695 0.09448522 0.14022179
0001a0 6f b1 a2 3d 17 b6 bf 3d f8 1d 28 3e 4a a5 26 3d
       0.07943999 0.09360903 0.16417682 0.040684976
0001b0 d4 7f fb 3d d7 67 91 3d 20 13 23 3d 9a d2 e8 3d
       0.12280241 0.07099884 0.03981316 0.11368294
0001c0 9b 4b d4 3d 4b 46 91 3d 80 df 1c 3e 48 d9 e6 3d
       0.10365983 0.070934854 0.15319633 0.11271912
0001d0 92 ba 2c 3d 0c de 15 3d e0 cf e3 3d fb 38 d7 3d
       0.042170115 0.036588714 0.111236334 0.10508915
0001e0 0a 3e da 3d d6 89 a1 3d 95 2d f0 3d b9 4b 43 3e
       0.10656364 0.07887618 0.11727444 0.19071855
0001f0 97 fc 8a 3d b5 8c bf 3d 5e bf 33 3e 75 b1 f2 3d
       0.06786459 0.093530096 0.1755347 0.118502535
000200 14 57 f3 3d 4e bc 5f 3e 20 1d 33 3e b9 64 04 3e
       0.11881843 0.21849176 0.17491579 0.12929048
000210 65 02 37 3d af d4 ac 3d de d1 c1 3d d1 6b 36 3e
       0.044680018 0.08439004 0.09463857 0.17814566
000220 45 73 e1 3d 76 60 33 3e 68 cd cd 3d f8 66 e2 3c
       0.11008314 0.17517266 0.10048944 0.02763699
000230 c2 9b 0f 3e 94 23 06 3e 13 ca d3 3d f9 e7 21 3e
       0.1402426 0.1309951 0.10341277 0.15811147
000240 bf 13 e4 3d 0a f3 2c 3e 9e fd d1 3d 1b 43 17 3e
       0.11136579 0.16889587 0.10253452 0.14771692
000250 a0 eb ea 3d 59 3c f9 3d 13 84 d7 3d 43 3e 33 3e
       0.11470723 0.121697135 0.10523238 0.1750422
000260 bf 07 c1 3d d4 b6 00 3e fe 69 18 3e 19 aa c8 3d
       0.094253056 0.12569743 0.14884183 0.097980686
000270 c0 f9 bf 3d d4 78 28 3d 31 3b c1 3d e1 a5 c9 3d
       0.09373808 0.041130856 0.09435118 0.09846092
000280 09 33 15 3e 5d 24 70 3d 91 32 6c 3d 62 c2 90 3d
       0.1457025 0.05862843 0.05766541 0.070683256
000290 ee b6 58 3e b2 59 49 3d 0c fb 4c 3d 45 cc f2 3d
       0.21163532 0.049157806 0.050044104 0.118553676
0002a0 9c a8 f8 3d e0 74 f6 3d 81 fa 8d 3d 1b 58 a7 3d
       0.12141535 0.12034011 0.069325455 0.08171102
0002b0 92 c3 08 3e f2 2a 44 3e 92 b5 e0 3d 11 99 b4 3d
       0.13355854 0.19157007 0.10972132 0.088182576
0002c0 37 2e 43 3e ec a2 33 3e 4d b7 b5 3d d6 dd 2b 3e
       0.19060598 0.17542619 0.088728525 0.16783842
0002d0 4c 1e 8c 3e f3 58 32 3d 58 40 cc 3c 3a b1 e3 3d
       0.27366865 0.04354186 0.024933025 0.11117788
0002e0 c6 c2 03 3e ac b7 30 3e c3 c8 22 3e 5b 94 f0 3d
       0.12867269 0.17257565 0.15896897 0.117470466
0002f0 2e 9b 8d 3d c9 d1 27 3d a9 7b 2a 3e d8 68 39 3d
       0.06914364 0.04097155 0.16648735 0.045266002
000300 40 cf cb 3d f4 23 dc 3d 13 af c3 3d 0f 35 9c 3d
       0.09951639 0.10749045 0.09554877 0.076273076
000310 f0 8a dd 3d 1c 89 fd 3d b6 35 a0 3d cc 7c fc 3d
       0.10817516 0.12379667 0.078227445 0.123284906

layers.4.weight f4 [100, 200]
000000 e4 7e c9 3d 9a 84 1c bb a6 98 83 3d bb 36 58 bd
       0.098386556 -0.0023882748 0.064256 -0.05278657
000010 95 76 d9 3c 1f 5e 91 3b 48 b2 7c bc d0 b5 ad bd
       0.026545802 0.004436269 -0.015423365 -0.084819436
000020 64 9a b8 bd 96 37 f3 bc 12 21 6b bd 4a 35 a5 3d
       -0.09013823 -0.029689591 -0.057404585 0.08066805
000030 82 3a 67 3d 63 fa 19 3d 17 60 59 3c 25 7e 3b 3d
       0.05645228 0.037592303 0.0132675385 0.045774598
000040 f0 0b ff 3d c8 1d 14 bd 46 44 d7 bd 72 fb 15 bd
       0.12453449 -0.036161214 -0.10511069 -0.03661675
000050 52 fc e4 3c c5 7a 32 3d 36 49 77 3d 1f 58 ce 3b
       0.027952347 0.043574113 0.060372554 0.006297126
000060 0e 67 df ba 4c f2 11 3e 97 3f a0 3c d2 55 09 3d
       -0.0017044262 0.14252585 0.019561572 0.03352911
000070 d3 cf 6f bd c4 65 90 bd fc d8 73 3d eb 47 d4 bd
       -0.058547806 -0.0705066 0.059533104 -0.1036528
000080 9d 09 81 3b 63 8c fb 3c b3 9a cf 3c 92 a3 ce bc
       0.0039379136 0.03070659 0.025342321 -0.02522448
000090 60 ba 64 b8 6a 4a e9 3d 6e 0b 31 3c 2b f2 ca 3c
       -5.453301e-05 0.113911465 0.010805948 0.024773678
0000a0 be 4d 19 bb c1 9b 03 3d f7 94 c0 3d cf 18 f2 bc
       -0.0023392285 0.03213096 0.09403413 -0.029552845
0000b0 7f 02 c0 bd 17 db ba bc 4c c5 6f 3d 4c 59 0a bc
       -0.09375476 -0.022809548 0.058537766 -0.008444142
0000c0 a9 5d 39 bc 1e 8b 09 3d df 4a c9 3c c1 04 75 bd
       -0.011313834 0.033579938 0.024571834 -0.059818987
0000d0 62 03 a7 3d 41 c2 9b bb 27 36 c1 bc 19 e1 2b 3b
       0.08154942 -0.0047533815 -0.023585392 0.0026226698
0000e0 01 5c 9d 3d 85 16 f7 bc ec 99 d7 bc de b8 93 bd
       0.07683564 -0.030162105 -0.026318513 -0.07212995
0000f0 70 ea b2 3d 5c 91 ff bc fc 2c 92 3c a1 3c 89 bd
       0.08736122 -0.031197242 0.017843716 -0.06701017
000100 ba 24 28 3d 90 66 bc bb a8 c3 72 bd 29 95 ff bc
       0.04105065 -0.005749531 -0.059268624 -0.031199055
000110 4c a8 61 bc 0a 52 3f bb f8 7f 71 3c 97 ef af 3c
       -0.013773035 -0.0029193186 0.014739983 0.02147655
000120 a6 a8 90 3c 79 97 9a 3d d9 95 55 3d 8f 86 b4 bb
       0.017658543 0.07548422 0.05214486 -0.0055092047
000130 ee 12 ad 3d a8 10 99 bc d8 e2 36 bb d6 50 08 3d
       0.08450876 -0.0186847 -0.0027906206 0.033280216
000140 1c b1 84 bd f5 ae 04 bd 7c 8f 5e 3d 15 90 a3 3d
       -0.064790934 -0.032393415 0.054336056 0.07986466
000150 f0 a7 0e 3d 70 d0 82 bd 18 7d 2c 3d a6 78 db 3c
       0.034828126 -0.063874125 0.042111486 0.026790928
000160 a3 71 6f bc c7 23 c8 bb 74 7d 08 bd 25 66 7e 3d
       -0.014614495 -0.0061077806 -0.033322766 0.06210913
000170 ad 39 41 3d 59 e8 34 3d ee a5 d4 3c b8 c1 51 3d
       0.047174145 0.044166896 0.025958028 0.051210135
000180 58 03 85 bd 2f 96 6d 3d 17 75 5c 3c 6c 5d 02 bb
       -0.064947784 0.058004554 0.013455651 -0.001989211
000190 d5 56 fd 3c a0 7f 96 3d 89 86 6f bc 10 eb c4 ba
       0.030925194 0.07348561 -0.014619478 -0.0015023667
0001a0 c0 36 a4 3d c7 ac 8b 3d 3e 79 c2 bd ca 2e d8 3b
       0.08018255 0.06820064 -0.09495781 0.0065973746
0001b0 bd 17 8c bc 60 bd 74 bd b5 f7 9c 3d be 35 6b bd
       -0.017101163 -0.059750915 0.07664434 -0.0574243
0001c0 83 ba 33 bb c2 40 85 bc 90 9a 20 3d 83 00 02 3d
       -0.0027424402 -0.01626623 0.039209902 0.03173877
0001d0 d1 88 26 bd 48 c5 0e bd 68 9b 2b 3d f4 d2 82 bd
       -0.040657822 -0.03485611 0.041896254 -0.06387892
0001e0 4e 35 9b 3d 16 7d 69 bc 83 55 0c bd 41 b1 30 3c
       0.075785264 -0.014251014 -0.034261238 0.010784448
0001f0 df 01 29 3d 21 3c e1 3c 2f ae 0c bd 26 fa 5f bc
       0.04126155 0.027494492 -0.034345802 -0.01367048
000200 ca 89 a9 3b 6d 9a 89 bd 6f fc 9e 3b 5a 7c 11 bd
       0.0051738964 -0.067189075 0.00485187 -0.03551898
000210 1c 62 d8 bc 23 56 31 3d 3c e0 01 3d fd 58 5c 3d
       -0.02641397 0.043295037 0.031707987 0.053795803
000220 b3 c0 a1 3c c8 75 06 bc 1c fd 45 3d e7 47 b6 3d
       0.019745206 -0.008206792 0.048337087 0.08900433
000230 cb 7d 30 3d a7 ef 69 3c 5d 7b b4 bc 7a 81 a9 bd
       0.043088716 0.014278329 -0.02203148 -0.08276649
000240 c0 e9 a6 3d 07 9a 04 3d 0f 88 67 bd c3 8a 43 bd
       0.08150053 0.032373454 -0.05652624 -0.047739755
000250 09 17 f8 3c 63 09 7d bd b5 8a 9f 3c 86 68 48 3d
       0.030284422 -0.06177653 0.01947532 0.048927806
000260 1a 30 83 3d fc af 70 bd 4a 65 4e 3d db 15 5f 3d
       0.06405659 -0.05876158 0.050389566 0.054464202
000270 0e c5 92 bc 14 34 65 3d 2e 59 21 3c 22 0d ae bc
       -0.017916229 0.05595787 0.009847922 -0.021246497
000280 f1 09 e7 3d 66 13 5e bd 6b 07 e9 bc 55 26 89 bd
       0.11281193 -0.05421772 -0.02844592 -0.066967644
000290 cf de 5b 3d 33 6c 88 3d cc 44 9e bb 5e 92 65 3d
       0.053679284 0.06661262 -0.0048299786 0.05604779
0002a0 f0 49 33 3a 1b 36 a4 3c e0 58 20 bd e3 58 a0 3c
       0.00068393257 0.02004533 -0.039147258 0.019573634
0002b0 1b 70 09 3d 17 84 32 3d 63 49 3d bd 50 b5 2b 3d
       0.033554178 0.043583002 -0.046212565 0.04192096
0002c0 6a 1a 00 3e aa 5b 11 bd 60 46 97 bc 31 71 62 3d
       0.12510076 -0.03548781 -0.018466175 0.05528373
0002d0 64 c8 e3 bd ed b9 87 3c f5 f8 f6 bc 4c 44 bc bd
       -0.11122206 0.016568149 -0.030148009 -0.09192714
0002e0 d2 99 75 3d 51 7d 26 bd 83 96 1a bc 8e 4a 7e 3c
       0.059961148 -0.040646855 -0.009435299 0.015520705
0002f0 71 3e 2c 3b 13 df 15 3d 29 8c 9b 3d ec 7c 8a 3c
       0.0026282335 0.036589693 0.07595093 0.01690527
000300 23 03 36 bd 6a 6a aa bc 4f b6 0f 3d 11 b1 88 3d
       -0.044436585 -0.020802695 0.035085972 0.06674398
000310 8e 19 01 bd a0 d9 9e bd 66 18 c9 3d e6 70 5d bd
       -0.03151851 -0.077563524 0.09819107 -0.054062746
000320 77 55 d8 3d 37 05 36 bd 15 b1 7d 3d 0e 64 b3 bd
       0.10563176 -0.044438567 0.061936457 -0.08759318
000330 ab 7f b7 bd 01 df f0 3b 79 ce a8 3d cb 00 48 3c
       -0.089598976 0.007350803 0.082425065 0.01220722
000340 7c 6f 18 bc fc 92 97 bd 69 3b b9 3b 70 b5 11 bc
       -0.009303924 -0.07401082 0.005652834 -0.008893356
000350 9e 69 c2 bb 6c 32 bf 3d 19 7d e7 3d 73 82 c0 3c
       -0.0059330007 0.09335789 0.11303157 0.023499703
000360 ab d1 ba 3d 65 b3 98 bc ab 3a 03 3d e6 3e 0d bd
       0.09122022 -0.01864023 0.032038372 -0.034483813
000370 79 31 0a bd 12 65 28 3d 75 ec 99 3d b4 ec 21 bd
       -0.033738587 0.041112013 0.07515804 -0.03953238
000380 a2 80 c1 3d 2c 62 0a 3d b5 7c 91 bd e4 d5 80 3d
       0.09448363 0.03378503 -0.07103864 0.062907964
000390 b7 2c d2 bc c7 79 3b bc 3d f7 c5 3d 7a 26 0b bd
       -0.025656087 -0.011442608 0.096662976 -0.03397224
0003a0 d3 70 2e 3d ba ff bf bd 73 d7 3c 3d b9 69 91 bc
       0.042588066 -0.09374948 0.046103906 -0.017750608
0003b0 ad e6 84 3c 86 01 f8 3c 1a 8f ba bc 46 c6 8b bd
       0.016223276 0.030274164 -0.022773314 -0.06824927
0003c0 c8 41 69 38 5e fe b8 3d a0 71 99 bb 5d fa 1b 3d
       5.5612792e-05 0.09032892 -0.0046827346 0.038080562
0003d0 13 46 21 bd 5e e3 a5 bd a4 c0 8b bd 68 02 11 bd
       -0.03937347 -0.081000075 -0.06823853 -0.035402685
0003e0 4a 21 67 bd e2 e8 43 bd ff ef 1b bc d0 78 80 bd
       -0.05642823 -0.047829516 -0.009517669 -0.06273043
0003f0 0e 07 d3 bc bb 59 a7 3c f0 be ca bc 06 01 8d bd
       -0.0257602 0.020428529 -0.02474925 -0.06884961
