review_pytorch/version_1/my_iris_model_sm.pt (torch, 3497 bytes, 8 tensors)

fc1.weight f4 [8, 4]
000000 2a c0 50 3e 9a f8 c7 be 0f 60 9a be f1 da 53 3d
       0.20385805 -0.39056855 -0.30151412 0.05172247
000010 08 29 c6 be f0 7d a2 3d 60 a1 17 3e da 44 f4 be
       -0.3870318 0.07934177 0.14807653 -0.4770878
000020 dc 7d 63 bd 5c 0b 86 be 6f e4 6b 3f 43 f2 26 3f
       -0.05553995 -0.26180542 0.92145437 0.6521341
000030 81 0b 6b 3f 0d cb 13 3f 28 f5 0f be 03 44 86 bf
       0.9181443 0.57731706 -0.14058363 -1.0489506
000040 ac 51 53 3f 27 ba f0 bc 10 2e 4b 3f 24 e0 67 3f
       0.82546496 -0.02938564 0.7936716 0.90576386
000050 ea 48 64 3e 16 39 d5 3e 4e 9c c6 be b5 1b 55 bf
       0.2229344 0.41645116 -0.38791126 -0.832454
000060 a8 98 28 3e 70 0d e4 bd ec ba d7 be 58 f0 b5 be
       0.16464484 -0.111353755 -0.42134798 -0.3553493
000070 9c 64 a3 be 90 69 13 3e 38 ff b2 be e4 82 69 3e
       -0.31912696 0.14395738 -0.3496034 0.22803837

fc1.bias f4 [8]
000000 c6 26 71 3e 1c bc 4f be 07 8d 8f bf d2 24 be 3f
       0.23549947 -0.20286602 -1.1214913 1.4854987
000010 23 a1 03 bd 89 3d a8 3f ea dc 9f be f0 90 c1 3e
       -0.032136094 1.3143779 -0.31223232 0.3780589

fc2.weight f4 [9, 8]
000000 3a a1 5e be 20 2c a8 3d 9e 52 4e 3e ec 07 83 be
       -0.2174119 0.08211541 0.20148703 -0.2559198
000010 18 8e a4 be 22 4f 4a 3e 8a e5 b2 be 11 1c 87 be
       -0.3213966 0.1975675 -0.3494075 -0.263886
000020 ab 3a 18 3e c4 bf f2 bd 52 d2 41 3f 10 3b fd bd
       0.1486613 -0.11852983 0.7571155 -0.12364781
000030 1b fd e3 3e 19 28 61 bf 40 2e 8f 3d 70 31 a7 be
       0.44529042 -0.8795181 0.06991243 -0.32654905
000040 2a 4f 99 be 8d 12 8b be e6 8d 0a 3f 2d eb d1 be
       -0.2994321 -0.2716259 0.5412277 -0.40999737
000050 26 e4 2a 3f b7 ea 1d bf 27 0a 9c 3e 89 2c 57 be
       0.66754377 -0.6168627 0.30476496 -0.21013083
000060 24 bf 3c 3d b8 92 78 bd 2e 34 42 3f 1e 24 10 bd
       0.046080723 -0.060686797 0.7586087 -0.035190694
000070 59 36 09 3f 1a 63 13 bf 99 b0 99 be f4 f0 e6 bd
       0.5359855 -0.5757309 -0.30017546 -0.11276427
000080 b5 1c fa 3d a5 c6 43 be 24 90 55 be 1b 28 bd be
       0.12212507 -0.19118746 -0.20855767 -0.3694466
000090 ff fe 8b 3e 3d 93 a3 3e e8 49 50 be 00 9f 3a 3c
       0.27342984 0.3194827 -0.20340693 0.011390448
0000a0 a0 47 a1 bc 50 61 80 3d 76 46 6b be 4c de 61 be
       -0.019687474 0.06268561 -0.22976097 -0.22057456
0000b0 28 b5 54 bd be 2b 8b be 40 47 21 3d 07 17 39 be
       -0.051930577 -0.2718181 0.03937459 -0.1807519
0000c0 cb 77 bf 3c 50 ea 8e bc cb 61 19 bf 06 bb 45 3f
       0.023372551 -0.017445713 -0.59914845 0.772385
0000d0 32 b3 1c 3f ff 84 03 3f 02 42 e2 bd 38 b8 7f bd
       0.6121093 0.5137481 -0.11047746 -0.062431544
0000e0 7d fd c6 be 7c 94 af be c6 61 10 3e ab 0e a4 bd
       -0.3886527 -0.34292972 0.14099798 -0.0801061
0000f0 87 92 73 be fd bd 8f 3e 20 66 b4 be 81 fa 9f 3e
       -0.23786364 0.28074637 -0.35234165 0.31245807
000100 17 d3 ac be 37 2c 55 be 16 2c 46 3e 4c 46 b7 bd
       -0.337548 -0.20817648 0.19352755 -0.08948955
000110 a6 66 d9 bd 52 15 77 be 6c 30 dd 3d 49 ee 91 3e
       -0.10615282 -0.24129227 0.10800251 0.2850211

fc2.bias f4 [9]
000000 04 f8 eb 3d db 6e b6 bd ab 85 78 bf a1 55 67 bf
       0.115219146 -0.08907863 -0.9707896 -0.90365034
000010 2b 42 8b be 08 de 12 bd 6b 16 74 3f cc 43 4c bd
       -0.2719892 -0.035856277 0.9534671 -0.049869344
000020 c8 71 2c 3d
       0.042100698

fc3.weight f4 [8, 9]
000000 40 b6 5c be 16 18 b1 bd 70 a1 df 3c c0 84 c2 3d
       -0.21553898 -0.08647172 0.02729866 0.09497976
000010 eb bd 65 be 42 1a 68 3e 40 bf d2 bc 0c 07 fe 3d
       -0.22435729 0.22666267 -0.02572596 0.12403688
000020 6d 34 9a 3e ea 4b 34 3e e0 dd 35 be 74 1b bd be
       0.30118123 0.17607084 -0.1776042 -0.36935008
000030 38 76 20 bf f0 d7 ef 3d b1 2f 8b 3e 2c 6f b4 3e
       -0.6268039 0.11711109 0.27184823 0.35241067
000040 dd 98 a8 3d 01 4d 8d 3e 56 38 f0 bd 31 15 35 bf
       0.08232281 0.27597812 -0.11729495 -0.7073546
000050 ab 69 24 bf cb eb 03 bf 17 d5 3e 3d e6 d2 a4 be
       -0.64223737 -0.51531667 0.046589937 -0.32192153
000060 6a 15 d7 3e cd 6a 8d be 48 26 22 be 6a e1 08 3e
       0.42008525 -0.27620545 -0.15834916 0.13367239
000070 70 f0 97 bc 0b 86 0c be 2c f4 9c be 4a 92 4a 3e
       -0.018547267 -0.13723008 -0.30655038 0.19782367
000080 77 8a a0 3e 3a 8e 47 bd 26 57 06 be a4 09 9f bd
       0.3135564 -0.048719622 -0.13119182 -0.07765511
000090 2b be 7e be 9b cd 26 3f d2 db 35 3f 5a 73 09 3f
       -0.24877231 0.6515748 0.71038544 0.5369164
0000a0 5d 96 d4 bd fe 0d 32 3e 72 13 15 be 5c b7 fb 3d
       -0.10380242 0.1738815 -0.14558199 0.122908324
0000b0 74 d5 87 3d d2 76 68 3e 75 c3 e5 be 7c 42 3e bf
       0.0663251 0.22701576 -0.44875684 -0.743202
0000c0 b9 da 1a be 32 18 ae be 00 e6 9e be 76 b8 58 3f
       -0.15122499 -0.34002835 -0.3103485 0.84656465
0000d0 d4 37 f6 3c 62 50 67 3e 9e 60 19 3e 59 cf 2f 3f
       0.030055918 0.22589257 0.14978263 0.6867576
0000e0 3c 71 d7 3e 48 f2 52 3f 63 7d 4a be c0 62 55 be
       0.42078578 0.8240094 -0.19774394 -0.20838451
0000f0 0a 01 95 3e c6 5b 07 be a6 ed 47 3e 60 2a 38 bd
       0.29102355 -0.13218603 0.1952425 -0.044962287
000100 ac ed a1 be f7 18 2b bf 42 8a 16 bf 8c 06 f9 3d
       -0.31626642 -0.6683497 -0.58804715 0.12159452
000110 6e 73 29 be 6c c7 93 3f 35 0e b9 3e 8a 21 96 be
       -0.16547939 1.1545234 0.36143652 -0.29322463

fc3.bias f4 [8]
000000 53 44 0e be d8 a6 2d be 8b 9e 05 3f 34 57 6d be
       -0.13893251 -0.16958177 0.5219504 -0.23177797
000010 f4 d3 c3 3d f3 32 46 3f 65 a6 45 3e 8c b0 2f 3f
       0.09561911 0.7742149 0.19301756 0.68628764

out.weight f4 [3, 8]
000000 59 ea 84 3e 65 c9 b2 3e e9 31 bf 3e 0a 78 98 3d
       0.25960043 0.34919277 0.37342766 0.07444771
000010 5a b8 33 bf bf 50 bb 3e 62 a5 d8 be 23 e0 2a 3e
       -0.70203173 0.36585042 -0.42313677 0.16687064
000020 a8 38 0e bd 64 2d 42 bf eb 2f f7 be ce 62 29 3e
       -0.034722 -0.7585051 -0.48278746 0.16541597
000030 39 6f 73 3d 58 3d 4f bd 46 73 e0 3e f3 ee 1f 3e
       0.059432242 -0.05059561 0.43837947 0.15618496
000040 17 44 9f 3e 18 15 f5 bd 4e ec c1 be 20 a1 8d be
       0.31106636 -0.11966914 -0.378756 -0.2766199
000050 c7 be 56 3f c6 9f 97 bf 82 40 05 3f 89 9e 98 bf
       0.83884853 -1.1845634 0.52051556 -1.1923381

out.bias f4 [3]
000000 5f 94 60 bd f1 84 3e 3f cf 6f 9b be
       -0.054828998 0.744216 -0.3035874
