review_pytorch/classification_projects/fashion_review/fashion_cnn_model_sm.pt (torch, 168355 bytes, 10 tensors)

conv1.weight f4 [6, 1, 5, 5]
000000 64 60 2b be 7d fc 07 be ee 1f 6a be 18 18 f5 3e
       -0.16735989 -0.1327991 -0.22863743 0.47869945
000010 86 69 21 3d 5c 54 a6 be 2c b1 3f bd 5e fd 39 be
       0.039407276 -0.32486236 -0.046799824 -0.18163058
000020 67 a2 91 3e 6d 91 88 3e e2 a7 ce 3b a5 f6 9a be
       0.28444216 0.2667345 0.0063066343 -0.302663
000030 8d 54 e3 bd b7 ae 85 3e 24 e2 08 3e ea d9 03 be
       -0.11100111 0.2610986 0.13367516 -0.12876096
000040 57 93 9a 3d 0d be 68 be 93 ad 9f 3e 49 91 1e bc
       0.07547634 -0.22728749 0.31187114 -0.009678193
000050 61 df 6f 3e 8b 3c 72 bd a1 0e ba be c6 26 2c 3e
       0.23425056 -0.05913977 -0.36339286 0.16811666
000060 d1 45 0f 3d 78 de db bd 71 a6 45 be c8 0e 36 be
       0.03497869 -0.10735792 -0.19301774 -0.17779076
000070 80 71 7c be 12 b1 29 3d 75 f7 fd bc 60 19 d2 3d
       -0.24652672 0.041428633 -0.031001786 0.10258746
000080 0b e1 8a bc f2 1b f3 bd b4 89 aa bc 93 c6 04 bd
       -0.016953012 -0.118705645 -0.020817615 -0.032415938
000090 7f 49 3f 3d cf 96 59 bc d8 fc 99 3c cc 92 9d bd
       0.04670095 -0.0132805845 0.018797323 -0.07694015
0000a0 01 79 d0 3d d0 7f 3e 3e 6e f1 d8 3d 29 ea cd 3d
       0.1017933 0.18603444 0.10592924 0.10054428
0000b0 91 03 e6 3c 83 51 4f 3e bc ba 9d 3c 9a b4 62 3e
       0.028077872 0.20245938 0.019254081 0.22139207
0000c0 98 24 a2 3e 12 ea 12 3e 96 81 da bd fa 43 32 be
       0.31668544 0.14347103 -0.10669248 -0.17408744
0000d0 3e 0c d4 bd 4e 8e fa be cf 65 03 bf d3 a6 fa bd
       -0.103538975 -0.48936695 -0.5132722 -0.122388504
0000e0 b3 3a 83 be 40 dd 8b 3e bb 73 5a 3e 40 f8 f4 bd
       -0.2563072 0.27317238 0.2133321 -0.119614124
0000f0 51 d1 5d 3e 66 73 cb 3d 76 cb 85 3e cd 76 c7 3d
       0.21661879 0.0993412 0.2613179 0.09739456
000100 eb 73 07 be 5b f5 6c 3d 6a e8 f6 bc 17 77 41 be
       -0.13227813 0.057851177 -0.03014012 -0.18893085
000110 03 e6 8b 3e b1 94 0e be d0 9a 90 3e db 73 1e 3d
       0.27323923 -0.13923909 0.28243113 0.038684707
000120 2f 12 03 be 12 bb ac 3e 7d 7d 4c bb 14 13 84 3e
       -0.12799905 0.33736473 -0.0031202727 0.25795805
000130 f0 f4 bc 3e 2e fc 7e 3e 6b 9f 82 bc f2 ae bc bc
       0.36905622 0.24900886 -0.015945157 -0.02303264
000140 ba 95 41 3e 21 47 b7 bd fc 1d e2 bd fe 09 89 3e
       0.18904772 -0.08949114 -0.11040875 0.26765436
000150 0e 85 c7 3d a1 8d 22 be 06 61 0b 3d 2b 30 9b be
       0.09742175 -0.1587434 0.034028076 -0.30310187
000160 f6 5a 27 3e 0f a0 68 3c 71 25 16 3d e2 99 85 be
       0.16343293 0.014198317 0.0366568 -0.26093966
000170 45 f5 35 be 02 01 b5 3d b9 05 8a be 05 22 d4 bd
       -0.17769344 0.08838083 -0.2695749 -0.10358051
000180 ba fa d5 bd 6a 84 51 3e de 36 31 3e c5 94 f4 be
       -0.10448213 0.20460668 0.17306086 -0.47769752
000190 22 11 97 3d d9 28 26 3d a6 e9 f2 bb 19 13 c6 bd
       0.07376315 0.0405663 -0.007413107 -0.09671611
0001a0 31 13 f0 bd bc 87 99 3e d5 16 85 3d b1 ee ed bd
       -0.117224105 0.2998637 0.064984955 -0.116177924
0001b0 32 da 9a be d4 20 0a 3e 86 66 85 3e 50 40 3e 3e
       -0.30244595 0.13489085 0.26054782 0.18579221
0001c0 da 95 5d be ac 82 d6 bc 2b d4 9d bb d6 e7 9e 3e
       -0.21639195 -0.026185356 -0.004816552 0.31036252
0001d0 96 da 65 3e b2 1d 19 be 0c 72 1f be d3 d6 da bd
       0.22446665 -0.14952734 -0.15570849 -0.10685506
0001e0 d4 59 00 3e 5f 0e 96 3d 2b 35 0b 3d fa 8a b6 be
       0.12534267 0.0732696 0.03398625 -0.35652906
0001f0 a1 53 7f be d2 b2 96 bf 3c e8 29 c0 a5 ba 59 bf
       -0.24934246 -1.1773322 -2.6547995 -0.8505042
000200 04 8e 84 be 0b a2 92 bc 86 09 3d bf ca 8d 0d c0
       -0.258896 -0.017899534 -0.73842657 -2.211779
000210 af 69 b6 bf 05 70 9c bd 2b 0a 7f 3d b7 4e 3a 3e
       -1.4251002 -0.076385535 0.062265556 0.1819409
000220 e5 ac 9a be e1 07 40 3d 16 72 9f bd ab f3 26 3e
       -0.30210033 0.046882514 -0.07785432 0.1630389
000230 9e df cd 3e 50 0f c6 bc f3 85 15 3c 66 79 d2 bd
       0.4020967 -0.024177223 0.009126174 -0.10277061
000240 7b 5d 59 3d d1 47 90 3e c5 d4 12 3b 42 db 8b 3d
       0.053067666 0.28179792 0.0022404653 0.068289295
000250 f9 c0 f2 bd bb a4 13 3d
       -0.11853213 0.03604577

conv1.bias f4 [6]
000000 82 b3 4a 3b 18 f3 4f bd cf 34 b6 3d 4a 11 ae bb
       0.003092975 -0.05076894 0.08896791 -0.0053121196
000010 5f bb f3 3d e1 6c d9 3e
       0.119009726 0.4246588

conv2.weight f4 [16, 6, 5, 5]
000000 56 80 2a bd 25 75 80 bd af ea e1 3c 17 4a cd 3e
       -0.041626297 -0.062723435 0.027577726 0.4009559
000010 05 c1 fb 3d 86 59 5d be 0d 1e 65 3d 26 78 f2 3c
       0.12292675 -0.21616182 0.05593686 0.029598307
000020 d9 52 06 3e cc 4c 23 be fb 25 d9 be 8a 8c 5a be
       0.13117541 -0.15947264 -0.4241179 -0.21342674
000030 dd df 07 3e 4d 38 87 be 0c cd 7f be 6f 69 88 be
       0.13268991 -0.26410142 -0.24980563 -0.2664294
000040 36 10 8b bc 95 58 79 3d 60 d2 62 3b f6 d0 bc be
       -0.016975503 0.060875494 0.0034610257 -0.36878175
000050 cf 9c 78 be 98 21 9b bc 54 92 ab 3d 70 bf ea bd
       -0.24278568 -0.018936917 0.08377519 -0.11462295
000060 bf 0d 0c bf 13 16 54 bd 7b f0 68 bc 7d 0b 99 bd
       -0.54708475 -0.051778864 -0.014217491 -0.07472894
000070 e4 d8 a3 bd 41 83 fd bd 5d ee 6f 3d 78 59 47 be
       -0.08000353 -0.1237855 0.05857693 -0.19467723
000080 59 dd 25 3d aa db b5 bd 21 fc b4 be fc 58 79 3d
       0.040494297 -0.08879788 -0.3534861 0.060875878
000090 3b 20 95 bd 5e 96 83 bd aa a1 71 bd 06 48 ec bd
       -0.07281538 -0.06425165 -0.058992065 -0.11537175
0000a0 20 b3 b2 3d 84 9e 7e bd 26 b2 db bd 5a 50 14 be
       0.08725572 -0.06216289 -0.107273385 -0.14483777
0000b0 53 26 92 3d 52 ae 87 bd 02 49 ab bc 60 a5 05 be
       0.07136216 -0.06625046 -0.020908836 -0.13051367
0000c0 ea 7d 33 be 87 74 5a be 46 eb 4b 3e 2a c6 af 3e
       -0.17528501 -0.21333514 0.19913968 0.34330875
0000d0 81 c6 af be c9 e8 9a be bc 85 05 be 31 18 86 3e
       -0.34331134 -0.30255726 -0.13039297 0.26190332
0000e0 d4 39 89 3c 6a af ed 3d bf 9b 78 be f1 53 ea be
       0.016751207 0.11605723 -0.24278162 -0.45767167
0000f0 53 5b 80 3e 8a 16 fc bd a1 ed 88 3e 9f b1 85 3c
       0.25069675 -0.123089865 0.26743796 0.016320048
000100 5c 7f a7 bc 56 76 8d 3e 3d e3 9f 3e e9 26 d1 3d
       -0.020446472 0.27629346 0.31228057 0.102125
000110 78 46 0a 3e 5e 66 35 3e 34 f9 05 3e c0 81 10 3e
       0.13503444 0.17714831 0.13083345 0.14111996
000120 2d 67 ab bd c5 7b 10 3e 3b 13 08 3e af 8d 05 be
       -0.083692886 0.14109714 0.13288586 -0.13042329
000130 3c b8 4b be 8b b3 0c be 7b ba a8 3d 73 61 67 3e
       -0.19894499 -0.13740365 0.08238693 0.22595768
000140 e5 67 e6 bc a9 15 e9 3d 20 8a 9f bc 71 0b 9d 3e
       -0.028125713 0.113810845 -0.019475043 0.30672792
000150 c5 7a b3 3e 8d b0 4e 3e 1c 2e 5e 3d 8f b3 2c be
       0.35054603 0.20184536 0.054243192 -0.16865371
000160 58 09 fa bd 16 66 76 bd c6 d8 b4 3e 06 1d 9f 3d
       -0.122088134 -0.06015595 0.35321635 0.07769208
000170 84 e1 84 3c 5a d1 34 be 5b 3f ab be 5f 6d 9c 3e
       0.016220815 -0.17657986 -0.33446774 0.30552194
000180 73 cb 96 3a 3a ce 62 3d 26 4b 35 be 7e 73 f0 bd
       0.0011504724 0.055372454 -0.17704448 -0.117407784
000190 00 8e be 3e 6d 9e 38 bc 78 20 42 be 76 27 26 be
       0.37217712 -0.01126824 -0.18957698 -0.1622599
0001a0 cf 42 1b 3d 88 56 aa 3d 3b dc 48 be b5 65 0e be
       0.03790551 0.08317286 -0.19615261 -0.13905986
0001b0 60 65 93 3e 3e 0d 18 be d8 7c 68 3a e6 b2 19 be
       0.2878828 -0.14848801 0.0008868701 -0.1500965
0001c0 60 d9 ca bc 94 9d 8c 3e fa 54 ea bd 3e b3 1c be
       -0.024761856 0.27463973 -0.11441989 -0.1530275
0001d0 56 4b 7f bd 2f 1b da bd 4a e6 be 3c 9f 56 9d bc
       -0.062327705 -0.10649716 0.02330317 -0.019206343
0001e0 45 f5 88 3d 79 eb 5b 3d dc d4 c1 bd 83 85 23 3e
       0.066874065 0.05369136 -0.09464428 0.159689
0001f0 cc 0e 86 bc e5 81 fb 3d b1 38 98 3e 99 0f 29 3f
       -0.016364478 0.12280635 0.29730752 0.66039425
000200 66 8c 05 3f 6b 41 bb be 34 c3 b0 bd ae 12 1e 3e
       0.52167356 -0.36573347 -0.08630982 0.15436813
000210 eb 12 78 3e ad 2a 8a 3e 8a 7e 47 3e 29 15 54 3d
       0.24225967 0.26985684 0.19481865 0.051777992
000220 81 12 c4 3e e0 f6 d3 3d d3 e9 a7 bd b4 51 73 3f
       0.38295367 0.10349822 -0.08198895 0.95046544
000230 aa 47 96 be cb 5c b5 3c 4e e2 ba be 85 25 c5 be
       -0.2935155 0.022138974 -0.36500782 -0.38505188
000240 87 24 22 3f cb fe 62 be 9d 03 a9 bc b9 ec 85 bd
       0.63336986 -0.22167508 -0.020631606 -0.06539292
000250 ab 3e 63 bd a5 0d d0 3e 91 1a 58 bd b1 6a 43 bd
       -0.055479687 0.4063541 -0.05275971 -0.04770917
000260 c9 de e0 3b 8c 74 94 3d e7 29 91 3d 33 0c 96 3c
       0.0068624956 0.07248792 0.0708807 0.018316364
000270 94 30 a5 bd af 42 04 be 7c 1a 14 bd 9e 78 21 3d
       -0.08065906 -0.12916063 -0.03615807 0.03942167
000280 ae 04 07 3d fd 57 b7 bd a3 62 ad bd 77 34 55 bc
       0.032963447 -0.08952329 -0.08466079 -0.013012997
000290 14 9b 65 bd e5 76 f2 bc 64 0e dd bd b4 2e e9 bd
       -0.056056097 -0.029597709 -0.107937604 -0.11385861
0002a0 92 b5 ea bd e8 2b 8d bd 72 81 63 bc d5 39 02 bd
       -0.11460413 -0.0689314 -0.013885843 -0.031793434
0002b0 ed a8 ef bc 0c a1 2a bd fc 58 5f bd a8 0d d2 bd
       -0.029255355 -0.041657493 -0.05452822 -0.10256511
0002c0 e1 c8 81 bc 90 11 65 bc 34 45 87 3d 54 2a 1b 3d
       -0.015842857 -0.013981238 0.06604996 0.037882164
0002d0 50 51 38 3d 4d 30 ce bd 2a 92 e9 bd a5 b9 71 bd
       0.04499942 -0.100678064 -0.11404832 -0.059014935
0002e0 4e 29 e5 3c 3d bc 93 bc 09 ef aa bd ce 5e 08 be
       0.027973797 -0.018034095 -0.083463736 -0.13317415
0002f0 54 5a 67 bd a3 28 c3 bd 6a e9 49 bb 53 b9 01 bd
       -0.056482628 -0.09529235 -0.0030809292 -0.03167088
000300 4e f6 01 bd f7 b7 a2 3c 09 77 38 bc 4d 47 c5 bb
       -0.031729035 0.019863112 -0.011258849 -0.0060204626
000310 51 46 2d bd 41 6a 09 be 36 9e 82 bd d1 02 bb bd
       -0.042303387 -0.13419439 -0.063778326 -0.091313966
000320 bf e0 54 bd e6 31 fd 3d ee 60 1e 3d dd eb b2 3d
       -0.051972147 0.12363033 0.038666658 0.087363936
000330 17 69 45 bc 3c 53 01 3d f3 c9 40 bc 74 3d c0 3c
       -0.012048981 0.03157352 -0.011766898 0.023466803
000340 f0 40 97 3d 23 1f 6c bd 57 95 e9 bd 75 e0 67 bd
       0.07385433 -0.05764688 -0.114054374 -0.056610543
000350 a2 0f c8 bd f5 6c e5 bd 05 a3 fa bd 5e 05 a2 bc
       -0.09768607 -0.112024225 -0.12238125 -0.01977795
000360 ea 0e bf bd 2c 4e 30 3d 11 af e8 bd bb 26 0d be
       -0.093290165 0.0430433 -0.11361516 -0.13784306
000370 f4 6f 1a be d5 6a b9 3b 56 0b f7 3c d4 aa 0a be
       -0.15081769 0.0056584873 0.030156773 -0.13541728
000380 c7 97 8f bd 4a 27 c9 bd e9 01 3e bd e6 69 33 be
       -0.07011371 -0.09821947 -0.04638854 -0.17520866
000390 8b 83 ab bd 59 27 28 bd e3 26 1d bd 43 d9 59 3c
       -0.08374699 -0.04105315 -0.038367163 0.013296428
0003a0 07 11 2f bd 7f 8e 25 be b5 9e d3 bd 2c 20 52 bd
       -0.042740848 -0.16167639 -0.10333005 -0.051300213
0003b0 22 08 7b bd 41 30 22 be 9c 1e 10 be 92 36 c1 bd
       -0.061287053 -0.1583872 -0.14074177 -0.094342366
0003c0 b8 3b a2 bd 70 e1 1e bd a0 9d 94 bd a9 7c 0e be
       -0.07921547 -0.038789213 -0.07256627 -0.13914742
0003d0 0e b8 9f 3c e8 52 e0 bd f8 15 6b bd 03 eb a4 bd
       0.019496944 -0.10953313 -0.057393998 -0.080526374
0003e0 43 4a ce bd 06 db 0c bd 92 8e 00 be bd 26 1d bd
       -0.10072758 -0.034388565 -0.12554386 -0.03836702
0003f0 c6 a9 9c 3d 83 cd 8b bd b9 15 2a 3b f5 1e ff bd
       0.07649569 -0.068263076 0.002595289 -0.124570765

conv2.bias f4 [16]
000000 94 db a9 bd 34 07 7c bd bc 46 53 3e 28 64 3d 3d
       -0.08293834 -0.061530307 0.20632452 0.046238095
000010 56 44 f8 bc f1 ca 14 be 3e ca 2a bd f5 a9 e7 3e
       -0.030306023 -0.14530541 -0.04169678 0.45246854
000020 79 29 73 3e 27 21 4a be 27 4e b3 bd 90 a2 9c 3c
       0.2374629 -0.19739209 -0.08755141 0.019120485
000030 04 83 cc bd bc 7f 2f 3e df 11 64 be 57 09 1c be
       -0.09985927 0.1713857 -0.22272442 -0.15237938

fc1.weight f4 [120, 256]
000000 db eb 2c bd 75 ac 5f 3c b0 e4 0a 3d c9 60 81 bd
       -0.042217117 0.013651957 0.0339095 -0.063172884
000010 ed b0 52 bd bb 33 a6 3d a4 ae bf bc ee b2 9f bd
       -0.05143826 0.081153356 -0.023398705 -0.077978
000020 40 b3 4b 3d d2 82 2a bd ba 29 82 3d b7 28 87 bd
       0.049731493 -0.041628666 0.06355615 -0.065995626
000030 0c 4d 57 3d e5 9a a8 3c c8 16 18 bd 3c bf c0 3a
       0.052563712 0.020581672 -0.0371311 0.001470543
000040 f2 ad 73 bd 52 15 1b 3d 00 a4 89 3a ac 14 78 bd
       -0.05949206 0.03786213 0.0010501146 -0.06056659
000050 a8 bf 22 bc 38 b3 3e bc d6 56 33 bd 6c e6 70 bd
       -0.00993339 -0.011639409 -0.043783985 -0.058813497
000060 e8 4f f0 bc ce 8b 19 bd ea b4 25 3d c0 c4 ad ba
       -0.029334977 -0.037486844 0.040455736 -0.0013257489
000070 40 d1 9f 3b 08 1e 5e bc ec 21 81 3c 88 70 17 bd
       0.0048772395 -0.013556965 0.015763246 -0.036972553
000080 e3 90 90 bd c5 17 b8 bd da 6f 29 bd 30 d8 ce bc
       -0.07058885 -0.08988909 -0.041366436 -0.02524957
000090 7b 67 9d bc 4d 31 c1 bd 5a 55 35 bd 2d e5 e1 bc
       -0.019214382 -0.094332315 -0.04427085 -0.0275751
0000a0 bb 9c b4 3c 3d d7 ea bd df a7 27 bc e1 4f 25 3d
       0.022047391 -0.11466835 -0.010232895 0.04035938
0000b0 69 f2 11 bc f5 37 7c 3b 7a 95 c7 bd 7a 92 d3 bc
       -0.008907893 0.0038485501 -0.09745307 -0.025826681
0000c0 38 50 24 3b cc 81 9d bd 4b 43 18 3c f9 21 77 3b
       0.0025072228 -0.076907724 0.009293388 0.0037709458
0000d0 12 48 d2 3c c7 3d 2f 3d d9 e5 1e bd 40 23 f4 bc
       0.025669131 0.042783525 -0.03879342 -0.029801965
0000e0 92 88 37 3d 5a ad 89 3d 11 4c 08 3d d6 6d 95 3d
       0.044807978 0.06722517 0.033275668 0.0729634
0000f0 af 30 34 bd 8e c5 68 bd 25 80 01 be 06 8a 3b 3c
       -0.04399174 -0.056829028 -0.1264654 0.011446482
000100 81 ce 09 3c 7f cd 86 bc b4 6d 7a bd 7d a3 cc bc
       0.008411051 -0.01645541 -0.061139777 -0.024980301
000110 74 fa a7 3c d4 de 41 3d 48 d1 89 3c e0 90 90 bd
       0.020505168 0.047331646 0.016823426 -0.07058883
000120 74 49 26 3d 8b d7 95 3d a0 1b 82 3c 92 ce 1f 3d
       0.040597394 0.07316502 0.015882313 0.03901536
000130 04 21 e8 3c 79 79 32 3b c4 be 87 bc af a8 e7 3c
       0.028336056 0.0027233048 -0.016570456 0.028278677
000140 82 81 53 3d 83 10 a1 bd 67 d3 9a bd 5f 53 3e 3d
       0.05163718 -0.078644775 -0.07559853 0.046466228
000150 b4 07 02 bb a3 65 6d 3c d0 d0 13 bc a3 c9 50 3d
       -0.0019841017 0.014489564 -0.009021953 0.050973546
000160 4c 33 77 bc 78 52 bc 3c bf b2 61 bd 2a 88 99 3c
       -0.015087914 0.022988543 -0.055102106 0.018741686
000170 89 34 d0 b8 7a 16 8e bc 1d 75 32 3c 3c 30 9f 3c
       -9.927998e-05 -0.017344702 0.01089218 0.01943218
000180 d0 f7 6f bd 3a f0 13 bd 00 34 6b bd 7a 29 40 bd
       -0.05858594 -0.03611777 -0.057422638 -0.046914555
000190 8c 66 9f bc 44 df f5 bc e2 0e 3d bd 20 09 f8 3c
       -0.019458078 -0.030013688 -0.04615677 0.030277789
0001a0 78 d7 4d bd 40 84 8d bb 28 f1 2a bc 60 54 2c bd
       -0.050254315 -0.004318744 -0.010433473 -0.042072654
0001b0 98 9f 3e 3c e2 98 48 3d 4c c3 cc 3c 16 ec 40 3d
       0.01163473 0.048973925 0.024995469 0.04710015
0001c0 aa 46 04 bb 99 dc 1f bd 87 be 24 bd 6a 29 84 bc
       -0.002018372 -0.039028738 -0.040220764 -0.016133029
0001d0 0c 2c c9 bd 79 64 32 3d c6 74 6e bd 98 ce ba bd
       -0.098228544 0.04355285 -0.058216833 -0.09121436
0001e0 e5 80 bb bd 28 ee 83 bd 23 2a 15 3d 63 46 83 bd
       -0.09155444 -0.06441909 0.036417138 -0.064099096
0001f0 bc d3 d2 bc 5a bd f7 bc 3f a0 8d 3d 03 78 32 bc
       -0.025735728 -0.030241657 0.0691533 -0.010892871
000200 1e 24 bd 3b 7c 87 47 bd 77 24 50 bd 19 bd a7 bd
       0.005772128 -0.048713192 -0.050816026 -0.081903644
000210 63 1a 12 bc f4 31 ce bc 48 33 c2 bd 9e 25 36 bd
       -0.008917424 -0.025170304 -0.09482437 -0.04446947
000220 a0 6b 91 bd ef ca a0 bd 26 ba 27 bd 25 fa 24 bd
       -0.07100606 -0.078512065 -0.04094901 -0.04027762
000230 fe ed 17 bc 1e 49 60 bd 72 f5 63 bd 1f e9 53 bd
       -0.00927305 -0.05475723 -0.055653997 -0.051735993
000240 68 df 7a bd 39 bb a6 bc 11 44 b2 bd 2f 35 46 3c
       -0.061248213 -0.020352947 -0.08704389 0.012097641
000250 42 dc 2c bd 48 f4 75 bd 12 7c 0f bd 9e 65 0e 3d
       -0.04220224 -0.060047418 -0.035030432 0.03476488
000260 c2 59 82 bd 34 6e 7a bd 9a ed a1 bc dd 88 c6 3c
       -0.06364776 -0.061140254 -0.019766618 0.024235183
000270 f9 dc ab 3c 12 ea bc bc 7e fa 87 3a f3 37 a3 bc
       0.020979391 -0.023060832 0.0010374335 -0.01992414
000280 fc 2f 09 bd ac 4a 06 3d 60 f1 69 bc c8 ac 2a 3c
       -0.033493027 0.032786056 -0.01427874 0.010417171
000290 08 2a d9 3c 90 35 3d 3c 62 99 79 3d 82 cb 50 bd
       0.0265093 0.011548415 0.060937293 -0.05097533
0002a0 fc 5c 12 bd 84 3c e2 bc e6 e4 0a 3d fa a4 38 3d
       -0.035733208 -0.027616747 0.0339097 0.04507921
0002b0 38 8f 4f 3d ac 27 93 bc 04 90 59 bd 7c fb 6d 3d
       0.050673693 -0.017963253 -0.05311586 0.058101162
0002c0 ce b0 33 bd 0a 4b 1a bd ed 66 a8 3a 1e 61 53 bc
       -0.043869786 -0.03766922 0.0012848057 -0.0129015725
0002d0 bd ab 81 bc 61 6d f5 bb 33 ad 02 3d 8c e9 ae bd
       -0.015828962 -0.0074898456 0.031903457 -0.08540639
0002e0 fd 87 b9 bd 24 b7 01 3c c3 0f c4 bc 30 2e f9 bc
       -0.09059141 0.007917199 -0.023933297 -0.030417532
0002f0 d6 77 5c bd 01 aa f4 3c 2f ff 5f bd 27 9d 26 bd
       -0.053825222 0.02986622 -0.05468672 -0.040677216
000300 a8 4d 88 3b 6a 5b ba bd e9 d7 c6 bc fd e8 84 bd
       0.004159648 -0.09099467 -0.024272876 -0.064897515
000310 a5 5b 6c bd 26 a3 9c bc 1f 27 3b bd a0 a3 6f bc
       -0.057704587 -0.019120764 -0.045691606 -0.014626414
000320 f5 a7 8c bb 1d 66 03 bd 8c 06 5e bc 89 e0 8c bd
       -0.004292483 -0.032079805 -0.013551366 -0.06878764
000330 52 f9 a2 bd 6d e3 b4 3c 05 d6 f3 ba 98 a3 8f bd
       -0.0795771 0.022081101 -0.0018603212 -0.07013625
000340 f0 7e 13 bd 58 70 ea 3b 96 44 7c 3c 39 8d 10 3d
       -0.03600973 0.0071545057 0.015397212 0.03529093
000350 b1 07 11 3d fe 87 4b bd d0 62 1a 3d 42 c7 4f 3d
       0.035407726 -0.04969024 0.03769189 0.050727136
000360 30 0c 5e 3d 26 ef 00 bd 53 4a f8 bc 88 7c b5 bc
       0.05421084 -0.03147807 -0.030308878 -0.022154108
000370 fa 71 90 39 7c 9c 1b bc dd e0 24 3d 7a 40 4b bd
       0.0002755074 -0.009497758 0.04025351 -0.049622037
000380 d3 fb 6d bd a0 0b e8 3a 56 5d 78 bd 6b f9 fa 3c
       -0.058101486 0.001770366 -0.060635887 0.03063651
000390 cd c3 4d b9 b4 7b 94 3c c3 f9 5a 3d 98 c1 0a bc
       -0.00019623265 0.018125392 0.053460848 -0.008469008
0003a0 f1 e7 ed bc 0c 91 25 bd 1a ea 2c 3c 5e 68 61 3c
       -0.029041262 -0.04042153 0.010553861 0.013757793
0003b0 8b 10 8a bc 25 11 7b 3d 28 7e 6e 3d 16 df 9f 3d
       -0.016853591 0.061295647 0.05822578 0.07806222
0003c0 37 53 3a 3d a8 ec 9d bd 37 0d cc bd 02 55 9c bd
       0.045489516 -0.07711154 -0.09963458 -0.076334015
0003d0 03 48 8b bd 6f 1e c3 bc d8 56 0f bd 6d 91 8e bd
       -0.068008445 -0.023818223 -0.03499493 -0.069613315
0003e0 6e 82 0b 3d dd a2 a8 39 60 83 ae bd c6 be 30 3d
       0.034059934 0.000321648 -0.085211515 0.043150686
0003f0 dd 91 92 bd 1c 91 23 bd 6a 99 a2 bd 15 47 8d bd
       -0.071567275 -0.03993331 -0.07939418 -0.068983234

fc1.bias f4 [120]
000000 f7 9d 03 bd d8 87 46 3e 44 5f 8b 3e 96 10 68 3e
       -0.03213307 0.19387758 0.2722112 0.22662577
000010 75 fc c3 bd cb 0d 05 bd 14 91 92 bd 51 db 1c be
       -0.09569637 -0.032483857 -0.07156578 -0.15318038
000020 c4 03 89 bd d8 e7 99 bd f2 25 01 3e 87 aa 2a 3c
       -0.06690171 -0.07514924 0.12612131 0.010416633
000030 83 06 27 bd aa 9f 39 be 1f 4a d7 bc e7 5b 86 bd
       -0.040777694 -0.18127313 -0.02628046 -0.06560498
000040 1b 32 c7 bc 8c 50 2d bc a8 d3 68 3d 3b 6d bc bd
       -0.024315884 -0.010578286 0.056842476 -0.092005216
000050 e3 ab a7 3e b0 7f c6 bd b4 7e e6 bd 41 a9 4c bd
       0.32748327 -0.09692323 -0.112546355 -0.0499661
000060 c3 2e 21 3e 9e 38 77 3d 86 a4 02 3f dc a5 96 3c
       0.15740494 0.06035673 0.5103229 0.018389635
000070 47 0e 40 3e e5 25 99 3d d6 a7 38 3e 7f 99 99 3e
       0.18755446 0.07477931 0.18032774 0.2999992
000080 67 80 2c 3e 67 98 1b 3d 76 1c ba bd 57 48 aa 3d
       0.16845857 0.03798714 -0.0908746 0.08314579
000090 f4 9b ad 3e db 55 5e 3e 76 08 1c 3d bb f3 1c be
       0.33908045 0.21712439 0.038094006 -0.15327351
0000a0 12 73 a1 3e 93 94 24 be be 93 af bd 36 cf 8e bc
       0.31533104 -0.16072302 -0.085731015 -0.01743279
0000b0 a1 9d 1e 3e 59 2b 2c bd 45 65 76 3e 65 5e 28 bd
       0.15489818 -0.042033527 0.24062069 -0.041105647
0000c0 31 e4 61 3d eb b1 84 3d 52 6f 4c bb f9 a1 30 3d
       0.05514926 0.06479248 -0.0031194282 0.04312322
0000d0 30 54 27 3e e3 28 e3 3b 7b 05 b1 bd 9a c7 db 3d
       0.16340709 0.0069323643 -0.086436234 0.1073143
0000e0 07 16 e6 bc 55 86 10 bd bb 6c 26 3e a5 11 9b 3e
       -0.028086675 -0.03528436 0.16252415 0.302869
0000f0 73 88 e1 3d cc a2 fa 3a c5 79 22 3e 84 94 45 3e
       0.11012354 0.0019122004 0.15866764 0.19294935
000100 c8 c7 3b bd be 80 a5 bd 8a ab b0 3e d8 dd 99 3c
       -0.045844823 -0.08081196 0.34505874 0.018782541
000110 e7 85 ab 3d 8a 53 74 bd c4 bd 74 bd 7b ae 9a bc
       0.08375149 -0.05964998 -0.059751287 -0.018882027
000120 4a 09 06 be e8 6e c8 3e 99 4a fb bd 1b 2f 9a bd
       -0.13089481 0.39147115 -0.12270088 -0.07528516
000130 d2 97 8c bd 8c 06 ee 3c ca eb 00 3d c9 c8 e3 ba
       -0.06864895 0.029055856 0.031474866 -0.0017378564
000140 d2 ad 9e 3d b6 42 08 3e ce 45 36 3e d5 a9 78 be
       0.07747997 0.13306698 0.17800066 -0.24283536
000150 d2 c2 c9 3c d2 40 86 bd 84 37 cc bd c8 d5 3b 3e
       0.02462903 -0.06555332 -0.09971526 0.1834327
000160 b4 b5 aa 3d b8 d9 4f b9 0f 31 cd bd 0d 39 23 bd
       0.08335438 -0.00019822165 -0.10019123 -0.03984933
000170 97 8d 85 bd bc 23 a6 bd 47 a2 d4 bd 4b f4 9b 3d
       -0.06521147 -0.081122845 -0.103825144 0.076149546
000180 ea 8a 48 3e 9b d9 1f be a3 c7 35 be 35 1b 6b 3d
       0.19584242 -0.15610354 -0.17751937 0.057398994
000190 50 df 22 3e 16 09 3f 3e 3d 2f 86 3d ff 05 f1 bc
       0.159055 0.1865581 0.06551979 -0.029421804
0001a0 04 f4 96 bd b7 8a c8 bd b0 22 d9 3d 66 fb ef 3d
       -0.07370761 -0.09792083 0.10602319 0.11717872
0001b0 7d 74 70 bd ba 49 88 3e 3d dc b3 3d 42 17 64 bd
       -0.058704842 0.2661875 0.087822415 -0.055686243
0001c0 43 8d 58 3c 8b e2 02 bd 01 06 32 be be 71 4f 3e
       0.013217273 -0.03195433 -0.17385103 0.20258233
0001d0 25 f0 d2 bc 6b ea 9b bd f1 2e b9 bc b9 09 0e bd
       -0.025749275 -0.07613071 -0.022605391 -0.03467724

fc2.weight f4 [60, 120]
000000 94 87 b4 bc 10 f3 db bd fa 14 4a be f3 b9 86 be
       -0.022037305 -0.1073972 -0.19734564 -0.26313743
000010 af 26 b8 bc 2e 7c 91 3d 60 18 11 3d 5b ee a4 be
       -0.022479383 0.071037635 0.035423636 -0.322131
000020 ed 9a 4c bd b4 4d d6 bd 35 f7 bf bd c0 04 18 bd
       -0.049952436 -0.104640394 -0.09373323 -0.037113905
000030 1e 06 e2 bd c7 81 49 3e 02 73 17 3d 71 04 50 bd
       -0.11036323 0.19678412 0.036974914 -0.050785486
000040 87 54 03 3d 04 2a 5f 3d 28 34 73 39 29 4e ae 3c
       0.032063033 0.05448343 0.00023193716 0.021277504
000050 88 8d 65 3d cd ff 05 3e d3 aa a5 bb 9e a8 90 3d
       0.056043178 0.13085862 -0.005055764 0.07063411
000060 8b 2e 05 3e 16 cd c1 bc 43 14 04 be e2 c2 6d be
       0.13006036 -0.023657363 -0.12898354 -0.23218873
000070 52 71 a3 3e 1c 27 1e bd 77 15 50 be 7f 44 56 3e
       0.31922394 -0.038611516 -0.20320688 0.20924567
000080 99 59 4f 3d 41 6d 00 bd e9 62 3a bc 94 c9 2f 3e
       0.050622556 -0.031354193 -0.011376121 0.1716674
000090 5a 67 33 be 6d 15 8a be 33 ac c0 3a 45 bf 1e 3d
       -0.17519894 -0.26969472 0.0014699757 0.038756628
0000a0 c9 2e a8 3d ec dc d7 bd f8 90 32 bd 3b f6 17 3e
       0.082120486 -0.105401844 -0.043595284 0.14840023
0000b0 52 e0 03 bd 9f f1 c1 bd 31 19 fb 3c 90 34 3f bd
       -0.03219635 -0.09469914 0.03065166 -0.046680987
0000c0 17 db 40 3e 01 51 d2 3d be de 44 3d da 9e 1e 3e
       0.18833576 0.102693565 0.048063986 0.15490285
0000d0 3c cb 93 bd bf e4 c7 3c 3d 74 2b 3b 33 1e 9c be
       -0.07216498 0.024401067 0.0026161813 -0.3049179
0000e0 be cd 54 3c 57 84 a9 3d f8 30 35 3d 79 96 d7 bd
       0.012988506 0.08277195 0.044236153 -0.10526747
0000f0 5a c4 14 3e ed bf 87 3c b0 67 76 be ad 79 11 be
       0.14528027 0.01657101 -0.24062991 -0.14206572
000100 2a f2 46 bd 81 70 3f 3d 61 5f dc bd 6e eb a8 3d
       -0.04857079 0.04673815 -0.107603796 0.0824803
000110 ff f5 5e 3d 25 05 2e 3d 1f 5d ad bd e5 e9 9a bd
       0.05443382 0.042485375 -0.08465027 -0.07564143
000120 d6 56 15 3c 64 c3 15 be 75 17 ab bd e0 5e df bc
       0.009114942 -0.14625317 -0.083540834 -0.02726692
000130 b3 67 55 bd 83 63 25 be c1 e1 cb be e7 16 ab 3c
       -0.05210085 -0.16151242 -0.39820674 0.020884944
000140 48 b3 23 3e f0 ca 8e be 00 0f 55 3e 07 86 41 be
       0.15986359 -0.27889204 0.20806503 -0.18898784
000150 52 45 d2 bb ca 0a bb 3c 53 16 86 bc 38 90 da 3d
       -0.006416955 0.022832293 -0.016368067 0.10672039
000160 87 9e 09 3e 44 c4 48 be e9 ee a5 3d 3b 6a 7e bd
       0.1343938 -0.1960612 0.08102209 -0.062113028
000170 be c0 0d 3d 85 5a 42 be 42 84 84 bd a6 3c 5a 3b
       0.03460764 -0.18979843 -0.06470539 0.003330031
000180 94 fa 38 3c 77 68 06 3e b9 44 5a bc 0f 6f 55 3e
       0.011290211 0.13125788 -0.013322049 0.20843147
000190 93 6f 5c be 8e 8d 32 3e 00 14 b0 bd 52 99 b6 bd
       -0.21526937 0.17436811 -0.08597565 -0.08915962
0001a0 2f 43 a7 3b 77 4f fa 3d 72 7f 38 3e 53 27 ca be
       0.0051044445 0.12222188 0.18017367 -0.39483127
0001b0 de 59 4c be 17 b4 2b 3e ff 1d d7 bd be a2 83 3d
       -0.19956157 0.16767918 -0.10503768 0.06427525
0001c0 3f 41 85 be ee 17 7f 3d 14 01 a8 3d 48 63 60 be
       -0.2602634 0.06227868 0.08203331 -0.21912873
0001d0 a3 49 b6 3e b3 75 8f 3d 5e aa 04 3e 33 6d 36 bd
       0.35603055 0.07004871 0.12955615 -0.044537734
0001e0 2f d5 1f 3d 3b 94 2c be 7d f6 83 bd 8b 63 b5 3e
       0.039021667 -0.1685342 -0.06443498 0.35427508
0001f0 bd 60 5c 3d 71 e1 9d 3d f4 c4 83 3d d4 5e cf 3d
       0.053803194 0.07709015 0.0643405 0.10125509
000200 4a 91 c6 3d e5 c2 30 bb c0 51 40 3e 58 29 27 bd
       0.096956804 -0.0026971635 0.18781185 -0.040810913
000210 00 a0 e5 3c 77 61 2a be 29 e6 38 3e ac 0c 8a 39
       0.028030396 -0.16638742 0.18056549 0.00026330852
000220 0c 3b 52 bd 79 fb 55 be 1c 02 0f be da 74 65 3d
       -0.051325843 -0.2089671 -0.13965648 0.05601964
000230 4c 1f 48 3e 0a f8 d1 3d 74 fb ca 3d dd 33 30 bd
       0.19543189 0.10252388 0.09911242 -0.04301821
000240 0d c4 97 3d 96 1c cf bd 26 66 43 be 39 bf 94 3e
       0.074104406 -0.10112874 -0.19081935 0.2905214
000250 c1 05 1d be fa 79 b1 bd 85 a3 26 3e 03 69 0a be
       -0.15334226 -0.08665843 0.16273315 -0.13516621
000260 15 45 4f 3e d9 a0 7d bd 2b 1d a9 3d ed 90 8c be
       0.20241196 -0.061920974 0.082575165 -0.2745432
000270 ce c6 ae 3e 71 98 3f 3e 76 6b 33 3e 16 fa 2f 3e
       0.3413605 0.18710496 0.17521462 0.17185244
000280 ef 27 d9 3d ed ad 13 be fb 3d 22 bd 9c 64 ad 3c
       0.1060332 -0.14421816 -0.03960989 0.021166138
000290 d3 4f 88 3e 36 5f 6d bd 61 80 01 3d 06 d6 29 3c
       0.266234 -0.05795213 0.031616572 0.010365969
0002a0 03 06 b9 3e 20 55 df 3d 3b 81 ed bd 14 61 a1 3d
       0.361374 0.10904908 -0.115969144 0.07879844
0002b0 09 5e 9a 3e 6d 3a 92 3a 61 e2 8e 3d 04 00 97 bd
       0.30149868 0.0011156328 0.06976772 -0.0737305
0002c0 65 92 5d 3d e7 a3 b8 bb bb 77 0f 3e 4d 2a 04 3e
       0.05409469 -0.005634773 0.14010517 0.12906761
0002d0 a0 2c 36 ba e6 64 cc 3d 26 1f 09 bc d3 88 aa bc
       -0.00069493987 0.09980182 -0.008369243 -0.020817196
0002e0 6d ee 53 3d 34 8f 5a bd df 3b 7b 3c 14 45 8e 3d
       0.051741052 -0.053359225 0.015334099 0.06946769
0002f0 d1 75 19 3e 59 37 9d bd 9e 95 1a bc 55 05 d1 bd
       0.1498635 -0.07676572 -0.009435086 -0.10206095
000300 4b a9 39 bd 41 20 26 bd 34 c2 a9 bd 4d e3 a5 bd
       -0.045327466 -0.040558103 -0.082889944 -0.08099995
000310 30 fe bc 3b 76 a6 98 3b 50 c5 c1 3e 65 59 00 bb
       0.005767606 0.0046585156 0.3784585 -0.0019584533
000320 fa b3 75 3d d3 94 5b 3e 5b 6f e6 bd 0d be 80 3e
       0.059986092 0.2144349 -0.11251708 0.25144997
000330 43 56 9d 3d 0b 3a 7c bd 91 83 1f bd ec 7a fc bd
       0.07682469 -0.06157879 -0.03894383 -0.12328133
000340 68 56 a8 3e 79 8b 82 3e 64 c0 3c be 7b 52 44 3e
       0.32878423 0.25497034 -0.18432766 0.19172089
000350 04 5a 93 bd ca 8d d7 3d 50 eb b7 3d 9f 57 2b bd
       -0.071949035 0.10525091 0.08980429 -0.04183161
000360 71 e6 27 3d dc a8 a6 bd d4 39 9b 3e 30 40 95 bd
       0.04099125 -0.08137676 0.30317557 -0.072876334
000370 9a 7f 3c 3e d1 0e 2b be 2c 27 81 bd 05 f0 0e bd
       0.18408051 -0.16704871 -0.063062996 -0.03489687
000380 36 0b ec bc 65 4f 86 bd 23 3b 1b be 83 48 e9 3d
       -0.02881394 -0.06558112 -0.15159278 0.11390784
000390 26 92 08 be 7a 5a c7 3d 52 18 5a be 1a 63 e7 3d
       -0.13337001 0.09734054 -0.2129834 0.11298199
0003a0 03 9f 89 bc 48 8c 5f 3d 9e 3a 52 be 02 1e b7 be
       -0.016799456 0.054577142 -0.20530173 -0.35765082
0003b0 b7 5f e9 bd 56 6c 9b bd 57 b8 47 bc 38 8f 1e 3c
       -0.11395209 -0.07589023 -0.012189946 0.009677701
0003c0 a3 48 9c bd b2 ef e3 3d 1c 13 03 3e a1 88 c7 3d
       -0.07631042 0.11129703 0.12800258 0.09742857
0003d0 56 cd 48 3d cc 17 a3 3d 31 ff 7f 3d c8 9b 1b bd
       0.04902395 0.07963523 0.06249923 -0.03799036
0003e0 e4 b9 a9 3d 42 3e 62 bd c1 b9 94 bd 6e 7f 07 bd
       0.08287409 -0.055235155 -0.07261992 -0.03308051
0003f0 00 5f 77 bd e7 1a 0f be b9 0a e1 bc 3c 8f 90 3c
       -0.060393333 -0.13975106 -0.027470933 0.017646424

fc2.bias f4 [60]
000000 aa bb b5 3d d7 ac 7c bd 5a d2 53 bd 30 6e a0 3e
       0.08873685 -0.06168827 -0.05171428 0.31334066
000010 3f fd 44 bb 51 db 60 bd e0 55 0b 3e fa e0 d1 3d
       -0.0030058173 -0.054896656 0.13606977 0.10247989
000020 a2 c1 7e 3a 3c 17 d2 bd 3e ff 3b be ec 91 75 3c
       0.00097181846 -0.10258338 -0.18359086 0.014988404
000030 59 fe 4b 3e a1 6c 22 3d 10 99 90 3d 6c b3 fc bd
       0.19921245 0.039654378 0.07060444 -0.123389095
000040 29 3d 56 3e c1 f9 b6 3e c3 9c 44 bd 62 5c ff bd
       0.20921768 0.35737422 -0.048001062 -0.124687925
000050 21 4d 09 3e 1b a5 3f be 7b e8 c7 3e 33 83 c7 bb
       0.13408329 -0.18715326 0.39044556 -0.006088638
000060 3d 7c ed bd 92 19 02 3c f2 22 49 be e0 aa e4 3d
       -0.11595962 0.007940667 -0.19642237 0.11165404
000070 be fa 61 3d 10 be 7b bc 6a bb 03 3f f5 19 ce bd
       0.055170767 -0.015365139 0.51457846 -0.10063545
000080 97 73 06 be 5b 53 51 3d bc b1 1a bd 46 80 b4 3e
       -0.13130032 0.051104885 -0.037767157 0.35254115
000090 2b 98 4f be e7 f0 42 be 70 b7 55 3e d5 ba 6f 3e
       -0.20272891 -0.1903721 0.20870757 0.23411115
0000a0 77 02 ac bd 00 a7 bd 3d aa a9 fd 3d 6e 7a f6 bd
       -0.08398908 0.09260368 0.123858765 -0.1203507
0000b0 2f ef 78 bd fe f2 6c bd 31 0a c5 bc 43 e6 74 3e
       -0.06077498 -0.057848923 -0.024052711 0.23915963
0000c0 67 01 2f be e1 68 f8 3d 18 2c 57 bd c3 ce a8 3c
       -0.17090379 0.12129379 -0.052532285 0.020606404
0000d0 b8 03 a7 bd f5 3e 68 3c 77 7a 9d 3d 91 2a a2 3e
       -0.08155006 0.014175166 0.07689374 0.316731
0000e0 a7 29 8d 3e 31 f8 61 3e a2 be 08 be f9 72 27 be
       0.2757084 0.22067334 -0.1335397 -0.16352452

fc3.weight f4 [10, 60]
000000 d2 3f 13 be aa 9f 5d 3e 0e 94 c1 be 66 a9 20 3e
       -0.14379814 0.21642938 -0.3780827 0.1568962
000010 14 bd b6 bd 49 f2 0f 3e 3a 43 cb bd 49 8f 05 3e
       -0.089227825 0.14057268 -0.09924932 0.1304294
000020 c9 2b 00 bd 7a e5 fd be 09 33 95 3b ce 14 ae be
       -0.031291757 -0.4958914 0.004553203 -0.34000248
000030 42 78 e9 be df 78 fc bd d8 ea 01 bf 53 e1 05 bf
       -0.45599562 -0.12327742 -0.5074897 -0.5229694
000040 9d 23 a0 3d eb 6c 35 3e f2 30 f0 be e9 18 2c be
       0.07819293 0.1771733 -0.46912342 -0.16806377
000050 a4 d4 32 3e f3 b3 3e be 47 d4 19 be 52 27 9b be
       0.17463928 -0.18623333 -0.15022384 -0.30303437
000060 70 de 23 be ec 79 08 bd f1 39 fb bd 88 92 3b 3e
       -0.16002822 -0.0333194 -0.12266911 0.18317616
000070 7c c0 00 3d 22 9c 3b bd f2 4e c9 3d 03 e8 ee bd
       0.031433567 -0.045803197 0.09829511 -0.116653465
000080 6a 29 4c bf b5 2e e3 bd e4 fd 70 be fa 34 67 be
       -0.7975069 -0.11092893 -0.23534352 -0.22578803
000090 eb c7 2b bf 89 89 d1 bd 84 3e e5 3d 93 aa 0a 3d
       -0.67101926 -0.10231311 0.111935645 0.03385408
0000a0 b2 b1 57 bf 71 06 8d be 28 30 61 bd 03 22 00 be
       -0.84255517 -0.27543977 -0.054977566 -0.12512974
0000b0 20 9f 24 3d 1e 8c 7a be 5f 17 87 bd 12 ad 24 bd
       0.040190816 -0.24467513 -0.065962546 -0.040204115
0000c0 5c c9 9b bd e1 ac 09 3e 6f 1b 6a be 47 8b 2c be
       -0.07606766 0.13444854 -0.22862028 -0.16850005
0000d0 23 40 87 3d b7 1d 28 be 35 ad bb 3d 1d e3 ea bd
       0.0660403 -0.16417585 0.09163896 -0.114691
0000e0 68 06 b5 be 92 22 0f be cb 78 20 be 4b 77 65 bc
       -0.3535645 -0.13978031 -0.15671079 -0.014005492
0000f0 96 16 57 bc 01 98 c7 3d 8a ac 50 3d 0f cd e2 3c
       -0.0131279435 0.09745789 0.050945796 0.02768567
000100 9f 49 8f be 32 d1 ff bd 5a a8 72 3e ba 57 0a bd
       -0.27985856 -0.12491073 0.23697034 -0.03377507
000110 b4 3a 01 bf a0 46 0d 3d f5 c2 c7 be a0 70 4c bf
       -0.504802 0.03449118 -0.39015928 -0.7985935
000120 bd 48 3a 3e 15 9e 66 3d ca c3 1d bf 58 48 98 bf
       0.1819181 0.056303103 -0.61626875 -1.1897078
000130 7b 36 c4 bd bf dc 18 3e a3 09 90 3d 4e bf 2b bf
       -0.09580704 0.14927958 0.07033088 -0.6708878
000140 5f 5e 0c bf c9 a1 1f be a3 8a 89 be 25 21 28 3c
       -0.548315 -0.1558906 -0.26863584 0.0102618085
000150 47 47 29 3e 9d 11 eb bd ea 78 d5 bd 8a e4 2a be
       0.16531096 -0.11477969 -0.10423453 -0.16688743
000160 f7 13 34 bf bb 1a c9 3e 8f b2 ff be 68 fc 84 be
       -0.70342964 0.39278206 -0.49940917 -0.2597382
000170 6c be 10 bf 32 5e 02 3c 1f 8c ee bd 55 37 9a 3e
       -0.5654056 0.007957028 -0.1164782 0.3012034
000180 cf a5 0f c0 f9 6e 3e bf 6e 26 10 bf 2a 61 08 bd
       -2.2444952 -0.7438808 -0.5630864 -0.033295788
000190 f0 0e 39 bf 76 c6 a5 bd 2e 02 0b bf ba b3 64 3d
       -0.7228842 -0.08094494 -0.543002 0.055835463
0001a0 b8 8d 06 3c 5b c6 64 3e 58 be 3e 3e c3 d3 96 be
       0.008212499 0.22341292 0.18627298 -0.29458436
0001b0 6a a2 1b 3d 23 5d 37 3e 64 bd 9c be 90 de bb be
       0.037996687 0.17906623 -0.30613244 -0.3669324
0001c0 18 08 e7 bc 2a 9a 82 be dc 40 62 bc d6 f3 97 be
       -0.028202102 -0.25508243 -0.013809409 -0.2967822
0001d0 a6 4a 8f be aa 20 86 bd 8e 84 e4 3d 4d 11 66 bd
       -0.2798664 -0.06549199 0.11158095 -0.056168843
0001e0 29 e4 01 3e a3 08 c9 be 8c 6e 81 be d9 83 16 3e
       0.12684692 -0.39264402 -0.25279653 0.14698733
0001f0 8b c0 c7 bc 6a 96 3b 3e 3b 50 b6 be b9 9b 73 be
       -0.024383804 0.18319097 -0.35608086 -0.23789872
000200 b8 e0 8a bd f2 5e ab 3c 57 b6 30 bd 5a e2 75 bf
       -0.06781143 0.020919297 -0.043142643 -0.9604851
000210 63 f0 8a 3e 4b 3d 0c 3e b0 a0 73 3d 7d 2c e9 bc
       0.27136526 0.13695256 0.059479415 -0.028463596
000220 c5 d4 8a 3e 74 5c e9 3d 36 01 53 be a5 5d 4f be
       0.27115455 0.11394587 -0.2060593 -0.20250566
000230 60 1a 2e 3e 8b db d2 bd cd 43 51 bc 00 95 76 be
       0.17002249 -0.10295781 -0.012772513 -0.24080276
000240 45 d0 7d 3e aa 76 58 be 8c 70 52 be 5b 0f 16 be
       0.2478648 -0.21139017 -0.20550746 -0.14654295
000250 80 4b c5 3d 55 d4 84 bc 7d d2 5f 3e 95 c4 ae be
       0.09633541 -0.016214529 0.21857639 -0.34134355
000260 ee ee 41 bf 79 42 f1 be da ad c8 3d 92 7d 84 be
       -0.757552 -0.47121027 0.097987846 -0.25877053
000270 20 9a 52 bf 6a d1 af be 9b d5 8b 3c 38 4a 05 be
       -0.82266426 -0.34339458 0.017069628 -0.13016593
000280 d5 b0 1b bf c4 09 7b be 95 7e d1 3d 7f 90 c3 bd
       -0.608167 -0.24515444 0.10229222 -0.09549045
000290 77 27 d1 be c8 34 79 be 02 57 aa be 01 b6 8b be
       -0.40850422 -0.2433654 -0.33269507 -0.27287295
0002a0 25 2e 73 bc 25 55 d2 3d 46 3a fd 3d 30 77 d7 3d
       -0.014842545 0.10270146 0.123646304 0.1052078
0002b0 0a 7c 85 be 83 df e8 be 4c 70 1e be 02 d0 65 3d
       -0.26071197 -0.45483026 -0.15472525 0.056106575
0002c0 a3 1f dc 3d c8 8f 2d be 2e 55 25 be 11 12 dc bd
       0.10748222 -0.1694938 -0.16145775 -0.107456334
0002d0 fb 2c 98 bc 71 fe 0b be 72 8e a6 bd 0e 6d 5c bc
       -0.018576136 -0.1367128 -0.08132638 -0.013453735
0002e0 e9 f8 5e be 46 76 2d be 68 cf 8c 3b 74 35 29 3b
       -0.21774639 -0.16939649 0.0042971857 0.0025819214
0002f0 05 c9 17 bd c2 75 51 bd 85 9d 6f be ed ac 52 bf
       -0.03705694 -0.051137693 -0.23399933 -0.82295114
000300 06 9a d4 3d d3 16 b7 bc cf 48 29 bf b4 d2 3c bf
       0.1038094 -0.02234975 -0.6612672 -0.7375901
000310 cc e4 3d 3e f8 2a ec 3d a9 8f 0f be d1 aa 92 be
       0.1854431 0.11531633 -0.14019646 -0.28645948
000320 f5 c7 c7 be 84 76 68 bd 58 54 8a be 32 a3 18 3e
       -0.39019743 -0.05675365 -0.27017474 0.14906004
000330 fd e1 51 be 9b 3e ad be f5 72 c6 bc d6 40 17 3e
       -0.20496364 -0.33836827 -0.024224738 0.14770827
000340 83 29 a0 be 96 f5 b4 be 53 71 c6 3c 01 8e 25 be
       -0.3128167 -0.35343617 0.02422396 -0.16167451
000350 1d 9d a2 be 9e a4 68 3d a4 6d 05 3e 34 32 9d bd
       -0.31760493 0.056797616 0.13030106 -0.07675591
000360 43 cb 0e c0 46 ce 1a bf 33 c5 14 bd af 8c ae 3d
       -2.231156 -0.60471 -0.036320876 0.08522927
000370 6c 38 06 bf 34 e8 62 3e 30 c2 ed bd 32 0f d9 bd
       -0.5242984 0.22158891 -0.11609304 -0.105986014
000380 03 84 c5 bc ae 69 d4 bd 40 e7 0e 3b e1 03 a2 be
       -0.0241108 -0.10371719 0.0021805316 -0.31643584
000390 3c ed ba bd 98 b7 e0 3d 41 1f 69 be 48 84 b4 3d
       -0.0912728 0.10972518 -0.22765829 0.08814293
0003a0 c5 e4 ba be c4 de 34 bf 29 7b 4d 3e 61 03 08 be
       -0.36502662 -0.70652413 0.20066513 -0.13282539
0003b0 62 02 da be c6 ff 3d 3e f6 4e e3 bc c5 60 91 bd
       -0.42579943 0.18554601 -0.027747612 -0.070985354
0003c0 e3 72 01 3e 9d 2c bc be 34 bb 84 be 9c 19 e6 be
       0.12641482 -0.36752787 -0.25924075 -0.44941413
0003d0 de 65 3f be 9d f7 10 3e e9 0d 6a bc b7 32 03 3c
       -0.18691203 0.14156957 -0.014285543 0.008007697
0003e0 61 14 a0 3d 50 0d 20 bf 56 04 14 be 7d 20 87 bf
       0.07816387 -0.62520313 -0.14454779 -1.055679
0003f0 d6 42 27 3c 7b b8 b0 bd 0d d5 4a 3e 44 4b 9a be
       0.010208806 -0.08628937 0.19807835 -0.30135548

fc3.bias f4 [10]
000000 29 11 12 3d 4e dc 71 be 40 20 e7 3c 21 93 3d 3e
       0.035660896 -0.23619196 0.02821362 0.18513156
000010 a2 27 23 be ee b0 32 bc b5 03 05 3e f5 bb 72 3d
       -0.15933087 -0.010906441 0.12989695 0.05926128
000020 c0 0f b1 3e 3b da 7e be
       0.3458233 -0.24887936
