review_pytorch/classification_projects/taxi_fees_classification/version1/TaxiFareClassModel_version1.pt (torch, 114021 bytes, 21 tensors)

embeds.0.weight f4 [24, 12]
0	0x3e693995	0.22775872
1	0x40230553	2.5472
2	0xbecb7f27	-0.39745447
3	0xbe3e7885	-0.18600662
4	0x3f7727e9	0.96545273
5	0xbe75b92a	-0.23996416
6	0x3f3061e6	0.6889938
7	0x3f8ae3c1	1.0850755
8	0x3f91cfaa	1.1391499
9	0x3e795f4e	0.24352762
10	0x3f7af4a7	0.9802956
11	0x3f7bdbb1	0.983821
12	0xbf48648e	-0.78278434
13	0x3db73552	0.08945717
14	0xbfacb930	-1.3494015
15	0x3eab8d2e	0.3350615
16	0x3fdc085c	1.7190051
17	0x3f5b61e6	0.85696256
18	0x3f087924	0.53309846
19	0xbee1dea4	-0.44115174
20	0xbd7ac546	-0.06122329
21	0xbee9bbf9	-0.45651224
22	0x3d26c263	0.040712725
23	0x3f3ca7fb	0.7369382
24	0xbf2bea8d	-0.6715477
25	0x3e5e9296	0.21735606
26	0xbd613b54	-0.05498822
27	0xbf279d32	-0.65474236
28	0xbf96c187	-1.177781
29	0x3f539ba7	0.8265938
30	0xbf532dd1	-0.82491785
31	0xbec3c598	-0.3823669
32	0xbf828ffd	-1.0200192
33	0x3e593a3d	0.21213622
34	0xbe310d72	-0.17290285
35	0xbfcf5091	-1.6196462
36	0xbf8100b0	-1.0078335
37	0x3de8fe89	0.11376674
38	0x3ed2be3e	0.41160768
39	0x3fbcb333	1.4742187
40	0xbf31ea36	-0.69498
41	0x3eb03ba7	0.3442051
42	0x3ef8e7f3	0.48614463
43	0x3f9a7163	1.2065853
44	0x3f2f9b0c	0.6859596
45	0x3f7eac4c	0.99481654
46	0xbe4422ea	-0.19153944
47	0x3e8c8836	0.2744767
48	0x3ed28793	0.4111906
49	0xbfb61b6c	-1.4227118
50	0xbd4b19a8	-0.049585015
51	0x3c47e638	0.0122008845
52	0xbeaf9352	-0.34292084
53	0x3f1a8238	0.6035495
54	0x3e2cf541	0.16890432
55	0x3eb7a90b	0.35871157
56	0x3dd48d22	0.103784814
57	0xbf286a92	-0.65787613
58	0xbf25df6b	-0.64794034
59	0xbd68d5e3	-0.056844603
60	0x3f071701	0.52769476
61	0x3f0a3f0c	0.5400245
62	0xbdb23cd4	-0.08703008
63	0x3ef2bcb0	0.47409582
64	0xbf53ab36	-0.8268312
65	0xbe291954	-0.16513568
66	0xbed08f55	-0.40734354
67	0xbfa372e7	-1.276944
68	0xbf5db466	-0.8660339
69	0xbdcfd931	-0.10148848
70	0x3e805589	0.25065258
71	0xbedfb3a2	-0.43691736
72	0x3f4d3386	0.80156744
73	0xbdfe3168	-0.12411767
74	0xbf361287	-0.7112202
75	0x3e765be2	0.24058488
76	0xbdf94559	-0.1217143
77	0x4016beef	2.3554037
78	0x3ef551d2	0.47913986
79	0xbecb7d97	-0.39744255
80	0xbfc7e93e	-1.5618055
81	0x3f1f6e80	0.62277985
82	0x3f19b806	0.6004642
83	0x3e8ccfec	0.27502382
84	0x3f09bb34	0.53801274
85	0x400ad014	2.16895
86	0x3ea48dc2	0.32139403
87	0xbeec6fee	-0.46179146
88	0x3fb450a6	1.4087112
89	0xbe92ee0e	-0.28697246
90	0x3f49ff57	0.7890524
91	0xbe7f0311	-0.24903513
92	0x3fe63876	1.798598
93	0xbecea39b	-0.40359196
94	0x3e2935b8	0.16524398
95	0xbf08f45c	-0.5349786
96	0x40091a57	2.1422327
97	0x3eb139b3	0.34614334
98	0x3e45dbb3	0.1932209
99	0x3e6f1a78	0.23349941
100	0x3f1b1f9f	0.60595125
101	0x3ea9a241	0.33131602
102	0xbf7ece3f	-0.99533457
103	0x3f38fd89	0.72261864
104	0x3d6a335e	0.057177894
105	0xbd33a3e3	-0.043857466
106	0xbf8365a6	-1.0265396
107	0xbe842c44	-0.25815022
108	0xbf89b29d	-1.0757633
109	0x3f8793ee	1.059202
110	0xc02f690b	-2.7407863
111	0x3cd6b099	0.026207255
112	0x3dcbe699	0.099560924
113	0xbf1f3834	-0.62195134
114	0x3df7ea65	0.12105254
115	0xbfee8c2b	-1.8636526
116	0xbf2bd395	-0.67119724
117	0xbfc391e6	-1.52789
118	0xbf3f5cc8	-0.7475095
119	0x3f2ef1db	0.6833779
120	0x3e17c30b	0.14820497
121	0x3fa52426	1.2901657
122	0x3f261159	0.6487022
123	0x3f00b953	0.5028278
124	0x3f68b5bb	0.909023
125	0x3eaa85ca	0.33305198
126	0x3cbd8379	0.02313398
127	0x3f68627d	0.9077528
128	0x3f8643df	1.0489463
129	0x3fd6604d	1.6748139
130	0xbedc057d	-0.42972937
131	0x3f28c562	0.6592618
132	0xbee5c80d	-0.4487919
133	0x3f835d24	1.0262799
134	0x3f7273da	0.94708025
135	0x3ee08e92	0.43858773
136	0xbed6ceaa	-0.41954547
137	0xbec3e9a5	-0.38264194
138	0x3f9c5355	1.2212931
139	0xbf2531a6	-0.6452888
140	0x3e417a1b	0.18894236
141	0xbfaf3da9	-1.3690692
142	0xbd3aaa23	-0.04557241
143	0xbfa5ce15	-1.2953516
144	0xbf91997d	-1.1374966
145	0x3ee7f60e	0.45304912
146	0xbf0990c8	-0.53736544
147	0xbefdc71a	-0.49565965
148	0x3ea70b6f	0.3262591
149	0x3daf2ced	0.08553491
150	0xbf82ffd8	-1.0234327
151	0xbf4ddc14	-0.8041394
152	0xbfa5c6de	-1.2951314
153	0x4019f360	2.4054794
154	0xbe4b3786	-0.198454
155	0x3f2c5189	0.6731191
156	0x3e27e4a4	0.16395813
157	0x3f36cb5d	0.7140406
158	0x3fa4b385	1.2867285
159	0x3e93a060	0.28833294
160	0x3eaf4aae	0.34236664
161	0x3febdfd2	1.842768
162	0x3e772013	0.24133329
163	0xbf44df1e	-0.7690295
164	0xbef172cd	-0.471579
165	0x3fcb5ce1	1.5887719
166	0x3f3d4869	0.73938614
167	0xbf51c89f	-0.8194675
168	0xbe8e4873	-0.2778965
169	0x3e7e77cf	0.24850391
170	0x3f106f52	0.5641986
171	0x3e9c815c	0.30567443
172	0x3fad69ee	1.3547952
173	0x3d7f0074	0.06225629
174	0x3fb21aba	1.3914406
175	0x3e74eed4	0.2391923
176	0x3fc6c97d	1.5530239
177	0xbf36842f	-0.71295446
178	0x3d6a6ad5	0.05723079
179	0x3fc18122	1.5117533
180	0xbe846165	-0.25855556
181	0xbf4156a6	-0.7552284
182	0x3fb210bc	1.3911357
183	0xbcb49957	-0.022045774
184	0x3f832969	1.0247012
185	0xbfa57d1c	-1.2928805
186	0xbed1b6eb	-0.40959868
187	0xbea6641e	-0.32498258
188	0x3b52793d	0.003211572
189	0xbfb1392e	-1.3845575
190	0x3ef47b64	0.4775039
191	0x4005f340	2.0929718
192	0xbe8154a1	-0.2525988
193	0xbf028a17	-0.5099196
194	0x3f34034c	0.7031753
195	0xbf712dea	-0.94210684
196	0xbdc86796	-0.097853824
197	0xbdec7c1d	-0.1154711
198	0xbf7011c5	-0.93777114
199	0x3ee58503	0.44828042
200	0x3ea698e9	0.32538536
201	0xbf1414e5	-0.5784438
202	0xc005231f	-2.0802686
203	0x3f065680	0.5247574
204	0xbf1f1446	-0.6214031
205	0xbefe6957	-0.49689743
206	0x3f6ebd39	0.9325748
207	0xbd99e83f	-0.075150006
208	0xbed93d1c	-0.42429435
209	0xbf9fa7af	-1.2473048
210	0x3e2dd15a	0.16974393
211	0x3e83c2f0	0.25734663
212	0xbfbcc765	-1.474835
213	0x40061177	2.094816
214	0x3fa54bc9	1.2913753
215	0xbf15d14e	-0.585225
216	0xbe095dd4	-0.13414699
217	0xbf87ce92	-1.0609915
218	0xbf3026b9	-0.68809086
219	0x3e56d740	0.20980549
220	0xbe14867c	-0.14504427
221	0xbebd3209	-0.36952236
222	0xbdfd705e	-0.12374948
223	0xbe972151	-0.29517606
224	0x3f1ad25b	0.60477227
225	0x3f842339	1.0323249
226	0xbf058f1f	-0.5217151
227	0x3ed2a9f6	0.41145295
228	0xbdc41ae7	-0.09575444
229	0xbe3e8371	-0.18604828
230	0xbca5e2c9	-0.020249741
231	0xbf5effc7	-0.87109035
232	0x3f44da75	0.7689584
233	0x3f2b4b2e	0.6691159
234	0xbf7017a2	-0.9378606
235	0xbfa2b732	-1.2712157
236	0xbe6f9e39	-0.23400201
237	0xbf924460	-1.1427116
238	0x3c3a4ec2	0.011371316
239	0x3f0faeb1	0.5612593
240	0xbe82a1cd	-0.2551407
241	0x3f840daf	1.0316676
242	0x3fba2154	1.4541421
243	0xbe71ed59	-0.23625697
244	0xbf5c21ef	-0.8598928
245	0x3f977761	1.1833307
246	0xbf7b940c	-0.98272777
247	0x3f71bc14	0.9442761
248	0x3ea784cf	0.32718512
249	0x3d09f44e	0.033680253
250	0xbf9388ae	-1.1526086
251	0xbdc5688c	-0.09639081
252	0xbfb4f1fd	-1.4136349
253	0x3f2403c8	0.6406827
254	0xbe796bdd	-0.24357553
255	0xbf6fdf79	-0.9370037

embeds.1.weight f4 [2, 1]
0	0xbcb864f7	-0.022509081
1	0x3f14adb9	0.5807758

embeds.2.weight f4 [7, 4]
0	0x3e88e3ca	0.2673629
1	0x3f81d5c5	1.0143362
2	0x3d37648c	0.044773623
3	0x3ec99c8a	0.39377242
4	0xbe590a97	-0.21195446
5	0xbf9ada09	-1.2097789
6	0x3f3bbf00	0.7333832
7	0xbe0d2abe	-0.13785836
8	0x3ef67d63	0.48142537
9	0x3f1195bd	0.5686911
10	0x3fd79a7a	1.6844018
11	0xbe295057	-0.16534553
12	0xbf76654b	-0.9624831
13	0x3fa3eb02	1.2806094
14	0xbf0e1188	-0.554955
15	0x3e24271d	0.16030546
16	0x3f08fa3f	0.53506845
17	0x3e0beb92	0.13664082
18	0xbf34dbb4	-0.7064774
19	0xbf75f664	-0.9607909
20	0xbffcb6da	-1.9743302
21	0x3ef435bf	0.47697255
22	0x3efc847b	0.49319825
23	0xbe985219	-0.29750136
24	0xbf42fced	-0.76167184
25	0x3ea6f9d4	0.3261248
26	0x3f49611c	0.786638
27	0xbe1e9f4c	-0.15490454

bn_cont.weight f4 [6]
0	0x3f909fc8	1.1298761
1	0x3f838986	1.0276344
2	0x3f987212	1.1909811
3	0x3f84f77b	1.0388025
4	0x3f60e9f4	0.87856984
5	0x3f8e4c4d	1.1117035

bn_cont.bias f4 [6]
0	0x3daae696	0.08344762
1	0x3d2ef452	0.04271347
2	0x3dce3052	0.1006781
3	0x3ba35a5e	0.004985138
4	0x3d49c7a9	0.049262676
5	0xbdb3e389	-0.08783633

bn_cont.running_mean f4 [6]
0	0xc293f4b8	-73.97797
1	0x4223017c	40.75145
2	0xc293f3ac	-73.97592
3	0x422301dc	40.751816
4	0x3fac0c62	1.3441279
5	0x405329bd	3.2994225

bn_cont.running_var f4 [6]
0	0x3a8258b9	0.0009944654
1	0x3a2c88b3	0.0006581649
2	0x3a8abeb1	0.0010585395
3	0x3a6fe905	0.0009151849
4	0x3f1117ca	0.56676924
5	0x412e024a	10.875559

layers.0.weight f4 [200, 23]
0	0xbddff712	-0.10935797
1	0x3cac5d44	0.021040566
2	0xbd792ae3	-0.060831916
3	0x3d92df97	0.07171553
4	0xbd8b45c8	-0.06800419
5	0x3cf7557a	0.030192126
6	0xbda6d7d2	-0.08146633
7	0xbc8c4e1b	-0.017127087
8	0xbd45bda4	-0.04827656
9	0xbd480746	-0.04883506
10	0xbca1fa5a	-0.019772697
11	0x3cd73650	0.026271015
12	0x3d41a17b	0.04727314
13	0xbdb695c2	-0.08915283
14	0x3d727d7e	0.05920171
15	0xbd9d106a	-0.07669146
16	0x3d933b5d	0.07189057
17	0x3e5d27f0	0.21597266
18	0xbe1a8ecf	-0.1509354
19	0x3e343d21	0.17601444
20	0xbd90f9cd	-0.07078896
21	0x3dc5aeeb	0.096525036
22	0xbe7fb48a	-0.24971214
23	0x3e0ba623	0.13637595
24	0x3da19f9f	0.078917734
25	0xbdf2d88a	-0.11857708
26	0x3e61b321	0.22040989
27	0x3d7715b3	0.06032343
28	0x3e17a192	0.14807728
29	0xbdf4e137	-0.11957019
30	0x3dae1059	0.08499212
31	0x3c64ce02	0.013965132
32	0xbcd1566e	-0.025553908
33	0x3d6a3d49	0.057187352
34	0x3dfed667	0.12443238
35	0xbe11012e	-0.14160606
36	0x3df0cee5	0.11758212
37	0x3c206b86	0.009791261
38	0x3cadb69a	0.021205235
39	0x3d99d491	0.07511247
40	0xbe33bc81	-0.17552377
41	0xbe2b24cc	-0.16713256
42	0xbd6c7d81	-0.057736877
43	0xbe158783	-0.14602475
44	0x3d4f8013	0.05065925
45	0xbe0d29f6	-0.13785538
46	0x3d059d60	0.032620788
47	0x3e0199df	0.12656353
48	0xbdfa6e10	-0.12228024
49	0xbd2f8172	-0.042848058
50	0x3d135d86	0.035977863
51	0x3dc32f40	0.095304966
52	0xbdf7c28a	-0.12097652
53	0x3da9b547	0.08286529
54	0xbd22b3aa	-0.039722122
55	0xbd65f77a	-0.056144215
56	0xbd931c24	-0.07183102
57	0xbd35fda5	-0.044431347
58	0xbd42c6af	-0.04755276
59	0x3e666bf1	0.22502114
60	0x3d53563e	0.05159592
61	0xbd1a729e	-0.037706964
62	0x3d493718	0.049124807
63	0x3d50609d	0.050873388
64	0xbe17400b	-0.14770524
65	0xbcfa83e2	-0.030580465
66	0xbe233853	-0.15939455
67	0xbd1502c2	-0.036379583
68	0x3e633ca9	0.22191109
69	0x3c66c415	0.014084836
70	0xbc218a2f	-0.009859606
71	0xbb1feff8	-0.0024404507
72	0xbdfe244b	-0.12409266
73	0xbdbfd00c	-0.09365854
74	0xbcb7726a	-0.022393424
75	0xbd105a29	-0.035242233
76	0xbcb3c958	-0.021946594
77	0x3d6373a0	0.05553019
78	0x3d45c4bc	0.048283324
79	0x3cd39c60	0.025831401
80	0x3c3f21cc	0.011665773
81	0xbdb37b8f	-0.08763801
82	0x3c8a165a	0.016856361
83	0x3d5f650f	0.054539736
84	0xbd0c0387	-0.03418305
85	0xbd41fb8e	-0.047359042
86	0x3e58b2f9	0.21162023
87	0xbe02cd2e	-0.12773582
88	0x3cff07fa	0.031131733
89	0xbd47d6ba	-0.048788764
90	0x3c3a363c	0.01136547
91	0xbe86a80d	-0.26300088
92	0xbc511eaf	-0.012763663
93	0x3cdc6674	0.026904322
94	0x3d66632d	0.056246925
95	0x3c1be17e	0.009514211
96	0x3c9822ee	0.018571343
97	0x3d80949d	0.06278346
98	0xbc21401f	-0.009841948
99	0xbd74acb9	-0.059735034
100	0x3d2edde3	0.042692076
101	0x3d0b8398	0.034061044
102	0xbd212a20	-0.039346814
103	0x3aaf2703	0.0013363067
104	0xbd0dff83	-0.034667503
105	0xbd801fe2	-0.06256081
106	0xbd926bdb	-0.07149478
107	0xbd212e53	-0.03935082
108	0xbdea4086	-0.11438088
109	0x3dab699b	0.08369752
110	0xbcc1f6ac	-0.023677193
111	0xbeb14557	-0.34623215
112	0x3e741510	0.2383616
113	0x3ca94246	0.020661484
114	0x3e80a850	0.25128412
115	0x3d4077c4	0.046989217
116	0x3dcddf19	0.10052318
117	0x3d35782b	0.044304054
118	0xbd47b207	-0.048753764
119	0xbdcc0b1a	-0.09963055
120	0x3dac4bf4	0.084129244
121	0xbdafbf04	-0.08581355
122	0xbca5bdf5	-0.02023218
123	0xbd1cc5d8	-0.038274616
124	0xbd954a3a	-0.07289548
125	0x3d3763ff	0.044773098
126	0xbc4ba898	-0.012430333
127	0x3d421dd4	0.047391728
128	0xbd12ccea	-0.035839953
129	0xbdfc37af	-0.12315308
130	0x3dbbdb27	0.09172659
131	0x3de499a5	0.11162118
132	0x3dd74bb8	0.10512489
133	0xbd8fc0fe	-0.07019232
134	0x3db324f5	0.08747283
135	0x3dc98e74	0.09841624
136	0x3e08b13a	0.13348857
137	0x3e8bdca6	0.2731678
138	0x3ddf5a9c	0.10905954
139	0x3e2eedab	0.1708285
140	0x3e0fc281	0.14039041
141	0xbd902437	-0.070381574
142	0x3e6f29b4	0.23355752
143	0x3d581bd6	0.05276092
144	0x3b2c6674	0.0026306184
145	0x3d58450f	0.052800234
146	0xbe325f8c	-0.1741926
147	0x3d47fb7a	0.04882381
148	0x3cf0c028	0.029388502
149	0x3daed89c	0.08537409
150	0x3dcc7797	0.099837475
151	0x3dd8933c	0.10574958
152	0x3e1d39a4	0.1535402
153	0xbdbd4e4f	-0.09243452
154	0x3dc22ac0	0.0948081
155	0xbc65a7ef	-0.014017089
156	0x3e4c3d52	0.19945267
157	0xbe31022e	-0.17285988
158	0xbe04a5c2	-0.12953857
159	0xbd993e60	-0.074826
160	0x3c740c22	0.014895471
161	0x3d37257a	0.044713475
162	0x3d04daca	0.032435216
163	0x3da94ab1	0.082661994
164	0xbc91c1bc	-0.017792575
165	0x3b95c4f2	0.004570597
166	0xbde4d8ac	-0.111741394
167	0xbd31e16b	-0.043427866
168	0x3c64060d	0.013917458
169	0x3d2bbfad	0.041930843
170	0xbd1006bc	-0.035162672
171	0xbbaa0255	-0.0051882663
172	0x3c82d59e	0.015971001
173	0xbd8d9d70	-0.069147944
174	0x3b68daca	0.00355308
175	0x3de12b2d	0.10994563
176	0x3d84f912	0.06492819
177	0x3c94017b	0.018067112
178	0x3d045628	0.032308728
179	0xbe69530a	-0.22785583
180	0x3e3dd931	0.18539883
181	0x3daa044f	0.08301603
182	0xbddc51b1	-0.10757769
183	0x3e0e0d33	0.13872223
184	0x3c9c28e7	0.019062473
185	0xbc811408	-0.015756622
186	0xbc632620	-0.01386407
187	0x3c4b6103	0.012413266
188	0xba09e8be	-0.00052608165
189	0xb970fb86	-0.00022981883
190	0x3c79fc52	0.015257912
191	0x3b7b463d	0.0038341426
192	0x3bcd2204	0.0062601585
193	0xbbb718cc	-0.005587673
194	0x3cbaa1d9	0.022782253
195	0x3beffa57	0.007323544
196	0xbd73119c	-0.059342965
197	0x3c55f8c7	0.013059801
198	0xbcc93f7d	-0.024566406
199	0xbd3711c5	-0.04469468
200	0x3ce70826	0.028202128
201	0x3e3857f1	0.18002297
202	0xbd806621	-0.062694795
203	0xbe94a7b3	-0.29034194
204	0x3e25e85e	0.16201922
205	0x3c27fb9a	0.010252858
206	0x3e98d6ce	0.29851383
207	0xbe325d16	-0.17418322
208	0xbde45e90	-0.11150849
209	0x3dd3816c	0.1032742
210	0xbdafa134	-0.08575669
211	0x3dd0cb60	0.10195041
212	0xbe22566f	-0.15853284
213	0x3d06a639	0.032873366
214	0xbe0e63d4	-0.13905269
215	0x3cbcc997	0.023045344
216	0xbb89185d	-0.0041838125
217	0x3cb9c6c1	0.022677781
218	0x3deed521	0.11661745
219	0x3df53e21	0.11974741
220	0xbd6560b3	-0.056000423
221	0x3e1d40da	0.1535677
222	0x3d2111e3	0.0393237
223	0xbd645db4	-0.055753425
224	0x3dec477a	0.115370706
225	0xbe01f799	-0.12692107
226	0x3e5db5ac	0.21651334
227	0x3cb4677a	0.022021998
228	0xba3a98b6	-0.00071180926
229	0x3e1015dd	0.1407084
230	0x3b5fecf4	0.0034168335
231	0x3c903d98	0.017607495
232	0xbbbb55b7	-0.005717005
233	0xbcc27dd9	-0.02374165
234	0x3aefbf0d	0.001829119
235	0x38c4fc28	9.392976e-05
236	0x3c8a9ca6	0.016920399
237	0x3cc06517	0.023485703
238	0xbba9b60c	-0.0051791724
239	0xbc4c35f8	-0.012464039
240	0x3ca0e28f	0.019639282
241	0xbb7c362a	-0.0038484433
242	0x3ce3abb3	0.027791834
243	0x3ba048a4	0.004891472
244	0xbb8532c9	-0.004064892
245	0x3c17707e	0.009243129
246	0xba808594	-0.0009805434
247	0xbe5b76af	-0.21431993
248	0x3d86dfec	0.065856785
249	0x3e21fe38	0.15819633
250	0xbdf1c169	-0.11804468
251	0xbbae2134	-0.0053140167
252	0x3e93aa53	0.28840885
253	0xbc0541b5	-0.008133342
254	0xbdc000b7	-0.09375136
255	0xbdf1c231	-0.11804617

layers.0.bias f4 [200]
0	0x3e0e898d	0.13919659
1	0x3d73addc	0.059491977
2	0xbdcc0bf3	-0.09963217
3	0x3e609a79	0.21933927
4	0x3d78ed89	0.060773406
5	0xbd9d8c95	-0.076928295
6	0xbd2165dd	-0.039403785
7	0xbcd3138c	-0.025766157
8	0x3da4ae87	0.08041101
9	0x3dd3b030	0.103363395
10	0x3dbc4613	0.09193053
11	0x3c428015	0.011871357
12	0x3d0503d9	0.032474373
13	0x3cc02bd2	0.023458395
14	0xbe05eacd	-0.1307785
15	0xbc6da28c	-0.014504086
16	0xbdf1a475	-0.11798946
17	0x3c89efb1	0.016837927
18	0xbdbc2c3b	-0.09188124
19	0xbddc9192	-0.10769953
20	0x3b88f896	0.0041800244
21	0x3c9cea4a	0.019154686
22	0xbc4fa848	-0.012674399
23	0x3c58edf6	0.013240328
24	0xbccd6881	-0.025074245
25	0x3e081c63	0.13292079
26	0xbd32f8d3	-0.04369433
27	0xbdc8d2bc	-0.098058194
28	0xbd9f55e0	-0.07780051
29	0x3e546622	0.20742086
30	0xbccdef87	-0.02513863
31	0x3e005809	0.12533583
32	0xbda70582	-0.081553474
33	0xbe1964c7	-0.1497985
34	0xbda2021c	-0.079105586
35	0x3d39e5ab	0.045385044
36	0x3cf47dad	0.029845083
37	0xbc9e6722	-0.019336287
38	0xbdf140b2	-0.11779918
39	0xbba6ba12	-0.0050880993
40	0x3c148cae	0.009066744
41	0xbd3bf9dd	-0.045892585
42	0x3e57b953	0.2106679
43	0x3cb2e03f	0.021835444
44	0x3d21d54c	0.039510056
45	0xbd050a58	-0.032480568
46	0x3e555cfc	0.20836252
47	0x3d61daa5	0.055140156
48	0x3e3a2804	0.18179327
49	0xbcf07a64	-0.029355235
50	0xbdb48407	-0.08814245
51	0x3d1b3740	0.037894487
52	0x3e5385db	0.2065653
53	0x3e57f718	0.21090353
54	0x3e214504	0.15748984
55	0x3e1b5c88	0.15172017
56	0xbc8efb22	-0.017453734
57	0x3e3f73a1	0.18696453
58	0xbe402ac6	-0.18766317
59	0xbc1a20e5	-0.009407257
60	0x3e0423ef	0.12904333
61	0xbda3f2bc	-0.08005282
62	0x3d90b103	0.07065012
63	0x3e0fd7c5	0.14047153
64	0x3e1d32ad	0.15351363
65	0xbe4125ee	-0.18862125
66	0x3d1e2166	0.03860607
67	0xbdd5c7d1	-0.104385026
68	0xbd5a9c0e	-0.05337148
69	0x3e42c8bc	0.19021887
70	0x3e1285f3	0.1430891
71	0xbd9cc30c	-0.0765439
72	0xbe0dc433	-0.13844375
73	0xbd9c8f9e	-0.0764458
74	0x3e41a077	0.18908869
75	0xbe1b8f4e	-0.15191385
76	0x3de17f53	0.11010613
77	0xbe1d7c8c	-0.15379542
78	0x3d187273	0.037218522
79	0x3e10d746	0.1414462
80	0x3e7e26e3	0.24819522
81	0xbd619217	-0.055070963
82	0xbdb4605f	-0.08807444
83	0xbd2f14a6	-0.0427443
84	0x3e2494d8	0.16072404
85	0x3db79f04	0.08965877
86	0xbe32af04	-0.17449576
87	0xbd79a3a9	-0.060947094
88	0xbe407d96	-0.18797907
89	0x3cc0dce7	0.023542834
90	0x3e372e55	0.17888768
91	0x3e557bd8	0.20848024
92	0x3ddfa3ac	0.1091989
93	0x3e214f80	0.15752983
94	0x3dd9dbde	0.106376395
95	0x3e36a891	0.1783774
96	0x3dba9855	0.09111086
97	0x3e4b60e5	0.19861181
98	0x3c8d93ff	0.017282484
99	0xbbbf37bd	-0.005835502
100	0x3c9d3235	0.01918898
101	0x3cd18595	0.025576392
102	0xbd79f62d	-0.061025787
103	0xbc29c129	-0.010360994
104	0xbe233219	-0.1593708
105	0x3d074e84	0.033033863
106	0xbd7ccde5	-0.061719794
107	0x3bea00d0	0.00714121
108	0x39a596e2	0.0003158367
109	0x3de90040	0.11377001
110	0xbd1652a5	-0.03669991
111	0xbd43bdc4	-0.047788396
112	0x3baf9e12	0.0053594196
113	0x3baea9c2	0.0053302953
114	0xbcb265dc	-0.021777086
115	0xbe290668	-0.1650635
116	0x3c89e646	0.016833436
117	0x3da887e0	0.08229041
118	0x3d557f06	0.052123092
119	0xbd7eaacd	-0.062174607
120	0x3d0c7e97	0.034300413
121	0xbe225e34	-0.15856248
122	0x3d5e642b	0.054294746
123	0xbe6c5f28	-0.23083174
124	0xbe47f995	-0.19528802
125	0x3cf05531	0.029337497
126	0xbdc9b170	-0.09848297
127	0xbd524bb7	-0.05134174
128	0x3e7eacab	0.24870555
129	0x3dd8da22	0.105884805
130	0x3da0db2d	0.078543045
131	0x3d891752	0.06693901
132	0x3d0c49e6	0.034250163
133	0x3d05ed8f	0.032697257
134	0x3e6ed858	0.23324716
135	0x3e2d6d62	0.16936257
136	0x3df85f55	0.12127558
137	0xbe8663f3	-0.2624813
138	0x3e1824f4	0.14857846
139	0xbdf9294b	-0.12166079
140	0xbdf402c3	-0.11914589
141	0x3cee4913	0.029087579
142	0xbdbb4fbb	-0.09146067
143	0x3c6f4912	0.014604824
144	0xbd2087e4	-0.039192095
145	0x3e05d43b	0.13069241
146	0xbd851f6a	-0.065001324
147	0x3e5fd76b	0.21859519
148	0x3e1d2d11	0.15349223
149	0x3e6d098a	0.2314817
150	0xbd83d420	-0.06436944
151	0xbd2aba6a	-0.041681685
152	0xbdeac403	-0.114631675
153	0xbdc13bbb	-0.09435221
154	0x3e876552	0.2644449
155	0xbdbe8a51	-0.093037255
156	0xbe6b13bf	-0.22956751
157	0xbd8b2872	-0.06794824
158	0xbe19bee9	-0.15014233
159	0xbe1dc823	-0.15408377
160	0x3db0e3cc	0.08637199
161	0xbe0755a2	-0.1321626
162	0xbe1644bb	-0.14674656
163	0xbe39521d	-0.1809773
164	0xbd72675a	-0.059180595
165	0xbe23bf37	-0.15990911
166	0x3e3173f0	0.17329383
167	0x3e097c1e	0.13426253
168	0x3e0bf4e1	0.13667633
169	0x3d8cd1cd	0.06875954
170	0xbdccfe48	-0.10009438
171	0xbddf079f	-0.108901255
172	0x3e2e8a0c	0.17044848
173	0x3c1bb60f	0.009503855
174	0x3ce9887c	0.028507464
175	0xbdfe4ac7	-0.124166064
176	0xbc91fb28	-0.017819956
177	0x3d93ab45	0.072104014
178	0x3dbc101b	0.091827594
179	0xbc32330e	-0.01087643
180	0xbdc153c3	-0.094398044
181	0x3d3b3ee3	0.04571427
182	0xbd7a6a8e	-0.061136775
183	0xbd90b59a	-0.07065888
184	0x3c25bde6	0.010116076
185	0x3e0d24fd	0.13783641
186	0xbdddef7b	-0.10836693
187	0x3e235de6	0.15953788
188	0x3e3f0155	0.18652852
189	0x3e7f0a3e	0.24906251
190	0x3c42e1d0	0.011894658
191	0x3c96480f	0.018344907
192	0x3dde94c2	0.10868217
193	0xbd09b867	-0.033623125
194	0xbdf55fec	-0.11981186
195	0xbd0019e0	-0.031274676
196	0xbe245a6b	-0.16050117
197	0xbdf57294	-0.11984745
198	0x3dbed63a	0.09318204
199	0xbc99acb9	-0.018759118

layers.2.weight f4 [200]
0	0x3f7940f2	0.97364724
1	0x3f74ca3f	0.95621103
2	0x3f8068a1	1.003193
3	0x3f7d3f27	0.9892449
4	0x3f799417	0.9749159
5	0x3f80ac1d	1.0052525
6	0x3f6e4684	0.9307635
7	0x3f809d5a	1.004802
8	0x3f88abff	1.0677489
9	0x3f7bc1cf	0.98342603
10	0x3f882d13	1.0638756
11	0x3f7a8e89	0.9787374
12	0x3f7840e3	0.9697401
13	0x3f7851af	0.9699964
14	0x3f7286eb	0.9473712
15	0x3f7d1330	0.988574
16	0x3f71bd9a	0.94429934
17	0x3f74fe3b	0.95700425
18	0x3f802b11	1.0013143
19	0x3f87d06b	1.0610479
20	0x3f7592ac	0.9592693
21	0x3f8af133	1.0854858
22	0x3f805687	1.0026406
23	0x3f73ad60	0.95186424
24	0x3f81b723	1.0134014
25	0x3f789818	0.97107077
26	0x3f8434c7	1.0328606
27	0x3f813353	1.0093788
28	0x3f70c9be	0.94057834
29	0x3f86675b	1.0500292
30	0x3f6fd9de	0.93691814
31	0x3f77ce99	0.9679962
32	0x3f83ec26	1.0306442
33	0x3f76fcab	0.9647929
34	0x3f76b084	0.9636309
35	0x3f7ef003	0.9958498
36	0x3f773b8d	0.9657524
37	0x3f7a5574	0.9778664
38	0x3f7daeae	0.99094665
39	0x3f78bbc3	0.971615
40	0x3f807dae	1.0038354
41	0x3f8997f1	1.0749494
42	0x3f7c0a2b	0.98453015
43	0x3f7530d9	0.9577766
44	0x3f72c9d8	0.9483924
45	0x3f7687f5	0.96301204
46	0x3f79d3a1	0.97588545
47	0x3f7c8a8b	0.986489
48	0x3f7a0f25	0.9767936
49	0x3f74a2d4	0.95560956
50	0x3f7ef153	0.9958698
51	0x3f804103	1.001984
52	0x3f8125ff	1.008972
53	0x3f8cdc7b	1.1004785
54	0x3f711aca	0.941815
55	0x3f7ae7ea	0.9801012
56	0x3f79f4bf	0.9763908
57	0x3f77d89e	0.96814907
58	0x3f735658	0.95053625
59	0x3f79fe11	0.976533
60	0x3f8032f0	1.0015545
61	0x3f77ec46	0.968449
62	0x3f81d86d	1.0144173
63	0x3f81a0e2	1.0127223
64	0x3f7abd8d	0.9794548
65	0x3f7af14f	0.9802446
66	0x3f7836d5	0.9695867
67	0x3f740938	0.95326567
68	0x3f78d6f2	0.9720298
69	0x3f75e520	0.9605274
70	0x3f6e1922	0.930071
71	0x3f7dd667	0.99155277
72	0x3f7eddb5	0.9955705
73	0x3f7388e2	0.9513074
74	0x3f87cad6	1.0608776
75	0x3f744887	0.9542317
76	0x3f83a175	1.0283648
77	0x3f7512f1	0.9573203
78	0x3f7c5d2d	0.98579675
79	0x3f84f535	1.0387331
80	0x3f7cba7c	0.9872205
81	0x3f9fff75	1.2499834
82	0x3f769f5b	0.9633691
83	0x3f7206d5	0.94541675
84	0x3f7c6551	0.98592097
85	0x3f7248c6	0.94642293
86	0x3f8b2835	1.0871645
87	0x3f78ae57	0.9714102
88	0x3f7acdb3	0.9797012
89	0x3f7bf9ba	0.9842793
90	0x3f7fcb32	0.99919426
91	0x3f87072f	1.0549067
92	0x3f872c29	1.0560352
93	0x3f7995d2	0.9749423
94	0x3f77a082	0.9672929
95	0x3f7557e2	0.95837224
96	0x3f7378a8	0.9510598
97	0x3f766ef4	0.9626305
98	0x3f853a8a	1.040849
99	0x3f78d0ed	0.97193795
100	0x3f72f829	0.9490991
101	0x3f8f4bec	1.1195045
102	0x3f79018d	0.9726799
103	0x3f7b50cb	0.98170155
104	0x3f77f8d4	0.96864057
105	0x3f78a568	0.9712739
106	0x3f858875	1.0432268
107	0x3f7553a8	0.95830774
108	0x3f7f63fe	0.9976195
109	0x3f770987	0.9649891
110	0x3f7eadb8	0.99483824
111	0x3f73da6d	0.95255166
112	0x3f807d5a	1.0038254
113	0x3f78757e	0.9705428
114	0x3f7a608d	0.97803575
115	0x3f813c92	1.009661
116	0x3f7be434	0.98395085
117	0x3f75c3c8	0.96001863
118	0x3f7893a3	0.97100276
119	0x3f7c7afd	0.98625165
120	0x3f8675c1	1.0504686
121	0x3f822d36	1.0170047
122	0x3f809d41	1.004799
123	0x3f79b8ec	0.97547793
124	0x3f714692	0.94248307
125	0x3f6d3253	0.92654914
126	0x3f71f0b4	0.9450791
127	0x3f88aba9	1.0677387
128	0x3f7dd584	0.99153924
129	0x3f762e82	0.96164715
130	0x3f75bef5	0.959945
131	0x3f764b48	0.9620862
132	0x3f709aee	0.93986404
133	0x3f7a1343	0.9768564
134	0x3f7f2e8c	0.996804
135	0x3f7d5b37	0.9896731
136	0x3f70b280	0.9402237
137	0x3f75d778	0.96031904
138	0x3f83e035	1.0302798
139	0x3f78ad9b	0.971399
140	0x3f7802db	0.9687936
141	0x3f796ef9	0.97434956
142	0x3f7af903	0.9803621
143	0x3f7d7bf8	0.99017286
144	0x3f6f88f6	0.9356836
145	0x3f7e5529	0.99348694
146	0x3f70b0e0	0.9401989
147	0x3f6f1afe	0.9340056
148	0x3f7f1d18	0.9965377
149	0x3f87c6ee	1.0607584
150	0x3f82b894	1.0212579
151	0x3f71a0d0	0.94386005
152	0x3f7ba07d	0.9829176
153	0x3f7b907a	0.9826733
154	0x3f823a9f	1.017414
155	0x3f7542a9	0.9580484
156	0x3f797b60	0.9745388
157	0x3f8459e4	1.0339932
158	0x3f8290c0	1.0200424
159	0x3f77a6c7	0.9673886
160	0x3f783943	0.96962374
161	0x3f7de5a7	0.99178547
162	0x3f72d78d	0.94860154
163	0x3f73883b	0.95129746
164	0x3f8407ba	1.0314858
165	0x3f7bf3aa	0.98418677
166	0x3f79644f	0.97418684
167	0x3f7ffd01	0.9999543
168	0x3f882a09	1.0637828
169	0x3f7a8b7a	0.97869074
170	0x3f6b55c2	0.9192773
171	0x3f832ae1	1.0247461
172	0x3f7739bb	0.96572465
173	0x3f6d5742	0.9271127
174	0x3f877606	1.0582893
175	0x3f788395	0.9707578
176	0x3f90c107	1.1308907
177	0x3f73ac52	0.95184815
178	0x3f7d1c85	0.9887164
179	0x3f949f67	1.1611146
180	0x3f7c7b2a	0.98625433
181	0x3f84652c	1.0343375
182	0x3f709da4	0.9399054
183	0x3f74ef85	0.9567798
184	0x3f75cf36	0.96019304
185	0x3f7185fc	0.9434507
186	0x3f729e26	0.94772565
187	0x3f805e1d	1.0028721
188	0x3f760251	0.96097285
189	0x3f776c33	0.96649474
190	0x3f76bee0	0.96385
191	0x3f89aed2	1.0756476
192	0x3f7b633e	0.98198307
193	0x3f7383b8	0.9512286
194	0x3f76b316	0.96367013
195	0x3f9bfa6d	1.2185799
196	0x3f760b2a	0.96110785
197	0x3f7352c1	0.9504815
198	0x3f79e632	0.97616875
199	0x3f75e820	0.9605732

layers.2.bias f4 [200]
0	0xbbfa2079	-0.0076332656
1	0xbd4c82c5	-0.0499294
2	0x3c169102	0.009189846
3	0x3d50cce9	0.050976668
4	0xbd3028fe	-0.043007843
5	0xbcafe5d8	-0.021471903
6	0xbb4653ad	-0.0030262277
7	0x3b12f92a	0.0022426345
8	0x3dd9b306	0.10629849
9	0x3da052f8	0.07828325
10	0x3dd9a472	0.106270686
11	0xbc2683a6	-0.010163223
12	0x3d26bc79	0.040707085
13	0x3d014cfb	0.031567555
14	0xbc07af15	-0.008281489
15	0x3d1fe222	0.039034016
16	0x3c6234d6	0.013806542
17	0xbcc6feb1	-0.024291368
18	0x3d342414	0.04397972
19	0xbc38f0b9	-0.0112878615
20	0x3ced5993	0.028973376
21	0x3e1b2f8a	0.15154853
22	0xbd06810d	-0.032837916
23	0x3d7f7698	0.06236896
24	0x3dc39598	0.09550017
25	0x3d6fd875	0.05855604
26	0xbdb7af7f	-0.0896902
27	0xbc806925	-0.015675137
28	0xbd43afd9	-0.047775123
29	0x3df04cf4	0.11733428
30	0xbd5fc450	-0.054630578
31	0x3cf839b1	0.030300947
32	0x3d6ff170	0.058579862
33	0xbd3ff24e	-0.04686194
34	0xbd23d594	-0.039998606
35	0xbacd23cb	-0.0015650926
36	0xbb701fba	-0.0036640004
37	0x3da4a222	0.08038737
38	0xbc981066	-0.018562507
39	0x3d6a3003	0.057174694
40	0x3c2d4f13	0.010577935
41	0x3e03cb2e	0.12870476
42	0xbd297864	-0.04137458
43	0xbd34daee	-0.0441541
44	0x3c8075f5	0.015681246
45	0x3d3242e5	0.043520827
46	0xbdaa348d	-0.083108045
47	0x3d35d3c3	0.044391405
48	0xbd70c35a	-0.05878005
49	0xbd0e9354	-0.03480847
50	0x3cac2e90	0.021018296
51	0x3ce901fc	0.028443329
52	0x3cf786dc	0.030215673
53	0x3e228121	0.15869571
54	0x3d150374	0.036380246
55	0x3cd2caa3	0.02573139
56	0xbc7a489f	-0.015276103
57	0xbb899636	-0.0041988147
58	0x3d92513b	0.071444
59	0xbd64b92e	-0.055840664
60	0xbca3d95c	-0.020001106
61	0xbbcd863f	-0.006272107
62	0x3cf4449e	0.029817875
63	0x3c0c8b4a	0.008578131
64	0x3b9d7cfe	0.00480616
65	0x3cddecde	0.027090486
66	0xbd57fa4e	-0.052728944
67	0xbb18e1e4	-0.0023328
68	0xbd2d5790	-0.042319834
69	0x3da6913c	0.0813317
70	0x3cbc2866	0.022968482
71	0xbc6d2c15	-0.014475842
72	0xbd9233ec	-0.071388096
73	0x3beaf129	0.007169862
74	0x3cd57fcc	0.026061915
75	0xbd08090b	-0.03321175
76	0x3d356b99	0.044292066
77	0xbd20b330	-0.039233387
78	0xbcd55748	-0.026042596
79	0xbd478cc4	-0.04871823
80	0x3d0cf7f8	0.03441617
81	0x3e1899b0	0.14902377
82	0xbddbc713	-0.1073133
83	0xbdcd1f8b	-0.10015782
84	0x3c3b30fe	0.011425255
85	0x3ce5f496	0.02807073
86	0x3dabb149	0.08383424
87	0x3d27a350	0.04092723
88	0x3d4925f8	0.049108475
89	0xbb2d6a4e	-0.0026461068
90	0x3ce0bd37	0.027433975
91	0x3e18dc37	0.14927755
92	0x3d4ff902	0.05077458
93	0xbd74cd6a	-0.05976621
94	0xbba8f671	-0.005156331
95	0xbccfbe6f	-0.02535936
96	0xbd2c126a	-0.04200975
97	0xbd25632e	-0.04037779
98	0x3e0f00dc	0.13965172
99	0x3cdfffd8	0.027343675
100	0x3d995ec3	0.074887775
101	0x3e06125d	0.13092943
102	0x3db2523d	0.08707092
103	0x3c3c9643	0.011510435
104	0xbc80e058	-0.015731975
105	0xbd07e838	-0.033180445
106	0x3c0307fa	0.007997507
107	0xbc084c4b	-0.008318971
108	0x3c8da167	0.017288877
109	0xbca47acd	-0.020078087
110	0x3c86817f	0.01641917
111	0xbd445bfb	-0.047939282
112	0x3d37f88c	0.044914767
113	0x3d47e9c5	0.048806924
114	0xbd29aec2	-0.041426428
115	0xbd4fbc37	-0.050716605
116	0x3d5ee827	0.054420616
117	0xbced6072	-0.028976653
118	0xbc03b438	-0.008038573
119	0x3d10ee83	0.035383713
120	0x3e3d15dd	0.18465371
121	0x3d45cd9c	0.048291788
122	0xbc76374b	-0.015027831
123	0xba170061	-0.00057602493
124	0x3ccb0d37	0.024786575
125	0xbc83c09b	-0.016083052
126	0xbdbd1139	-0.092318006
127	0x3df62d07	0.12020307
128	0x3dae3151	0.085055
129	0xbb553f2e	-0.0032538879
130	0xbc6e719a	-0.014553452
131	0xbd6b3b4f	-0.057429608
132	0x3cd8a56a	0.026446063
133	0xbcc11bbc	-0.023572795
134	0x3ca2c0f9	0.019867407
135	0xb9d893de	-0.000413089
136	0xbd87e5a3	-0.066355966
137	0xbd3c3858	-0.04595217
138	0x3da17dd1	0.07885326
139	0xbd92c9ef	-0.07167422
140	0xbd4b0595	-0.04956587
141	0x3d7bb181	0.061448578
142	0xbcde4b0e	-0.027135398
143	0xbd0ee672	-0.03488774
144	0x3cf1e8e0	0.029529989
145	0xbba100e2	-0.0049134353
146	0x3d5ea74b	0.05435876
147	0xbd440569	-0.047856722
148	0x3da2a20c	0.07941064
149	0x3d7015a4	0.058614388
150	0x3d0f3c01	0.034969334
151	0xbd93ea14	-0.07222381
152	0xbcbc73d4	-0.02300445
153	0x3d6b2b10	0.057414114
154	0x3cce2bf5	0.025167445
155	0x3ce5f96c	0.028073035
156	0xbd313fb9	-0.04327366
157	0x3d9f0686	0.07764916
158	0x3daf8771	0.08570755
159	0xbde6df1a	-0.11273022
160	0x3cd81f18	0.026382014
161	0xbcaa8648	-0.020815983
162	0x3d494835	0.049141128
163	0x3d50dcca	0.05099181
164	0x3d7d933c	0.06190799
165	0x3c49733d	0.012295541
166	0xbc8c8e6c	-0.017157756
167	0x3d4db199	0.0502182
168	0x3db791c5	0.0896335
169	0x3ba33b92	0.0049814666
170	0xbd666d04	-0.05625631
171	0x3cb8165b	0.022471597
172	0xbcda092a	-0.026615698
173	0xbdb9e25c	-0.09076378
174	0x3da2fd3b	0.07958456
175	0x388c7519	6.697531e-05
176	0x3e4c4f71	0.1995218
177	0xbab732f4	-0.0013976977
178	0xbd836315	-0.06415383
179	0x3e4c4e1c	0.19951671
180	0x3cded2c6	0.027200114
181	0x3d267673	0.040640306
182	0xbca62975	-0.02028344
183	0xbd6c5a95	-0.057703573
184	0x3c92def5	0.01792858
185	0xbdd09b81	-0.1018591
186	0xbc88c228	-0.016694143
187	0xbc1f7249	-0.009731838
188	0xbd5aee26	-0.053449772
189	0xbc0415a4	-0.0080618
190	0x3ce12fde	0.027488645
191	0x3de40284	0.11133292
192	0xbce48247	-0.027894152
193	0x3d51cc0a	0.051219977
194	0xbce58810	-0.028018981
195	0x3e02b1b6	0.12763104
196	0x3c90339b	0.017602732
197	0xbd8c89cd	-0.06862221
198	0x3cf47b2e	0.029843893
199	0xbd470219	-0.048585985

layers.2.running_mean f4 [200]
0	0x3e975581	0.29557422
1	0x3e62cbee	0.22148106
2	0x3e0ac1a6	0.13550434
3	0x3e8f8ace	0.28035587
4	0x3e2f7307	0.17133723
5	0x3e2ba276	0.16761193
6	0x3e859e00	0.26097107
7	0x3e3bc387	0.18336307
8	0x3df63ef7	0.12023728
9	0x3ed252ce	0.410788
10	0x3e1bd363	0.15217356
11	0x3e2bab59	0.16764583
12	0x3e31407b	0.17309754
13	0x3eb45f71	0.35229066
14	0x3e19ae3e	0.15007874
15	0x3e15214d	0.14563484
16	0x3e35a8bb	0.17740147
17	0x3ea72752	0.32647187
18	0x3e781511	0.24226786
19	0x3dc560df	0.09637617
20	0x3e58c14a	0.21167484
21	0x3dce5cbb	0.10076281
22	0x3e50d5f2	0.20394114
23	0x3e36d768	0.17855608
24	0x3ddecf9e	0.108794436
25	0x3eaa2105	0.33228317
26	0x3dfd5c58	0.12371129
27	0x3e0a76df	0.13521908
28	0x3e36ac80	0.17839241
29	0x3e52c5e3	0.205833
30	0x3e4c03e6	0.19923362
31	0x3e888e76	0.2667119
32	0x3e0645b2	0.13112524
33	0x3e4371ac	0.19086331
34	0x3e5c16ef	0.21493123
35	0x3e91f21a	0.2850502
36	0x3e9d1425	0.30679432
37	0x3ec36a14	0.3816687
38	0x3e37e829	0.17959656
39	0x3e653b86	0.22385988
40	0x3e0ae908	0.13565457
41	0x3e04aec8	0.12957299
42	0x3e959530	0.29215384
43	0x3e2cadc4	0.16863161
44	0x3e16cf58	0.14727533
45	0x3e2fb922	0.17160466
46	0x3ec043a2	0.375516
47	0x3e65440b	0.22389238
48	0x3ebe1556	0.37125653
49	0x3e5cfe06	0.21581277
50	0x3e3bf8ee	0.18356678
51	0x3ea1f86d	0.31634846
52	0x3eaaeb49	0.33382633
53	0x3e9a955d	0.3019208
54	0x3e9f95fc	0.31169116
55	0x3e603f10	0.21899056
56	0x3e4abe3d	0.19799133
57	0x3ebd6b3c	0.36995876
58	0x3e2557db	0.16146795
59	0x3e555f69	0.20837177
60	0x3ebc762b	0.36808905
61	0x3e3e6858	0.18594491
62	0x3e2a13a4	0.16609055
63	0x3e72ef46	0.23724088
64	0x3e64e38a	0.22352424
65	0x3e0867ae	0.133208
66	0x3e4ffb0e	0.20310614
67	0x3e3112ef	0.17292379
68	0x3e09c376	0.13453469
69	0x3e5b6b4c	0.2142765
70	0x3eb48555	0.35257974
71	0x3e3dd59b	0.18538515
72	0x3e37c3c8	0.17945778
73	0x3e6ab49e	0.22920462
74	0x3e894c61	0.26816085
75	0x3e07d14f	0.13263439
76	0x3e7424ae	0.23842117
77	0x3e113644	0.14180857
78	0x3e4409ca	0.19144359
79	0x3e74fa04	0.23923498
80	0x3eece860	0.46271038
81	0x3da233d3	0.07920041
82	0x3e3ab438	0.1823281
83	0x3e576927	0.21036206
84	0x3ea06956	0.31330365
85	0x3e414b56	0.18876395
86	0x3d505bb5	0.05086871
87	0x3e46ace5	0.19401892
88	0x3e0d183c	0.13778776
89	0x3e454188	0.1926328
90	0x3e454b62	0.19267038
91	0x3e67eab8	0.22648132
92	0x3e539cb7	0.2066525
93	0x3e64e6c0	0.22353649
94	0x3e9542c9	0.29152516
95	0x3ed53a8b	0.41646227
96	0x3ec46e93	0.3836561
97	0x3e8b675f	0.27227303
98	0x3e0471bb	0.1293401
99	0x3e499707	0.19686519
100	0x3e809fc9	0.25121906
101	0x3e0dd6f0	0.13851523
102	0x3e3ce0c6	0.1844512
103	0x3e805c14	0.2507025
104	0x3e1593e1	0.14607193
105	0x3e610325	0.21973856
106	0x3e32a26e	0.17444775
107	0x3e988483	0.29788598
108	0x3dec59b6	0.115405485
109	0x3eb3d87e	0.35126108
110	0x3e4fd643	0.20296578
111	0x3e705d11	0.23473002
112	0x3e3bd76e	0.18343899
113	0x3e3d601b	0.18493693
114	0x3e6411d1	0.22272421
115	0x3e0c2b93	0.13688497
116	0x3e82c096	0.25537556
117	0x3eb67679	0.35637262
118	0x3e90574b	0.281916
119	0x3e5129ba	0.20426074
120	0x3e1a4cb7	0.15068327
121	0x3e07492e	0.1321151
122	0x3e4801c7	0.19531928
123	0x3df301cd	0.11865578
124	0x3e0a20b6	0.1348904
125	0x3e972ee8	0.29527974
126	0x3e2b2fb6	0.16717419
127	0x3e213219	0.15741767
128	0x3e956c97	0.2918441
129	0x3e5d6d2d	0.21623679
130	0x3e4bed05	0.19914635
131	0x3ea994cb	0.33121333
132	0x3e955804	0.29168713
133	0x3e257ff4	0.16162091
134	0x3ebcc775	0.36870924
135	0x3eb7ebc3	0.3592206
136	0x3e991c9e	0.29904646
137	0x3dfc70b9	0.12326188
138	0x3e3f1dfe	0.18663785
139	0x3e3498f6	0.17636475
140	0x3e1a05fb	0.15041344
141	0x3e88eb38	0.26741958
142	0x3e63f22c	0.2226035
143	0x3e6b5a11	0.22983576
144	0x3e934348	0.2876227
145	0x3ea80bdd	0.3282155
146	0x3e9745f7	0.29545566
147	0x3ebb8d40	0.36631203
148	0x3e6d88e9	0.23196758
149	0x3eadd206	0.33949298
150	0x3df2d07e	0.11856173
151	0x3e29235c	0.16517395
152	0x3e087a99	0.13328017
153	0x3dff7418	0.12473315
154	0x3ec33e2c	0.3813337
155	0x3e0020c2	0.12512496
156	0x3da18297	0.07886236
157	0x3e2f40a4	0.17114502
158	0x3df42eac	0.119229645
159	0x3e4e689a	0.2015709
160	0x3e77c748	0.24197114
161	0x3df38aba	0.11891694
162	0x3e80aaf8	0.2513044
163	0x3e54fc69	0.20799412
164	0x3dcf5d00	0.1012516
165	0x3e38a278	0.18030727
166	0x3eb75a90	0.3581128
167	0x3e2ee00a	0.17077652
168	0x3e3bc3bd	0.18336387
169	0x3e53d9e7	0.20688592
170	0x3e7d8ef8	0.2476157
171	0x3e10550f	0.14094947
172	0x3e84ca78	0.2593572
173	0x3e1dd9a3	0.15415053
174	0x3e188938	0.14896095
175	0x3de89174	0.11355868
176	0x3dcef0cd	0.10104523
177	0x3e8c2b97	0.27377006
178	0x3ea36312	0.31911522
179	0x3dd4bb0a	0.10387237
180	0x3e5a0884	0.21292311
181	0x3e132ee6	0.14373359
182	0x3e6e6d67	0.23283921
183	0x3e2cb045	0.16864116
184	0x3e48a46e	0.19593975
185	0x3e8ca21b	0.27467427
186	0x3ea8625a	0.32887536
187	0x3e738aa8	0.23783362
188	0x3ea346c1	0.31889918
189	0x3e8fbde6	0.2807457
190	0x3e0a6e5b	0.1351866
191	0x3e15bf14	0.14623672
192	0x3e847d25	0.25876728
193	0x3e5b0d8a	0.21391883
194	0x3e03b74c	0.12862891
195	0x3dd62319	0.10455913
196	0x3df22c2c	0.11824831
197	0x3e5d0b97	0.21586452
198	0x3e61df82	0.22057918
199	0x3e599ff4	0.21252424

layers.2.running_var f4 [200]
0	0x3e019135	0.12653048
1	0x3dded045	0.10879568
2	0x3dc68d9c	0.096949786
3	0x3d88dbdc	0.0668256
4	0x3db11ba8	0.08647853
5	0x3e15aeda	0.14617482
6	0x3df7fac0	0.12108374
7	0x3e07284e	0.13198969
8	0x3df911d7	0.12161606
9	0x3e8d2f64	0.2757522
10	0x3e07f393	0.1327651
11	0x3d8530a8	0.06503421
12	0x3dccb501	0.09995461
13	0x3e2c663a	0.16835871
14	0x3d877023	0.06613185
15	0x3d971432	0.07376899
16	0x3da74e5b	0.08169242
17	0x3e202302	0.15638354
18	0x3e68dc76	0.22740349
19	0x3e17be8b	0.1481878
20	0x3ddeb700	0.10874748
21	0x3ddc7bb1	0.1076578
22	0x3d847109	0.06466872
23	0x3dc7a0aa	0.09747441
24	0x3d481fef	0.04885858
25	0x3e1c6b47	0.15275298
26	0x3dc56d3f	0.09639978
27	0x3d2fc67e	0.042913906
28	0x3da9cbe0	0.08290839
29	0x3e0457c1	0.129241
30	0x3db276f6	0.08714096
31	0x3e1bfbfb	0.15232842
32	0x3cd381c9	0.025818722
33	0x3dfb2db1	0.12264574
34	0x3dc38775	0.09547321
35	0x3db0ebff	0.08638763
36	0x3e1e793c	0.15475935
37	0x3e476da4	0.19475418
38	0x3e2c3201	0.1681595
39	0x3e04f17f	0.12982748
40	0x3d123fe6	0.03570547
41	0x3e28c1d9	0.16480197
42	0x3de43033	0.11142006
43	0x3dbc7082	0.09201147
44	0x3da8e37c	0.08246514
45	0x3dc8ab9c	0.09798357
46	0x3e1f8c54	0.15580875
47	0x3d471cae	0.048611335
48	0x3dbfdacd	0.09367905
49	0x3e12a976	0.14322457
50	0x3dd6200f	0.104553334
51	0x3e94f8f7	0.29096195
52	0x3e38e1f6	0.18054947
53	0x3cfab969	0.030605989
54	0x3e14d0b4	0.14532739
55	0x3d716f54	0.05894406
56	0x3e3284a7	0.17433415
57	0x3e08c8f7	0.13357912
58	0x3de7c94f	0.113176934
59	0x3ddd079f	0.10792469
60	0x3e4ae007	0.19812022
61	0x3db6dd72	0.08928956
62	0x3c95303e	0.01821148
63	0x3d258874	0.040413335
64	0x3e150d3c	0.1455583
65	0x3d601f92	0.054717608
66	0x3d906333	0.07050171
67	0x3dc3de2d	0.09563861
68	0x3d2b643b	0.041843634
69	0x3e2444ab	0.1604182
70	0x3e253653	0.16134004
71	0x3d8eac21	0.06966425
72	0x3e2f8cda	0.17143574
73	0x3db3c34e	0.08777486
74	0x3ccbcb7a	0.024877299
75	0x3d7dc472	0.061954923
76	0x3d48e3ec	0.04904549
77	0x3da470fe	0.08029364
78	0x3d696cc6	0.0569885
79	0x3d1921f5	0.0373859
80	0x3e79b198	0.24384153
81	0x3dc5daff	0.09660911
82	0x3de4ed69	0.11178095
83	0x3dcdc336	0.10046999
84	0x3db12e81	0.08651448
85	0x3dc614cc	0.096719354
86	0x3d04b432	0.03239841
87	0x3dc01cee	0.09380518
88	0x3db27529	0.08713753
89	0x3de90c91	0.1137935
90	0x3dba76c8	0.09104687
91	0x3e214e60	0.15752554
92	0x3e0d06ec	0.13772172
93	0x3dca2a5b	0.0987136
94	0x3db70475	0.08936397
95	0x3e38d76c	0.18050927
96	0x3e51a571	0.20473267
97	0x3de5a2da	0.11212702
98	0x3e19aeaa	0.15008035
99	0x3db48bc1	0.088157184
100	0x3dfdd47d	0.123940445
101	0x3e1df153	0.15424089
102	0x3dfd0945	0.12355284
103	0x3e03c141	0.1286669
104	0x3dabd150	0.083895326
105	0x3dc987c5	0.09840349
106	0x3d015a07	0.031579997
107	0x3defc6fd	0.11707876
108	0x3d5d7191	0.054063383
109	0x3e65e312	0.22449902
110	0x3ddca0bd	0.10772846
111	0x3d9b42b3	0.07581081
112	0x3da569f8	0.080768526
113	0x3e16d814	0.14730865
114	0x3d6e3674	0.0581574
115	0x3dcdc0c2	0.10046531
116	0x3e5cbf8d	0.21557446
117	0x3e34720c	0.1762163
118	0x3e074f14	0.1321376
119	0x3d6f55e5	0.058431525
120	0x3c816f21	0.01580006
121	0x3daf2499	0.08551902
122	0x3dfbab74	0.122885615
123	0x3d9c2deb	0.07625946
124	0x3da2f1cd	0.07956276
125	0x3e1a72ee	0.15082905
126	0x3dbabd8a	0.09118183
127	0x3cbc0403	0.022951132
128	0x3e3d49d0	0.18485188
129	0x3d76e143	0.06027342
130	0x3e0bbdab	0.13646571
131	0x3e16962f	0.14705728
132	0x3dc6caae	0.09706627
133	0x3df41158	0.119173706
134	0x3db88e93	0.09011569
135	0x3e4eaf88	0.20184147
136	0x3e0be53a	0.13661662
137	0x3dc4065c	0.095715255
138	0x3ddf0114	0.108888775
139	0x3da45d0b	0.08025559
140	0x3d809ee2	0.062803045
141	0x3e40c6d4	0.18825847
142	0x3dc13ce7	0.09435444
143	0x3d83a48e	0.06427871
144	0x3e21397f	0.1574459
145	0x3df26526	0.11835699
146	0x3e2abded	0.16674013
147	0x3e0a358a	0.13496986
148	0x3e0f961d	0.14022107
149	0x3d2d3653	0.042288136
150	0x3d5ca219	0.053865526
151	0x3da7f063	0.08200147
152	0x3d4e87ba	0.050422408
153	0x3d5387b8	0.051643103
154	0x3d776861	0.060402278
155	0x3d1f876a	0.0389475
156	0x3d0a9af3	0.033839177
157	0x3e471274	0.19440633
158	0x3e106d28	0.1410414
159	0x3dddbdcc	0.108272165
160	0x3dcc6684	0.09980491
161	0x3d3e2b49	0.046428
162	0x3e124aad	0.14286299
163	0x3dc1de09	0.09466178
164	0x3e0912b4	0.13386041
165	0x3d9b55c6	0.07584719
166	0x3dc0499a	0.093890384
167	0x3e1255eb	0.14290588
168	0x3dda4936	0.10658495
169	0x3d2f9edf	0.04287612
170	0x3e0daa64	0.1383453
171	0x3dcdc28e	0.10046874
172	0x3db3b870	0.08775413
173	0x3d8a0529	0.067392655
174	0x3cb71db6	0.022353034
175	0x3d156224	0.036470547
176	0x3dc1596c	0.09440884
177	0x3e084e20	0.13311052
178	0x3e3959e9	0.18100704
179	0x3dcf35b8	0.10117668
180	0x3e02daf0	0.1277883
181	0x3dba1b70	0.090872645
182	0x3db9e697	0.09077185
183	0x3e096e00	0.13420868
184	0x3dd832f0	0.105565906
185	0x3e0ad423	0.13557486
186	0x3e152fe1	0.14569046
187	0x3de60703	0.11231806
188	0x3e1187c5	0.14211948
189	0x3daffb05	0.085928
190	0x3d24ce4a	0.040235795
191	0x3e46dd02	0.19420245
192	0x3d558065	0.0521244
193	0x3dd12804	0.102127105
194	0x3d71a7c2	0.058997877
195	0x3e099da0	0.13439035
196	0x3d83b925	0.06431798
197	0x3dd247b2	0.10267581
198	0x3d96c5af	0.07361924
199	0x3dff1684	0.124554664

layers.4.weight f4 [100, 200]
0	0x3bda7bf7	0.00666761
1	0x3d565b39	0.05233309
2	0xbc60892a	-0.013704577
3	0xbd83cb4e	-0.06435262
4	0x3c84d9cf	0.01621714
5	0x3d30bfba	0.043151595
6	0x3c4c89c7	0.012484021
7	0xbd4219e7	-0.047387984
8	0xbd667f07	-0.056273486
9	0xbbe3a9c8	-0.0069477297
10	0x3d816046	0.06317191
11	0xbd84cf07	-0.064848
12	0xbd112217	-0.0354329
13	0xbc131a48	-0.008978434
14	0x3d045c32	0.032314487
15	0x3dad5819	0.08464069
16	0x3c2ab0ff	0.010418176
17	0x3d513d58	0.051083893
18	0x3d4a4123	0.049378525
19	0xbc21360d	-0.009839547
20	0xbd4eafb7	-0.050460543
21	0x3d976636	0.07392542
22	0x3d03112e	0.031998806
23	0xbc83a273	-0.016068673
24	0xbbf19071	-0.007371955
25	0xbcfcaec3	-0.030845052
26	0xbdcc7411	-0.099830754
27	0xbd61763b	-0.055044394
28	0xbd7a9a68	-0.06118241
29	0x3cdf17ba	0.027232993
30	0x3d2a75c9	0.041616235
31	0x3bcea6b4	0.0063064937
32	0xbc30fb2f	-0.010802074
33	0x3ce5a1fd	0.028031344
34	0x3d024d4d	0.031812
35	0xbd19911a	-0.037491895
36	0xbd96b617	-0.0735895
37	0xbd041fee	-0.032257013
38	0xbd5586f0	-0.05213064
39	0xbd21294c	-0.039346024
40	0x3d0564e6	0.032566927
41	0x3d6957ee	0.056968622
42	0x3bd2931d	0.0064262287
43	0x3b9d0717	0.004792105
44	0x3d138601	0.036016468
45	0xbcdf2437	-0.027238948
46	0xbc378daf	-0.011203214
47	0xbd89a4e4	-0.067209035
48	0xbd1365fd	-0.035985935
49	0xbc5bf1c7	-0.013424343
50	0x3d3fce99	0.046827886
51	0xbce8ff05	-0.028441915
52	0x3c26e7ce	0.0101871025
53	0xbd93bc63	-0.07213666
54	0xbb5b9243	-0.0033503927
55	0x3bb08eaa	0.0053881006
56	0xbc49dab5	-0.01232021
57	0xbc52521a	-0.012836957
58	0x3d8c7b63	0.06859472
59	0x3ce23774	0.027614333
60	0x3d70dfeb	0.058807295
61	0x3d4dee13	0.050275873
62	0xbd0ec5ed	-0.034856725
63	0xbd041b5c	-0.032252654
64	0xbcb5966e	-0.022166457
65	0xbc0c352f	-0.008557602
66	0xbdb6a94f	-0.08919012
67	0xbcdf1eb5	-0.027236322
68	0xbd5dc0a2	-0.054138787
69	0xbd2ded2e	-0.04246252
70	0x3cb14de6	0.02164359
71	0xbd5b8b0e	-0.05359941
72	0xbdd3df10	-0.1034528
73	0xbc1dab14	-0.009623308
74	0xbbdc50a5	-0.0067234808
75	0x3d3aaa7a	0.045572735
76	0x3ceef6cf	0.029170422
77	0x3d245721	0.040122155
78	0xbca0e0d4	-0.019638456
79	0xbd8d028c	-0.068852514
80	0x3d8646c1	0.06556464
81	0x3c7c85dc	0.015412774
82	0xbd2404e8	-0.04004374
83	0xbd3410d3	-0.043961357
84	0xbd948274	-0.072514445
85	0xbd27ceca	-0.040968694
86	0x3d8e2f33	0.06942596
87	0x3c9c184e	0.019054558
88	0x3d84474b	0.064589106
89	0xbc1b7871	-0.009489165
90	0x3d15c9ed	0.036569525
91	0x3d90b529	0.070658036
92	0x3c078fcc	0.00827403
93	0x3a42e46e	0.00074345514
94	0xbd000711	-0.03125674
95	0xbbeee4f6	-0.007290478
96	0x3c740233	0.014893102
97	0xbd07fdb9	-0.033200953
98	0x3d197f44	0.037474886
99	0x3cb9f534	0.02269993
100	0x3c6a16ef	0.014287694
101	0x3d91d647	0.07120948
102	0xbdaa8a33	-0.08327141
103	0xbd5d1b12	-0.053980894
104	0x3d0abd62	0.033872016
105	0x3cf93528	0.030420855
106	0xbda2be27	-0.07946425
107	0x3d342a58	0.043985695
108	0x3d221874	0.0395741
109	0x3cc4517b	0.023964634
110	0x3d83cb6b	0.06435283
111	0x3c22bf79	0.009933346
112	0x3d4d85d5	0.05017646
113	0x3ba41f2f	0.0050086
114	0x3c2ad6ed	0.010427219
115	0x3c90291b	0.017597726
116	0xbd21c2df	-0.039492484
117	0xbd29567b	-0.04134224
118	0x3ce9bf25	0.028533528
119	0xbd27865c	-0.04089962
120	0xbd1f490e	-0.03888803
121	0x3d919576	0.071085855
122	0xbc1977d9	-0.009366953
123	0x3d89ac5d	0.06722329
124	0xbd00b672	-0.031423993
125	0xbd4dcedf	-0.050246116
126	0x3ba275aa	0.0049578743
127	0x3c8fdb8b	0.017560741
128	0xbd366627	-0.044531014
129	0x3d0ef6bf	0.034903284
130	0xbce37752	-0.027766857
131	0x3d5761bb	0.052583437
132	0xbd182102	-0.037140854
133	0xbd893820	-0.06700158
134	0x3cc80419	0.024416016
135	0xbcafc330	-0.021455377
136	0x3b7d8bff	0.003868818
137	0xbc229b80	-0.009924769
138	0x3cf8b921	0.030361714
139	0xbc52e29d	-0.012871412
140	0xbcc4de84	-0.024031885
141	0xbd2d58f4	-0.04232116
142	0x3d64ba63	0.055841815
143	0x3cb87cff	0.02252054
144	0x3c980705	0.018558035
145	0x3c826c52	0.015920792
146	0xbcd9327a	-0.026513327
147	0x3d1c1657	0.038107242
148	0x3d0b7392	0.034045763
149	0xbdcbd6aa	-0.09953053
150	0x3cdd42b3	0.027009344
151	0x3bad3de3	0.0052869185
152	0xbcc7ec37	-0.024404628
153	0x3cc00818	0.02344136
154	0x3d0a1903	0.03371526
155	0x3cda783d	0.026668662
156	0xbd198c4a	-0.037487306
157	0x3d109400	0.035297394
158	0x3d94f5ba	0.07273431
159	0xbd04f716	-0.032462202
160	0x3cd1cb2a	0.025609571
161	0xbb6b7732	-0.00359292
162	0xbd77fc4c	-0.060543343
163	0x3d007c3e	0.031368487
164	0xbce465b1	-0.027880521
165	0x3d312b24	0.043254033
166	0xba932b18	-0.0011228053
167	0x3dae4456	0.08509128
168	0x3c417b14	0.011809129
169	0xbda517bb	-0.08061167
170	0x3d12bb9d	0.035823453
171	0xbda54966	-0.0807064
172	0x3a956264	0.001139712
173	0xbd5a62ee	-0.053317003
174	0xbd400008	-0.04687503
175	0x3c918338	0.017762765
176	0x3d4caaf1	0.04996771
177	0xbd6660a7	-0.05624452
178	0xbba30417	-0.004974853
179	0x3db74ef9	0.0895061
180	0xbbf110b9	-0.00735673
181	0xbc5a84c1	-0.013337315
182	0x3c588098	0.013214253
183	0xbd120197	-0.035646047
184	0x3cbc1483	0.022959
185	0x3c213ac5	0.009840672
186	0x3c707e27	0.014678515
187	0x3d579f37	0.052642073
188	0xbd33095e	-0.043710105
189	0x3c8215a9	0.015879469
190	0xbdbd55d4	-0.09244886
191	0x3d980da0	0.07424474
192	0x3d0189b4	0.031625465
193	0x3be29475	0.00691467
194	0x3b4ad727	0.0030950995
195	0xbd208e47	-0.039198186
196	0x3c96c14e	0.018402722
197	0xbd54f305	-0.051989574
198	0xba0834dc	-0.0005195865
199	0xbcb7dcfa	-0.022444237
200	0xbc919106	-0.017769348
201	0x38d2532b	0.000100290716
202	0xbd92a922	-0.07161166
203	0x3cf9e9cd	0.030506993
204	0x3d86f179	0.06589026
205	0xbb4f87aa	-0.0031666555
206	0x3d4111c8	0.0471361
207	0xbd4948d4	-0.04914172
208	0xbcad4a26	-0.02115352
209	0x3c11f1ea	0.008907774
210	0x3d4cd4ce	0.050007634
211	0xbd002e1e	-0.03129398
212	0x3ced42f1	0.028962584
213	0x3d018a3c	0.03162597
214	0xbcda2fa9	-0.026634054
215	0xbd147a3b	-0.03624938
216	0x3ca2e30e	0.019883659
217	0xbd300928	-0.042977482
218	0xbda472c6	-0.08029704
219	0xbc6f6951	-0.014612512
220	0x3c1e69e3	0.0096688
221	0xb97217d2	-0.00023087792
222	0x3b1a9f6d	0.002359356
223	0xbd7f35d6	-0.0623072
224	0x3d9616f9	0.073286004
225	0x3ca0f7b6	0.019649368
226	0x3c7f77f0	0.01559256
227	0xbc97a3ff	-0.018510817
228	0x3d664d36	0.056225978
229	0xbd8beab6	-0.06831877
230	0xbd31f6f9	-0.043448422
231	0xbd126e3f	-0.03574967
232	0xbd80fd7d	-0.06298349
233	0x3d29ab1b	0.041422945
234	0x3c95102e	0.018196192
235	0x3d123a87	0.035700347
236	0x3d04d38e	0.032428317
237	0x3c973d0b	0.018461725
238	0xbca232ae	-0.019799557
239	0xbcea3822	-0.02859122
240	0x3c9feebd	0.019523019
241	0x3d46d010	0.048538268
242	0x3d3da3ed	0.04629891
243	0xbc3d77b2	-0.011564182
244	0xbd40ba34	-0.047052577
245	0xbcbc70f3	-0.023003077
246	0xbc640595	-0.0139173465
247	0xbcfa4619	-0.030551003
248	0x3c0a5001	0.008441926
249	0x3ca292e0	0.019845426
250	0x3c7f5154	0.015583355
251	0xbcadc940	-0.021214128
252	0x3cc72513	0.02430967
253	0xbdc09555	-0.09403483
254	0xbc29e83e	-0.010370312
255	0x3d53cc0e	0.051708274

layers.4.bias f4 [100]
0	0x3d089253	0.03334267
1	0x3d6da0b7	0.058014598
2	0x3d5d02b7	0.053957667
3	0x3deeff39	0.116697736
4	0x3dd497e9	0.10380537
5	0x3e0f50f0	0.13995719
6	0xbb069cc3	-0.0020540215
7	0xbd87dad5	-0.06633536
8	0x3d4135b8	0.04717037
9	0xbbd15278	-0.006388005
10	0x3e0db80e	0.13839743
11	0x3c264be1	0.010149927
12	0x3c8f9904	0.017529018
13	0x3e14ac0d	0.14518757
14	0x3e160090	0.14648652
15	0x3e0d4e92	0.13799503
16	0xbc910272	-0.017701361
17	0xbbf63ee6	-0.0075148223
18	0x3d8b3d3b	0.06798788
19	0x3e5a85d9	0.21340121
20	0xbc6e5ebf	-0.014548956
21	0x3e0a4456	0.1350263
22	0x3e0ab62a	0.13546053
23	0x3d81483a	0.06312604
24	0x3d9f5fc7	0.0778194
25	0x3d5d7bcb	0.054073136
26	0x3dcef738	0.10105747
27	0x3d40ac7e	0.0470395
28	0x3dd9ae3c	0.10628936
29	0xbcebed91	-0.028799804
30	0x3d8ebc97	0.069695644
31	0x3e1ce034	0.15319902
32	0xbc40d1d5	-0.011768778
33	0x3c3143ae	0.010819359
34	0x3d4aa689	0.049475227
35	0x3d8ba665	0.068188466
36	0x3cdb2c5a	0.026754547
37	0x3d5d9237	0.05409452
38	0x3d016ba6	0.031596802
39	0xbb0b38ef	-0.0021243652
40	0xbb899ef7	-0.0041998583
41	0x3dde5a94	0.1085712
42	0xbc136036	-0.008995106
43	0x3e112e67	0.14177857
44	0x3d3931c6	0.045213483
45	0x3df09f18	0.11749095
46	0x3dd2a4d0	0.10285342
47	0x3d50c893	0.050972532
48	0x3d2f8126	0.042847775
49	0x3e08a344	0.13343531
50	0x3b0926c4	0.0020927647
51	0x3df3bdae	0.11901413
52	0xbc8d593d	-0.017254466
53	0x3e4bafab	0.19891231
54	0x3d5911c4	0.05299546
55	0x3e1d6981	0.15372278
56	0x3d60fefd	0.054930676
57	0x3d907880	0.070542336
58	0x3e146c23	0.14494376
59	0x3e0bad28	0.13640273
60	0x3e3611ac	0.17780179
61	0x3dad1e44	0.08453038
62	0x3d87e603	0.06635668
63	0x3c8cf18a	0.017205019
64	0x3c10d3bf	0.008839547
65	0x3d600c6b	0.054699343
66	0xbd773e0f	-0.060361918
67	0x3dd71b31	0.10503233
68	0x3e38e6b8	0.18056762
69	0x3e5e9887	0.21737872
70	0xbd5a41f6	-0.05328556
71	0x3ad9b852	0.0016610718
72	0x3e0d6afc	0.13810343
73	0x3dec5d8d	0.11541281
74	0x3e7a1486	0.24421892
75	0x3c0c2a0f	0.008554949
76	0x3cbeab2d	0.023274982
77	0x3df2609a	0.118348315
78	0x3bc14c7f	0.0058990116
79	0x3d911c63	0.070854925
80	0xbc9fe5c2	-0.019518737
81	0x3dfcdbf3	0.123466395
82	0x3e0daaf4	0.13834745
83	0xbd98034d	-0.074225046
84	0x3d216713	0.03940494
85	0xbc9cb04d	-0.019127036
86	0x3d81410f	0.06311237
87	0x3e2a121a	0.16608468
88	0x3dff8290	0.12476075
89	0xbdae38ab	-0.08506902
90	0x3e066619	0.13124885
91	0x3d2cf945	0.04222991
92	0x3e21dc2c	0.15806645
93	0x3dd3bb11	0.103384145
94	0x3c1e0e43	0.009646955
95	0xbc565d4f	-0.01308377
96	0x3e0d2e2f	0.13787149
97	0x3e22dc82	0.1590443
98	0x3c0ba588	0.008523352
99	0x3d169282	0.036760814
